ShadowWeave/Multi-Hop Aggregation(2-hop)/ShadowWeave(2-hop).pth (torch, 60078 bytes, 9 tensors)

node_type_embedding.weight f4 [11, 128]
000000 f1 62 1d bf 1e 00 4d 3d 85 de 3c a0 26 01 6d bd
       -0.614791 0.05004894 -1.5997845e-19 -0.057862423
000010 c2 a8 24 3f cd 93 a2 bc 62 b8 b6 be 9f 8f 24 3d
       0.64320004 -0.019845868 -0.35687548 0.04017603
000020 60 f2 85 bf eb 62 34 bb ff e2 7e 3f ae 7c 15 3e
       -1.0464592 -0.002752478 0.9956512 0.14598343
000030 c8 26 95 1b fc 29 28 9e 32 d7 09 be ea c2 8b 3c
       2.4675044e-22 -8.902528e-21 -0.13460997 0.017060716
000040 5a 1f 9a be ea 92 70 bc 4f 1d 90 9d 1d aa b0 3f
       -0.30102044 -0.014683465 -3.8146787e-21 1.3801914
000050 6a 65 50 3f 27 45 4a 3d 0d a8 20 bf ba 05 6b 3d
       0.81404746 0.049382355 -0.62756425 0.05737851
000060 c9 ba 29 bd 79 dd 6a 16 d2 ad 69 16 39 ac 51 3d
       -0.041437898 1.8972254e-25 1.8876438e-25 0.051189635
000070 36 b0 95 be 5a 45 ba bd 26 34 64 be e2 f9 03 3f
       -0.29236 -0.09095259 -0.22285518 0.51553166
000080 57 3a 5a bf 68 c9 c6 3e 79 da 0c 34 9c 2f 0f 3b
       -0.8524527 0.38825536 1.3117996e-07 0.0021848446
000090 ca de fa be 4b a9 1c 3e 23 85 b2 3f d6 3d a7 be
       -0.489981 0.15298955 1.394688 -0.32664365
0000a0 64 ef db 3a 84 d6 a4 bb 3c a0 e0 3d 20 e9 da 3f
       0.0016779718 -0.005030455 0.10968062 1.7102394
0000b0 35 7c e8 3e 70 00 b7 99 5e c1 5a bf 13 c2 b7 be
       0.45407262 -1.8921933e-23 -0.85451305 -0.35890254
0000c0 e3 86 28 3f 43 80 b4 be 07 72 e7 b9 42 9b 86 bc
       0.6583082 -0.35254106 -0.0004414471 -0.016431455
0000d0 c9 8a b2 bd 37 8e aa 3c d1 85 54 3d 9a a8 5c 36
       -0.087178774 0.020819766 0.05188543 3.2880694e-06
0000e0 22 9b 22 3e 0f 38 3a bf 7f 49 c7 bb 81 8e 87 be
       0.15879491 -0.7274179 -0.0060817595 -0.2647591
0000f0 14 b1 f8 3d a9 f4 1e bf 7f d9 b4 bd a2 01 41 3f
       0.1214315 -0.6209207 -0.088305466 0.75393116
000100 ed 20 48 bf 03 f2 28 be de 8b 82 bf 12 5d 1b bd
       -0.7817524 -0.1649857 -1.0198934 -0.037930556
000110 07 5b d0 3f 21 d8 c7 bd 61 6a 96 bf 32 45 2f 3d
       1.6277779 -0.0975802 -1.1751214 0.0427906
000120 e3 94 5b 3f 21 79 76 be 40 76 56 3d f6 43 70 3e
       0.8577406 -0.24069645 0.052358866 0.23463425
000130 3c f6 fe 3b 3a 40 68 bf 26 2a af be fd db 71 be
       0.0077808183 -0.90723 -0.34211844 -0.23619075
000140 2a e2 53 be f4 89 27 bc 52 d8 8b bf 38 cc cf be
       -0.20691743 -0.010225762 -1.0925391 -0.40585494
000150 29 68 68 be 69 cb aa be 37 dc fd 3f a9 0c b3 3f
       -0.22695984 -0.33358315 1.9832829 1.3988239
000160 3d 0c a3 3f 66 79 c4 bf 33 da e4 be f3 2d 39 3e
       1.273811 -1.5349548 -0.44697723 0.18083934
000170 36 c0 c9 bf 81 85 0b bf 97 60 70 3f 45 0c 0b 3f
       -1.5761783 -0.54500586 0.93897384 0.54315597
000180 ce a8 9b b9 53 cd a9 32 d3 ef 53 97 f6 69 d8 be
       -0.00029689673 1.976756e-08 -6.848048e-25 -0.42268342
000190 af 0a f2 be 1b 17 38 bf 68 58 42 c0 86 58 05 3d
       -0.47273776 -0.71910256 -3.036646 0.032555126
0001a0 47 b5 1b bf 07 0f ef bb 94 90 0d 97 40 4d d3 be
       -0.6082348 -0.0072954926 -4.574204e-25 -0.41269875
0001b0 89 a0 9c be 53 99 6d b7 7a 98 d3 3d de f7 15 28
       -0.3059123 -1.4161999e-05 0.10331817 8.324909e-15
0001c0 e9 58 7e 3e 1e 1a 54 3f 77 28 97 3f 0d 35 ae 3d
       0.24838604 0.8285235 1.1809224 0.085062124
0001d0 2a 44 70 bf db 82 f5 3e f4 f2 f5 3e 71 0d 73 3e
       -0.9385401 0.47951397 0.4803692 0.23735596
0001e0 34 f6 69 be 99 6c 47 bd d1 99 d1 be 04 0c 63 ae
       -0.22847825 -0.04868755 -0.40937665 -5.1624496e-11
0001f0 19 ee 76 1a cc 47 cb 3d 88 92 a7 39 2e 35 8e bf
       5.106394e-23 0.099258035 0.00031961896 -1.1109979
000200 b5 21 69 3e ef 3f 66 bf 31 64 cb 3e 37 31 e0 be
       0.22766764 -0.89941305 0.39724877 -0.43787548
000210 df 7e 75 3f ac 68 99 3f c4 45 3e 3f e7 d4 fc 3e
       0.95896715 1.1985068 0.74325204 0.49381182
000220 ad 30 77 3f 5b cd 1b 3f 69 9e 1f 3f 59 a7 5c bf
       0.9655865 0.6086022 0.6235109 -0.8619285
000230 5b 1e 37 3f 6d 7b d9 bf f8 05 53 3e fb ce ab bf
       0.71530694 -1.6990792 0.20607746 -1.342254
000240 20 08 26 3f 3b 33 91 3f 6c 26 08 bf ed c3 fb be
       0.6485615 1.1343759 -0.5318363 -0.49172917
000250 63 4c ff 3e 15 45 91 3d 03 14 13 bf dc 2c 1d bf
       0.49862966 0.070932545 -0.5745241 -0.61396575
000260 d3 62 43 3f e1 88 47 3f 42 ec 84 3f b7 42 c9 bf
       0.7632267 0.77943236 1.03846 -1.5723485
000270 01 28 01 3f aa c0 70 be 44 fe 53 3f df 76 04 c0
       0.50451666 -0.23510996 0.82809854 -2.0697553
000280 4c cb 77 3f 8b 8a 32 3f 32 30 a4 3f 6f af 54 3f
       0.9679458 0.6974265 1.2827208 0.8308019
000290 d4 fa 2f bf d7 0f aa 3f 9e 52 c0 3f 61 f8 e4 be
       -0.6874211 1.3286084 1.5025213 -0.44720748
0002a0 28 7d ee be ca 35 9f 3e 10 c4 dd be 98 53 8c 3f
       -0.46579862 0.31095725 -0.43313646 1.0963011
0002b0 7e df 15 bf 8e 47 51 3f 1d c4 75 be 54 7a 30 3f
       -0.58544147 0.8174981 -0.24000593 0.6893666
0002c0 9a 3e dd be 5f 92 e1 bf 8f 97 c0 3f 2a c8 99 bf
       -0.43211824 -1.7622794 1.5046252 -1.201421
0002d0 ec 7b a0 bf ac 83 00 3f 3a 55 61 bf fc c1 27 3f
       -1.2537818 0.50200915 -0.8802067 0.6553037
0002e0 10 53 30 40 18 43 fa be 8f 1b 75 bf 5f e0 5c bf
       2.7550697 -0.48879313 -0.95745176 -0.86279863
0002f0 f9 a7 92 3c 90 a9 89 bf a0 b7 69 3f 4e bb 9b 3b
       0.017902361 -1.0754871 0.91295815 0.004752553
000300 3d 72 50 bf 10 37 0e bf e3 16 f9 bf 1c e0 af bf
       -0.81424314 -0.5555277 -1.946011 -1.3740268
000310 d9 29 76 be a0 b8 aa bf 16 2d 8f 3f 22 6f 9e bf
       -0.24039401 -1.3337593 1.1185634 -1.2377665
000320 99 e9 61 bf e3 b8 96 bf 6c f2 b0 bf 8a d0 cc bf
       -0.88247067 -1.1775173 -1.3823981 -1.6001141
000330 2d 7f 63 3e b8 a3 7b 3f 55 70 f6 bf fb c3 90 be
       0.22216482 0.9829669 -1.9253031 -0.2827452
000340 a4 fc 81 3f 75 5e 28 bf 07 1e 47 3e bf 2c 4f 3f
       1.0155225 -0.6576913 0.19445048 0.8092765
000350 17 c4 9d 3f 8b 1c b7 3f 1a ac 95 be ff 9f aa 3e
       1.2325467 1.4305586 -0.29232866 0.33325192
000360 e9 82 15 40 58 4e 0f 40 76 43 85 3f d5 76 b4 bf
       2.3361151 2.2391567 1.0411212 -1.4098765
000370 05 81 00 bf 68 aa 33 be 7e 01 b7 be 56 a2 3e 3f
       -0.5019687 -0.17545474 -0.35743326 0.74466455
000380 01 08 17 3e fb 2d 03 3f 78 7b 85 3f ed b4 46 bf
       0.14749147 0.51242036 1.0428305 -0.7761982
000390 52 65 0a 40 7e aa 94 bf 4f 66 ee be 3b fa d9 bf
       2.162434 -1.161453 -0.4656243 -1.7029489
0003a0 ac 80 8b 3f 81 4c 6e 3f db 3a 86 bc 8b a8 9a bf
       1.0898643 0.93085486 -0.016385486 -1.2082685
0003b0 bd 1a cf bf 58 d7 00 40 1c 1a 21 3f 4c 55 4a 3f
       -1.6180035 2.0131435 0.62930465 0.790364
0003c0 d9 5b e3 bf c5 73 2d 3e ff a7 02 c0 2a 0c d9 3f
       -1.7762405 0.16938694 -2.0415037 1.6956837
0003d0 b5 84 c4 bf bb 4f 55 bf 1b 76 dc be f8 a7 cf 3f
       -1.5352999 -0.83324784 -0.43058857 1.6223135
0003e0 f3 f3 c1 3f fa d8 85 3e ef 8f ba bf 66 b5 b2 3f
       1.5152572 0.26142102 -1.4575175 1.3961608
0003f0 c6 7e c4 be fa 51 03 40 a0 54 8e 3f 29 f4 14 40
       -0.3837797 2.0518785 1.1119576 2.3274024

conv1.convs.<node___to___node>.lin_l.weight f4 [16, 360]
000000 e2 a3 ac bc 56 0e d1 3b 48 9a 06 bd a0 73 de bc
       -0.02107424 0.006379883 -0.032861978 -0.027154744
000010 38 b6 14 3c c6 4e 64 3d 0a f2 3a b9 cf bf 85 bb
       0.009076647 0.055739187 -0.00017828509 -0.0040817033
000020 f3 b9 23 3d 4d 94 7f bc 0f 90 5b bb f9 b0 4c bd
       0.039972257 -0.0155993225 -0.0033502614 -0.04997346
000030 f0 f7 99 bc d4 5e 3a bd ba a9 13 3c cb e7 0f bd
       -0.018794984 -0.04550059 0.009012634 -0.035133164
000040 05 18 43 3d 70 79 d5 bc 79 64 42 bc ae be b2 bc
       0.04763033 -0.026058882 -0.011864775 -0.021819439
000050 86 00 cc 3c b5 4c 24 3d 5f 41 81 bd 17 85 d8 bc
       0.024902593 0.040112216 -0.06311297 -0.02643065
000060 db ab 25 bd 1c 36 c0 3b f9 4a 35 bd f4 c8 1e bd
       -0.040447097 0.0058658253 -0.044260953 -0.038765863
000070 15 a6 8c bb 36 dc 89 bb 72 e5 ee bc 58 51 c7 bb
       -0.0042922595 -0.0042071594 -0.029162142 -0.006082695
000080 56 5c 60 bd f6 31 b5 bc 22 4a 86 3c 1b 50 b9 3c
       -0.05477556 -0.02211855 0.016392771 0.022621205
000090 37 ce 0f 3d 8e 7b 9d 3b 0c ea 68 bd 1b 3a 8e bc
       0.03510877 0.0048059886 -0.05686383 -0.017361691
0000a0 ba 97 12 3d 49 2e 93 bd 8b ff 66 3c 96 fc ee 38
       0.03578923 -0.071865626 0.014099012 0.00011395772
0000b0 a0 69 f5 bc b1 4f 4a bd 24 aa 9d 3c 26 f1 1e bc
       -0.029957592 -0.049392406 0.019246168 -0.009701049
0000c0 32 77 6d 3d bb ce 8d 3d cb ca bd bc ef 19 8c bd
       0.057975 0.06924196 -0.023167988 -0.06840884
0000d0 b2 85 92 bc c7 08 53 bc fa ef 69 bd cf 87 54 3c
       -0.017886017 -0.012880511 -0.057113625 0.012971832
0000e0 36 2e 87 3d 39 2c 04 3b 4d 82 14 bd 2c f9 c5 3b
       0.06600611 0.002016796 -0.036257077 0.0060416665
0000f0 3d 12 fe 3c ee 06 0c bd 85 d9 98 bd 26 7a 40 bd
       0.031014556 -0.034186296 -0.074633636 -0.04699149
000100 81 0e a3 bd 15 9f 1e bd 1d d1 31 bd 85 81 ad 3c
       -0.07961751 -0.03872593 -0.043412317 0.021179924
000110 07 a8 86 bd d2 da e8 3c 40 7d 67 3d 0d c6 fa 3c
       -0.065750174 0.028424654 0.056515932 0.030612016
000120 0c fe 5e 3d 13 9c 85 bd d3 d8 6f 3c 4b 37 82 3d
       0.054441497 -0.065239094 0.014639097 0.063582025
000130 79 e3 67 bd 33 86 49 3c c3 bd 8f 3d 44 cd 79 bd
       -0.05661342 0.012300062 0.07018616 -0.060986772
000140 3d 64 37 ba 50 39 4b bd 47 90 34 3d 94 a5 c4 3c
       -0.00069958327 -0.049615204 0.044082906 0.024004735
000150 9c ab 43 bc c4 3c 4c 3d 39 f0 f7 3b 6c 74 2a 3d
       -0.01194277 0.049862638 0.0075664786 0.041614935
000160 da cc 74 bb b6 0f fd 3b 33 15 37 bd f8 fa ba 3c
       -0.0037353546 0.00772282 -0.04469795 0.02282475
000170 3f 56 c1 bc 8d 5c 5d 3d ac af 25 3c 81 b3 29 bd
       -0.023600696 0.05404334 0.010112684 -0.041430954
000180 0a a8 5d 3b bc cd 71 bd 67 d4 6e bc 89 42 4d bb
       0.0033822083 -0.059034094 -0.014577008 -0.0031320176
000190 04 bb 3b 3c aa d0 9b 3c 69 57 37 3d 56 0c 43 3d
       0.011458162 0.019020397 0.044761095 0.047619186
0001a0 bd 12 1d 3d 0a 21 9a 3d 57 cb fe 3b 9b e8 1b 3d
       0.03834795 0.07525833 0.007775705 0.038063627
0001b0 27 2d 80 3c 18 16 76 bd 60 ec 99 bc 90 f2 27 bd
       0.01564653 -0.060079664 -0.01878947 -0.04100281
0001c0 7d 70 9c 3d a8 66 0e bd 04 fa 4f 3c d6 31 49 bc
       0.07638643 -0.03476587 0.012693886 -0.012279948
0001d0 08 85 53 bc dd 8f 2a 3d 4e 99 ac 3b 02 1e 19 bd
       -0.012910135 0.041641105 0.005267299 -0.037382133
0001e0 d8 d1 1f 3d 8b ce 94 bd 64 ea a9 3d bf 64 55 3c
       0.039018482 -0.072659574 0.082966596 0.013024508
0001f0 80 84 2a 3d c6 4a d0 bc 42 bb 28 3c d8 6e 96 3a
       0.041630268 -0.02542628 0.010298552 0.0011477126
000200 29 0a db bc c0 65 7f bd 0b 29 ff 3c b7 67 2b 3a
       -0.026738243 -0.062352896 0.0311475 0.0006538587
000210 80 7c 1b 3d 7e b9 8c ba 5c 51 a6 bc 29 22 4d bc
       0.03796053 -0.0010736433 -0.020302467 -0.012520351
000220 ad a3 2d 3b 53 be 85 3b 7d ce b2 bd 2c df 17 3d
       0.0026495263 0.0040815263 -0.08730791 0.037078068
000230 3c 3d 7c bd b6 e4 3c 3d ef 9d be 3d b0 80 8b bc
       -0.061581835 0.046116553 0.09307467 -0.017029136
000240 5a c3 d2 bc f5 53 2d 3d 65 6d 68 3d 65 ab 23 3d
       -0.025727917 0.042316396 0.05674495 0.039958376
000250 75 98 75 bd 5c 9a 9b 3d 9d b8 76 3c 38 7c 3e 39
       -0.059959847 0.07597801 0.015058664 0.00018166087
000260 b0 48 72 3d 5e a7 3c 3d c3 a7 b9 bc 55 c1 48 3d
       0.05915135 0.04605805 -0.022663003 0.0490125
000270 c9 15 cb bc 19 b5 21 bd 4a cd 87 3d 42 d4 ca 3c
       -0.024790661 -0.03947935 0.06630953 0.024759416
000280 e7 2e 80 bc fa fc 41 bd 5c 8d 4c bd b1 06 85 3d
       -0.015647365 -0.047360398 -0.0499395 0.06495417
000290 04 aa b1 3c 1f 2c 90 bd 0a 8f 1f 3d 68 da 07 3c
       0.021687515 -0.070396654 0.038954772 0.008291818
0002a0 94 d1 14 bd 0b 48 7e bd 0d b4 bd 3c a2 bc 21 bd
       -0.03633268 -0.062080424 0.023157144 -0.039486535
0002b0 9e 51 ad 3d 73 e3 37 3d 08 35 05 3d 1b 22 34 bd
       0.08462833 0.044894647 0.032521278 -0.043977838
0002c0 15 44 63 bc cb c5 ca bc c6 91 04 bd 91 09 97 bc
       -0.0138712125 -0.024752518 -0.032365583 -0.018437179
0002d0 4a 91 17 3d 41 c3 95 3d c2 75 85 3c 70 82 f2 3c
       0.037003793 0.07312632 0.016291503 0.029603213
0002e0 5d b2 7e 3c 92 c4 b3 3c 51 72 8f bc 37 5b 25 bd
       0.015545455 0.021944318 -0.017510565 -0.040370192
0002f0 a8 f1 2a bd 83 2d c3 bc 69 08 83 bd a1 ce b8 3c
       -0.041734368 -0.023825413 -0.063980885 0.022559466
000300 7b 30 0f 3d ed c1 9f bd d9 93 e0 3c 2d ca 2b bd
       0.034958344 -0.0780066 0.02741425 -0.041940857
000310 4a db cd bc 00 65 52 bc cc ca 8a 3d c5 6b f0 3b
       -0.02512898 -0.012841463 0.06776962 0.007337066
000320 80 1f d3 3c e5 5c c7 bb 37 27 43 bc 06 4e 30 bc
       0.025771856 -0.006084072 -0.011911205 -0.01076079
000330 eb cd 66 3d f0 98 04 bd c8 8a 19 3d 1c 53 7f 3c
       0.056348722 -0.032372415 0.037485868 0.01558378
000340 9b 7e 2c bd ae df 3a 3a fa 29 90 3d ee b5 40 bd
       -0.042112928 0.0007128668 0.070392564 -0.0470485
000350 b6 a7 69 3d 74 4d 11 bc 2e a7 41 3b bd 7c a0 bc
       0.057044707 -0.008868564 0.002954911 -0.01959073
000360 27 52 53 3c ff 31 58 3c 3e d0 66 bc 67 8a 2c 3d
       0.012898005 0.013195514 -0.014087735 0.04212418
000370 b4 8d 89 3d b3 6c a6 3b c5 36 a3 bd f8 f5 9d bc
       0.06716481 0.005078876 -0.07969431 -0.019282326
000380 48 90 30 bc 45 0c 49 3d 18 48 40 3d 92 04 24 bc
       -0.010776587 0.049083967 0.046943754 -0.010010855
000390 c0 16 fe 3b d2 af 24 bc 94 3f 58 3c 69 4d 18 3d
       0.007754177 -0.010051684 0.013198752 0.0371832
0003a0 0c f4 f5 3b c3 3a 81 bd e0 6d f5 bc 2a 42 91 bb
       0.0075058993 -0.06310036 -0.029959619 -0.004432936
0003b0 e6 8e 9b 3d 31 b6 d7 3a ff 6a f1 3c 81 7d 67 bd
       0.07595615 0.0016457496 0.029469965 -0.056516174
0003c0 8a fb 36 3a d4 2e 8e 3d a9 72 33 bd 0b c8 46 bb
       0.0006980231 0.069425255 -0.04381052 -0.0030331637
0003d0 17 5c d4 3b dd 45 9d 3d 5a e7 4d bd 93 75 7b bd
       0.0064807045 0.07679341 -0.050269462 -0.061391424
0003e0 bf ad 18 3d d7 2f 63 3b 03 ee 10 3c 6b 83 2c 3c
       0.037275072 0.0034665966 0.008845809 0.010529379
0003f0 86 a5 4b 3d b8 a0 a2 bd 43 55 a4 3d 15 29 f9 3b
       0.049718402 -0.07940811 0.08024075 0.0076037743

conv1.convs.<node___to___node>.lin_l.bias f4 [16]
000000 6e b7 99 3d 4d 39 af 3d 31 d3 00 3d 53 27 02 3c
       0.075056896 0.08555851 0.031451408 0.007943946
000010 5f 12 76 3d 1d 64 ec bb e7 7a 3c bc 6b 3f be 3c
       0.060076114 -0.007214083 -0.011503912 0.0232236
000020 bd 6f 21 3b f8 1b c3 bc 45 22 07 3d 19 34 42 3d
       0.0024633252 -0.023817047 0.032991666 0.047412965
000030 60 1e 18 3d a5 09 4f 3c 72 bf 6e bc e3 61 16 3c
       0.037138343 0.012636577 -0.014572011 0.009178611

conv1.convs.<node___to___node>.lin_r.weight f4 [16, 360]
000000 45 84 75 3a e3 6a 5f 3d 37 54 5f 3b 04 c2 1e bc
       0.0009365718 0.054545294 0.0034077296 -0.009689812
000010 f1 d7 19 3d a0 74 1f 3d 77 11 a2 3c e5 de 93 3c
       0.037559453 0.03892958 0.019783719 0.01805062
000020 c1 2c 55 bd e0 a1 20 3d d3 72 e2 3c 06 66 1e bd
       -0.052044634 0.039216876 0.027642643 -0.038671516
000030 c4 23 be 3c 0f 7e f4 3c b0 08 93 3a 3b e8 8f 3d
       0.023210414 0.029845266 0.0011217799 0.07026716
000040 4d cd 93 3c 81 60 f8 bc 6a a0 80 3d 6a 45 46 bd
       0.018042231 -0.030319454 0.062805966 -0.048406042
000050 d7 bc 61 3b 5e 9a a3 3c 87 b2 75 bc 3b b2 21 bd
       0.0034444833 0.019971069 -0.0149961775 -0.039476614
000060 a2 f1 0e 3d 38 95 f7 bc b9 7f 2f 3c 76 6e 81 3d
       0.034898408 -0.03022252 0.010711604 0.06319897
000070 8d f7 09 bd f7 8c f7 3c dc 74 15 3d 61 0d 28 bd
       -0.03368335 0.030218584 0.0364884 -0.041028384
000080 05 e9 bd 3c 1b be 68 3d d4 d5 b5 bd 70 fa e2 3a
       0.023182401 0.056821924 -0.08878675 0.0017317068
000090 6f 79 1a 3d cc 4b 88 3b 54 24 3d bd b1 e0 3f 3d
       0.037713464 0.0041594263 -0.046177223 0.04684514
0000a0 16 bb d9 bc c9 52 e2 3c 54 b1 9a 3d 34 0f 88 3c
       -0.026578467 0.027627366 0.07553354 0.016608812
0000b0 f5 98 51 3d ab 84 a6 3d e8 af 94 3c 77 2c 9f bc
       0.05117126 0.08130773 0.018150285 -0.019430382
0000c0 a6 85 7f bd 6d fa 09 3c e4 8e f3 3d 3c 70 de bc
       -0.062383316 0.008421523 0.118924886 -0.027153127
0000d0 08 05 8a 3d 8a 58 99 3d 33 66 5b bb 56 49 3d bc
       0.06739241 0.074875906 -0.0033477664 -0.011553129
0000e0 39 9d 59 3c 39 a4 28 3c 45 c1 32 bd d6 45 91 bd
       0.013282114 0.01029306 -0.043641347 -0.07093398
0000f0 6c bb 98 3c e9 01 99 3c a6 99 75 3d e0 73 f6 3c
       0.018644057 0.018677669 0.059960984 0.03008455
000100 00 a2 10 3d b6 16 b1 3b 31 ca 91 3d d1 1d 09 3c
       0.035310745 0.0054043187 0.07118643 0.008368925
000110 d8 80 c1 bc ce 9f c1 3b 54 2a 96 bc 47 18 48 3d
       -0.023621008 0.005908943 -0.01833073 0.048851278
000120 2c d8 f7 bb 85 f7 5f 3c 9f e2 c8 3d af 4c 25 bd
       -0.0075636115 0.013669853 0.098088495 -0.040356334
000130 8b 92 8d bb 17 c3 94 3d d7 d0 99 3d f3 ae c0 3d
       -0.004320448 0.07263773 0.07510536 0.09408369
000140 0b 39 b7 3c 24 dc a3 3d 5b 40 d1 36 b7 46 94 bd
       0.022366067 0.08000973 6.2361773e-06 -0.0724005
000150 7b a3 83 bb fe 20 6e 3b 81 18 97 3d 8e 11 09 bd
       -0.004017291 0.0036335583 0.073777206 -0.033464007
000160 da d4 cd bc b3 9a be 3c 1e b2 38 bc b5 54 91 3d
       -0.02512591 0.023267126 -0.011272935 0.07096235
000170 98 67 92 3d f4 72 bf bd 08 04 49 3c bd d3 23 bb
       0.07148665 -0.093480974 0.0122690275 -0.0024998032
000180 08 d9 13 3d 83 c6 5c bd 9a d6 9f 3d eb a8 de 3a
       0.03609565 -0.053900253 0.07804604 0.0016987597
000190 8a 41 d7 3d a3 93 b8 3c 8c 6e 2e 3d f3 f7 79 3b
       0.105105475 0.022531336 0.042585894 0.0038142174
0001a0 de bc f6 3c c3 34 f7 3c 22 65 c9 3b 27 e6 93 3d
       0.030119356 0.030176526 0.006146089 0.072216325
0001b0 a9 b2 24 bc 87 90 0d 3c 03 83 c0 3d 09 5e 82 bd
       -0.0100523615 0.008640415 0.093999885 -0.06365592
0001c0 20 12 d5 3d db 24 88 bd 71 05 ad bc b8 6d a7 3d
       0.10403848 -0.066476546 -0.021120759 0.08175224
0001d0 52 ce a8 3d db df 40 bc 6f 9b a5 bc ca 8b 6b bd
       0.082424775 -0.011772121 -0.020215718 -0.05750636
0001e0 dc 25 15 3d 4d ae c2 bc 54 3e 1e 3c ff 7b 3a bd
       0.03641306 -0.023764754 0.009658415 -0.04552841
0001f0 0d dd 4d 3c 60 68 62 3d c3 61 96 3d 28 85 40 bc
       0.01256491 0.05527532 0.07342865 -0.011750497
000200 82 d6 24 3d 6d a8 8e bd 5a 46 6b bc 48 b4 ad 3d
       0.040243633 -0.069657184 -0.014360035 0.084816515
000210 27 7a 10 bd 15 ae 87 bc 47 16 ca 3d 7a 97 dc 3a
       -0.035272744 -0.016562501 0.0986753 0.0016829812
000220 18 10 2a bc 38 dd 64 bd b1 8c f7 3c 37 5d 38 bb
       -0.010379814 -0.055875033 0.030218454 -0.0028131732
000230 76 0f 9d bd e6 00 29 bd 5c 88 6f 3d 7d d3 aa bd
       -0.076689646 -0.041260622 0.05847965 -0.083411194
000240 ce 77 7d 3d 4e 30 75 3d 1e 44 c2 bd 5e 53 a3 bd
       0.061881833 0.05986052 -0.094856486 -0.079748854
000250 33 53 80 3c 48 73 f9 bc 51 62 af 39 59 63 49 bd
       0.015664672 -0.030450478 0.00033451853 -0.04916701
000260 5c bb 9c 3d 9b 1f 7d bc 06 5b 91 3c 59 ea ac 3c
       0.076529235 -0.01544943 0.017743599 0.02110784
000270 e8 d8 3b 3d 82 69 a9 bb 13 47 0a 3d c8 41 0e 3d
       0.045861155 -0.005170048 0.033759188 0.034730703
000280 a0 52 2d 3c d8 85 31 bd 2d 4f 6d bc 20 b1 82 3c
       0.010578781 -0.043340534 -0.014484209 0.0159536
000290 fd 3a b8 3d 88 29 00 bd 0b 8f 74 3d 3d 82 67 3c
       0.08995626 -0.031289607 0.05970673 0.014130172
0002a0 42 eb 6b 3d e2 10 82 bd a4 63 81 bc ad a9 c2 3d
       0.057597406 -0.063508764 -0.015794583 0.09505019
0002b0 a5 a7 20 bd 88 f0 9d bd d6 0e 22 3c 88 4a 77 bd
       -0.03922238 -0.07711893 0.0098912325 -0.060373813
0002c0 e4 66 e4 ba 81 ed 8c 3d 90 c4 8f bd e2 f6 df bc
       -0.0017425683 0.06881238 -0.07019913 -0.027339403
0002d0 d8 c6 8d 3c 3f b3 53 bd 4a 84 76 bd 10 5c 71 3d
       0.01730673 -0.051684614 -0.060184754 0.05892569
0002e0 51 b2 3b 3c 03 f3 91 bd 14 73 2e bc e4 b9 b0 bd
       0.011456088 -0.07126429 -0.010647554 -0.08629206
0002f0 0e ae b3 3c 83 52 35 3d 4a 8c b9 bc ae 19 32 bd
       0.021933582 0.044268142 -0.022649903 -0.04348152
000300 bf c4 2c 3d 8c a6 83 bb 37 32 9e bd 56 a7 25 3c
       0.04217982 -0.0040176567 -0.077244215 0.010110697
000310 e7 32 2d bd 73 45 41 b9 4a 00 03 bd 09 8f 42 3d
       -0.042284872 -0.00018431786 -0.031982698 0.04749969
000320 d9 38 33 bd b3 60 9f bc c5 75 73 3c 29 70 4d 3b
       -0.043755386 -0.01945529 0.014859621 0.003134737
000330 2c eb 98 3c 56 7c 6e bd 2d 4d 46 3d ac 04 96 3d
       0.018666826 -0.058224045 0.048413444 0.0732511
000340 cd bc cb bc 88 ea 0d bd d0 df 9c bd 57 f2 e3 3b
       -0.0248703 -0.034647495 -0.07659876 0.0069563794
000350 6b 00 22 3d 37 ea 9f bd a3 8f d5 bc 63 4a d4 bd
       0.03955118 -0.07808345 -0.026069468 -0.10365751
000360 67 0a 28 bb 8c 3f 63 bd c5 1a 9b bd 64 26 1a 3d
       -0.0025640966 -0.055480525 -0.07573465 0.03763427
000370 e7 a7 49 bc ba d5 81 3d 49 41 c6 38 0c 45 4a 3d
       -0.012308097 0.06339593 9.453536e-05 0.049382254
000380 98 42 12 bd f6 e7 70 3d d6 40 24 3d 3f b2 d5 bd
       -0.03570804 0.058814965 0.040100895 -0.10434388
000390 69 e1 0f bd b0 e9 1b bd 54 7a 81 bc 40 ba 1b 3d
       -0.035127077 -0.03806466 -0.0158054 0.03801942
0003a0 4a 0e ca 3a 47 26 29 3d 10 35 39 bc 4b 4c 6e 3d
       0.0015415635 0.04129627 -0.011304155 0.058178227
0003b0 a7 33 0f bc 6d e0 6c 3e 81 31 eb bd 60 f3 32 3d
       -0.008740342 0.23132487 -0.114840515 0.04368913
0003c0 dc 3f a4 bd 4e c3 aa bd d2 9e fb 3d 82 03 93 bd
       -0.08019993 -0.08338033 0.12286152 -0.071784034
0003d0 ed 94 64 3b 62 5e a0 bd 82 6d ec 3d d9 b0 05 bd
       0.0034878806 -0.07830502 0.115443245 -0.03263936
0003e0 b1 f3 cc 3d 86 51 55 3d 6c 86 88 3d 76 fb 4d 3d
       0.10007418 0.0520797 0.06666264 0.05028864
0003f0 95 23 32 39 2f a0 c9 3d ad 0c b3 bd ea a4 94 bc
       0.00016988658 0.09845006 -0.08742652 -0.018145043

conv2.convs.<node___to___node>.lin_l.weight f4 [16, 16]
000000 f9 e2 e2 3d 2c f0 d4 bd 40 60 4d 3d 91 28 ca 3d
       0.11078448 -0.10397372 0.05014062 0.09871019
000010 1b 59 3e 3e 5d a9 aa be 7b 13 9e be 64 40 2b 3d
       0.18588679 -0.3333234 -0.30874237 0.041809455
000020 ac 80 7c 3d 60 24 90 bd 7f 18 2b be 2b bc d4 bc
       0.06164615 -0.07038188 -0.16708563 -0.025968632
000030 ac 67 0e be 86 93 27 be e5 0c c7 bc 39 09 88 be
       -0.13906735 -0.1636487 -0.02429814 -0.26569536
000040 8e 20 1a 3e a9 e3 3d bd f0 c4 8c be 10 09 e0 bb
       0.15051481 -0.04635969 -0.27494 -0.006837018
000050 1f 8a 97 3d 43 19 83 bb f8 27 0b be 89 98 c3 3c
       0.073993914 -0.004000814 -0.13589466 0.023876445
000060 6d 41 1c be 9f 6d eb bd 4f 2f 19 3d 86 5f a4 bd
       -0.15259333 -0.11495518 0.037398633 -0.08026032
000070 39 4d aa 3d 37 b9 5b 3e 0d 69 f0 3d 60 64 ac 3d
       0.0831551 0.21457373 0.11738787 0.084175825
000080 6b c9 30 bc c7 00 87 bc af 7c 61 be 16 e5 70 be
       -0.010790209 -0.016479863 -0.2202022 -0.2352489
000090 80 2b 19 3e 9f 0d 5b 3e cd 9a 04 3e 1d 08 59 be
       0.14958 0.21391915 0.12949677 -0.21194501
0000a0 8f 16 9b 3c 60 09 f6 3d 50 f8 d7 3b 2b aa 61 3e
       0.018931655 0.12013507 0.0065908805 0.2203757
0000b0 b2 52 3f be 21 6c 5c 3e b5 1a 73 3e 85 ae 62 3c
       -0.1868389 0.21525623 0.23740657 0.013835554
0000c0 49 7f 50 be 02 8b 6a 3d 10 80 bc 3e b8 8b 03 3e
       -0.20361055 0.057261474 0.36816454 0.12846267
0000d0 00 4e 0b be 6d 53 25 3e cd 32 4d 3d 1c 35 f8 3d
       -0.13603973 0.16145106 0.050097276 0.12119505
0000e0 f7 24 97 3c a5 46 2d be 29 bd 78 bd 28 1a 26 bd
       0.018450243 -0.1692148 -0.060727272 -0.04055229
0000f0 6c 13 3a 3e 81 6e 6f be 1a 17 70 3e f8 83 1e 3c
       0.18171471 -0.23381998 0.23446313 0.0096750185
000100 0a 02 1b 3e 75 5f ff 3c c6 f8 90 bd 39 e9 60 3e
       0.15137497 0.031173447 -0.070787 0.21963967
000110 0d a0 16 bd bb 80 49 3e b8 a5 54 bd 49 45 3b 3e
       -0.03677373 0.19678013 -0.051915854 0.18288149
000120 40 fb 8e be ba a1 54 3e ae d9 a3 bd 24 0e 3c 3e
       -0.27926064 0.20764819 -0.080005035 0.18364769
000130 09 79 8d 3e ad 41 14 be c5 a3 91 be d7 b6 79 3e
       0.27631405 -0.14478178 -0.2844526 0.24386154
000140 3f 9f 9b bd 83 0d e7 bc a2 6f 78 3e 8d 7c 72 be
       -0.07598733 -0.028204685 0.24261335 -0.23680325
000150 c8 f2 0c be f5 17 46 3d b3 ac 31 3e b7 4d 50 3e
       -0.13764489 0.04836269 0.17351036 0.20342146
000160 c0 0e 59 3e 21 e7 c4 3d ff e5 5e be 67 65 23 3e
       0.21197033 0.09614397 -0.21767424 0.1595665
000170 b2 fa be bd d8 6c 02 be d8 2b 20 be 2b d0 5b be
       -0.0932516 -0.12736833 -0.15641725 -0.21466129
000180 fb 94 13 be 87 e7 4a be 07 c2 7a be 3b e2 87 bd
       -0.144123 -0.19814883 -0.24488078 -0.06634947
000190 50 46 84 3c 93 e3 3a be e8 a7 f9 3c 81 db 51 bd
       0.016146809 -0.18250875 0.030475572 -0.051234726
0001a0 0e 7f 6a be 08 81 b4 3d 80 42 fb bc 48 1b 13 bd
       -0.2290003 0.08813673 -0.030671358 -0.03591469
0001b0 8c dd 14 ba fd a2 4c 3e de 52 40 be 38 c3 b9 bd
       -0.0005678765 0.1998405 -0.18781611 -0.09070438
0001c0 08 61 23 3e a8 bd 8e 3e 90 16 23 be f6 72 8c bd
       0.15954983 0.2787907 -0.15926576 -0.068578646
0001d0 69 e3 11 be e5 8a 80 be 4e 4d f3 3d 3a 1d 42 be
       -0.14246906 -0.25105968 0.11879979 -0.18956462
0001e0 af e9 c1 bd 1e 85 44 be b7 e2 01 be d9 d2 54 3e
       -0.094684 -0.19191405 -0.12684141 0.20783557
0001f0 f6 4f 54 be 4e bf 1c 3e b3 80 8b be df 56 1c be
       -0.20733628 0.15307352 -0.27246627 -0.15267514
000200 05 65 a9 bd 36 5e b5 be b5 fc a0 3d 39 bc ee bd
       -0.08271221 -0.3542344 0.078607 -0.116569944
000210 05 d3 b2 3d 40 06 5b 3e be 27 76 3d 1e 19 f1 bd
       0.08731655 0.21389103 0.060096495 -0.11772369
000220 4b 33 1e 3e bf d4 1b be ae 90 04 3e e0 8a 27 3c
       0.15449254 -0.15217875 0.12945816 0.0102259815
000230 b0 cf a9 bd 2e 23 b7 bd d3 64 1c 3e d5 37 ab 3d
       -0.08291566 -0.08942257 0.15272836 0.083602585
000240 6c 4b 6a bc 13 78 a2 3d ef 8a 1d ba 25 bf 37 bc
       -0.014300209 0.079330586 -0.00060097774 -0.011215006
000250 36 10 6a bd 37 f1 fb bd 72 f0 1c be ff 90 1e 3e
       -0.057144366 -0.123018675 -0.15326098 0.15484999
000260 f1 38 78 be 33 41 38 3e a7 87 57 bd 56 a7 84 3e
       -0.24240471 0.17993622 -0.052619603 0.25908917
000270 bc bd 14 3e 32 98 20 3e d2 c4 e2 3d 1d 48 39 3d
       0.14525503 0.15683058 0.11072697 0.04523479
000280 45 b1 70 bb c9 9a 9d 3e 62 53 0c be 92 f2 7b bd
       -0.0036726755 0.30782154 -0.13703683 -0.06151063
000290 77 de 13 bd 0f 7d e9 bc 9d eb da bd fa 02 08 3e
       -0.03610083 -0.028502015 -0.10689471 0.13282385
0002a0 07 7d ea bd 20 4f 05 bd aa 06 91 bd 1f 04 0a be
       -0.11449628 -0.032546163 -0.07081349 -0.13478135
0002b0 5f 0e f8 bd b9 0c ff 3d a2 c1 4f 3e 86 2b 1c be
       -0.12112116 0.124535985 0.20288709 -0.15250978
0002c0 13 f3 62 be b5 52 1d bd 1a a9 ed bc 4d 8b e4 3d
       -0.22163038 -0.038408954 -0.029011298 0.11159382
0002d0 9e ed 81 be b9 20 ae bd 31 3d 34 be 0c ec 09 3d
       -0.253766 -0.08502335 -0.17601468 0.033672377
0002e0 6a 45 59 3e 3a f7 fb 3d ba f8 8c be c3 a3 3b bd
       0.21217886 0.12303014 -0.27533513 -0.045810472
0002f0 ff f5 81 be 56 cd 5e 3d d2 7d 37 bd 96 21 09 3e
       -0.25382993 0.054395042 -0.044797726 0.13391718
000300 97 8c 4f be f5 62 66 bb 45 f2 80 be f2 d2 5d be
       -0.20268475 -0.0035154198 -0.25184837 -0.216625
000310 12 9f 5a be 66 a9 9c 3c 0f d0 2e be 18 d7 ea 3c
       -0.21349743 0.019123744 -0.17071556 0.028667018
000320 2d d7 68 3e fd c0 82 3e ab 2e 61 3d 65 49 18 be
       0.22738333 0.25537863 0.054976147 -0.14871748
000330 9f a2 87 3d c4 da 96 3d 2d 9f 5e 3d dc 8d c3 bd
       0.066228144 0.07365945 0.05435102 -0.09548542
000340 1e 2f e7 3d e0 d3 0a be e1 32 11 be 81 29 5c 3e
       0.11288284 -0.13557386 -0.14179565 0.21500207
000350 d6 41 86 be 32 a5 b7 3d de 30 49 be 39 74 8d 3d
       -0.26222104 0.089670554 -0.19647548 0.06906933
000360 c0 bd 8c be fb 10 28 3e 15 c4 92 be 1b 66 15 3e
       -0.27488518 0.16412728 -0.28665224 0.14589731
000370 40 63 90 bd 41 cd 4d be 4b d6 8b 3d 52 5a 26 ba
       -0.070501804 -0.2009783 0.068279825 -0.0006345856
000380 02 69 46 bd 1e 3b d1 3d 31 d4 22 3e c3 cf db be
       -0.048439987 0.10216354 0.15901257 -0.42931947
000390 c5 9b 0f be 4f e7 18 be 6b 76 04 3e 77 14 fb 3d
       -0.14024265 -0.14931987 0.12935798 0.12259763
0003a0 e9 16 73 3e 0e 9f 80 3d 82 f9 45 be d1 4c aa bd
       0.23739208 0.06280337 -0.19333461 -0.08315433
0003b0 2b 66 1a be 53 08 1e bc 76 17 66 bd e8 62 82 bd
       -0.15078036 -0.009645539 -0.056174718 -0.06366521
0003c0 3c e2 69 bd 0a ba ac 3d 3a 61 8e bb 67 4f 0e 3e
       -0.05710052 0.08433922 -0.0043450864 0.13897477
0003d0 56 05 3c be b1 3a 23 be db 5f 0c 3d 9e 60 db bd
       -0.1836141 -0.15940358 0.034271102 -0.10711788
0003e0 fa 32 83 3c 75 2f 52 be c8 ed 88 3e 11 aa 93 3d
       0.016015518 -0.20525916 0.26743913 0.07210172
0003f0 f8 71 dc 3d e0 51 cb bd f4 a1 9e 3d 15 1e 23 3e
       0.10763925 -0.09927726 0.07745734 0.15929444

conv2.convs.<node___to___node>.lin_l.bias f4 [16]
000000 48 15 c3 3d 9f 85 b5 bd 3f 36 3a be 13 68 03 3e
       0.095255435 -0.08863377 -0.18184756 0.1283267
000010 63 9f d7 bc 2d 7f 6e be 97 4d 45 be 9f f3 f2 bd
       -0.026321119 -0.23290701 -0.1926788 -0.11862873
000020 d9 ec 1c 3e 81 2f 0e 3e 1e 9b 28 be 6d a7 21 3e
       0.15324725 0.13885309 -0.16465423 0.15786524
000030 49 f0 ef bd 92 ea 02 be e3 d5 83 3e 53 9f 70 3e
       -0.11715753 -0.12784794 0.2574912 0.23498277

conv2.convs.<node___to___node>.lin_r.weight f4 [16, 16]
000000 ab 5c 95 bd ad 65 50 3e 69 9f ef bc 81 e1 a1 3d
       -0.07293066 0.20351286 -0.029250817 0.079043396
000010 8f c5 75 be e5 7c f0 bd 2e 0c 34 3e 22 69 ac 3e
       -0.24001144 -0.11742572 0.17582771 0.3367396
000020 4b c9 34 3e 89 7f 0e be 4c 38 ac 3e 8c e9 6e 3e
       0.17654912 -0.13915838 0.336367 0.23331279
000030 64 ec 9d 3e dc 0a d2 3d 8b cc b8 3e 11 82 64 3d
       0.30844414 0.102559775 0.36093554 0.055788103
000040 3b 58 ae bd 56 d5 99 bd fc 56 17 bd 4f 73 87 be
       -0.085129224 -0.07511394 -0.03694819 -0.2645516
000050 97 ba 09 3d 6a 47 5b bc 46 54 6d be cf 6e 85 3e
       0.03362521 -0.013383726 -0.23176679 0.26061103
000060 fc e9 13 bd 01 a8 18 be e2 22 e4 ba ff 63 5f bd
       -0.036111817 -0.14907838 -0.0017405415 -0.054538723
000070 e5 22 b9 bb f0 f7 37 3e 89 bc 58 3e 2e 70 84 3e
       -0.0056499117 0.17965674 0.2116567 0.25866836
000080 e8 3a 25 3d 4e 31 e9 bc 5a a1 2d be 2a 9c ad 3d
       0.04033938 -0.028465893 -0.16956082 0.084770516
000090 3f 20 91 bd 97 95 02 3d d6 3b 28 be 82 31 36 be
       -0.070862286 0.03188094 -0.16429076 -0.17792323
0000a0 fa 78 0a 3e 18 a0 78 3d e7 9e 9f 3e f4 64 ae 3e
       0.13522711 0.060699552 0.3117592 0.34061396
0000b0 74 85 2a bd f1 6e 4c be 71 fa 04 bd ad 6a b9 3a
       -0.041631177 -0.19964196 -0.032465402 0.0014146172
0000c0 95 fb 74 be de 45 93 3e ae 22 b5 3e 32 65 c7 3e
       -0.23924096 0.28764242 0.3537802 0.38944393
0000d0 2b 54 9e be 66 e4 1a 3d 84 52 3f be 9b de de 3d
       -0.3092359 0.037815474 -0.18683821 0.108823024
0000e0 71 00 78 3e 3a 82 45 be ad 3d 5d bd ec 25 22 3e
       0.24218918 -0.19287959 -0.054013897 0.15834779
0000f0 4c e9 b4 bc b9 b7 40 be 2f 59 81 3d 53 43 6f be
       -0.0220839 -0.18820085 0.063158385 -0.23365526
000100 37 75 99 be a5 b7 8c be 28 af 79 3e 19 06 30 3e
       -0.2997224 -0.2748386 0.24383223 0.17189826
000110 ca e5 b9 bd d4 ac 77 bd 86 4a 81 bd 1a b5 ba 3e
       -0.09077032 -0.060467556 -0.06313042 0.36466295
000120 fd 95 2b 3e 96 20 4d 3e 01 db 4b be 14 34 9b 3d
       0.16756435 0.20031962 -0.19907762 0.075782925
000130 c4 68 c6 b9 3b de 1c 3e d7 64 1f 3e e2 be 1d bd
       -0.0003784356 0.15319149 0.15565811 -0.03851212
000140 c6 15 4d 3e 9d 7b 89 3e 36 c1 ac bd b5 52 1e 3b
       0.20027837 0.26852122 -0.084352896 0.0024158184
000150 db be 89 3e 3b 18 8d be 07 b7 0f 3e aa a1 b7 bd
       0.26903424 -0.2755755 0.14034663 -0.08966382
000160 33 88 5a 3e 42 ec b8 bd 50 d5 34 3e e7 62 8b 3d
       0.21341018 -0.090294376 0.17659497 0.068059735
000170 ea 80 2b be 48 a4 6e 3d 5f 2a 75 3e 6d e7 37 bf
       -0.16748396 0.05826214 0.23941945 -0.718375
000180 15 5c 0a bd 9e 03 ba 3c b8 f1 ec 3c 0f 5f e3 3e
       -0.033779223 0.022706803 0.028923854 0.4440846
000190 e7 2b 55 be 12 66 39 3d a8 dd 42 be 4f f2 c3 3e
       -0.20817529 0.045263357 -0.19029868 0.38270804
0001a0 a6 8e 55 bd 2a f1 27 be fa a1 65 bd db c2 97 bd
       -0.052137993 -0.1640059 -0.056062676 -0.074102126
0001b0 4b 11 88 be 75 c3 8b be 29 dc 2d 3e 59 b7 b9 3e
       -0.26575693 -0.2729756 0.16978516 0.36272696
0001c0 7e 4c 97 be 54 85 67 3d d5 db c5 be ff d2 9d 3e
       -0.29550546 0.056523636 -0.3864428 0.3082504
0001d0 f8 c0 84 3d 4d 5e 9a bd cd 0b 2c 3e fe 33 49 bc
       0.06482118 -0.07537518 0.16801377 -0.012280462
0001e0 d0 d4 10 be 33 90 ad 3d 5f ce dc 3d 42 b2 26 be
       -0.14143682 0.084747694 0.1078155 -0.16278937
0001f0 ee 29 23 3e db ea a8 3d 95 9e 65 be b0 21 2a 3e
       0.15933964 0.0824792 -0.22423775 0.16614413
000200 4d 9c 10 3e bf bc 71 be 12 21 66 3e cb 33 12 bc
       0.14122124 -0.23607157 0.22473553 -0.008923481
000210 01 d8 17 bd ab 52 b1 3d 1a 44 3a be ec 3e 9e 3e
       -0.03707123 0.08658346 -0.18190041 0.3090738
000220 9d 12 2a be a5 73 9e be ee 3a c0 3d 8c 40 91 3e
       -0.16608663 -0.30947605 0.0938624 0.28369558
000230 3f ff 31 3e 57 df 71 be 53 c6 07 3e b0 6c 95 3e
       0.17382525 -0.23620354 0.13259248 0.29184484
000240 12 20 ca bd a2 6d 62 be 7b 00 a1 3d cd 45 ec 3d
       -0.09869398 -0.22112134 0.0786142 0.11536751
000250 12 f3 ee bd 5d dd 4c 3e 92 61 46 3d 16 7d 91 be
       -0.11667456 0.20006318 0.048432894 -0.28415745
000260 99 f0 8f be ac 2e 49 3e 1d 20 a2 3c d1 97 a4 3d
       -0.2811325 0.1964671 0.019790703 0.08036769
000270 d2 d5 45 3e 7a 1c 5f bd 26 9a 85 be fc d2 9f 3e
       0.19319847 -0.054470517 -0.26094168 0.31215656
000280 90 3c 59 be 8b 90 93 be b3 55 1f be 6c 8f 52 be
       -0.21214509 -0.28821215 -0.15560035 -0.20562524
000290 0b ba 4c 3d e3 78 fe 3d b4 99 6f 3d 26 48 53 3d
       0.049982112 0.12425401 0.058496192 0.051582478
0002a0 d2 c0 30 bd a9 80 b8 bd 6c 4a 26 bd c8 fe 13 be
       -0.043152638 -0.09008915 -0.040598318 -0.1445266
0002b0 fb 58 4f be a2 23 b2 3b 9f 77 5c 3d c1 59 67 3e
       -0.20248787 0.0054363767 0.053825017 0.22592832
0002c0 bd 1b d8 bc c4 25 f0 3c 32 84 ae 3e 49 ea 15 3e
       -0.026380414 0.029314883 0.34085232 0.14640154
0002d0 b9 7d a9 3d a0 a6 ad bd 02 b5 63 be 1d af 81 3d
       0.08275933 -0.08479047 -0.22237018 0.06332228
0002e0 8c d0 8e be 4a 7d c9 bd 28 49 6e 3e b1 f1 39 3e
       -0.27893484 -0.0983835 0.23270094 0.18158604
0002f0 d6 9d 3b be 63 53 9c be 0d a8 61 bb b7 b3 82 3d
       -0.18321928 -0.3053237 -0.0034432441 0.06381934
000300 ea 87 6f 3d 3b 38 a1 be 3f 85 98 be 22 44 d7 bc
       0.058479227 -0.31488213 -0.2978916 -0.026277605
000310 7e c8 9f 3d 17 0f 3a 3e bd d6 17 3e 39 6a 37 bc
       0.07801913 0.18169819 0.1482801 -0.011194759
000320 43 3d a3 3d 27 74 09 3e 9e ee b7 3b 20 59 d7 3d
       0.07970669 0.13423215 0.005613162 0.10515046
000330 ad a7 19 be c1 7d 77 3e 58 39 86 be 1c 44 92 3e
       -0.1500537 0.24169065 -0.26215625 0.28567588
000340 d5 d0 7a 3b 92 2f 5b 3e 2b 9d 87 3e 84 d4 d4 3e
       0.0038271446 0.21404865 0.26487097 0.41568387
000350 42 13 5b be 53 21 40 be 06 57 2c be 83 24 9d 3e
       -0.21394065 -0.18762712 -0.16830072 0.3069192
000360 d0 05 c3 3c 79 67 c8 ba 09 8b ed 3d c4 54 30 3c
       0.023806483 -0.0015289626 0.115987845 0.010762397
000370 18 4f b3 3d d4 2e 01 bd fc dc 47 be 42 fa b7 be
       0.0875532 -0.0315388 -0.19517893 -0.3593312
000380 ab 93 e4 bb 49 65 a6 3e ff 8d c8 be 2f e4 66 bd
       -0.006975611 0.3249915 -0.39170834 -0.056369957
000390 07 b7 48 3e 89 52 d1 3d 59 7c 4c bc 2e c4 c9 be
       0.1960107 0.102208205 -0.012480819 -0.39407486
0003a0 52 7f ea ba cb 8b 44 3e 9c bd 09 bd 41 af 68 3c
       -0.0017890728 0.19193952 -0.03362809 0.01420194
0003b0 bc aa fa bd e6 f2 1f 3e 45 da 5a be 92 38 47 ba
       -0.12239596 0.15620002 -0.21372326 -0.0007599677
0003c0 4d 20 09 be aa dc 9f be 3b d1 9e 3e c1 36 01 3e
       -0.13391228 -0.3122304 0.31019005 0.12618543
0003d0 b7 00 ff bd 17 24 d6 3d 48 f0 cb 3c 5b 45 6d 3e
       -0.12451308 0.10456102 0.024894848 0.23170988
0003e0 08 86 96 be 6a b6 ef bd 83 01 82 3d 62 5f 79 be
       -0.29399133 -0.117047146 0.063479446 -0.24352792
0003f0 bc a3 f8 bd 80 3e 83 be d5 13 3e 3d df 60 a3 3d
       -0.12140605 -0.2563362 0.046405632 0.07977461

relation_pred.weight f4 [11, 32]
000000 35 32 60 be 7e d5 1d 3e 57 d1 31 be 92 29 a4 3d
       -0.21894152 0.15413472 -0.17365013 0.080157414
000010 4a e7 db bd 2f 5e 6d bd bc 65 10 3d eb 88 92 3d
       -0.10737474 -0.05795115 0.03525327 0.07155021
000020 38 aa 81 3d 21 6e d7 3d 90 12 d8 3d 25 34 d7 bd
       0.06331295 0.10519052 0.105504155 -0.10507993
000030 c4 a1 3f 3e 39 5e f9 3c 12 62 bc 3d a8 42 86 3d
       0.18714052 0.030440437 0.09198393 0.065556824
000040 ab b1 52 3e f4 df 1a bd b8 e5 13 3e 9b ef 02 3e
       0.20575587 -0.037811235 0.144431 0.12786715
000050 6a f1 19 ba f8 6a 50 3a dc 74 23 3a 9f d7 02 3e
       -0.00058724603 0.000795051 0.000623537 0.12777565
000060 d9 18 c1 3c 9a a9 5d 3e a6 4b 21 bd bf d8 01 3e
       0.023571419 0.21646729 -0.039378785 0.12680338
000070 6d 92 cc 3a 3f 7c 70 3d a9 7d 2f be 7e f4 39 3d
       0.0015607603 0.05871224 -0.1713778 0.04539918
000080 99 4d 91 be 81 0b c8 bd aa fe ef 3c 95 e7 d7 bd
       -0.28379515 -0.09767819 0.029296238 -0.10542218
000090 9e e6 90 3e 6e ee 29 3e 51 e3 01 bd 82 bc f2 3c
       0.28300947 0.1659486 -0.031710926 0.029630903
0000a0 9d d7 4a be 2e 05 76 bd ab 8f 4e 3d 45 4b c5 bd
       -0.19808812 -0.060063533 0.05042998 -0.09633497
0000b0 53 8b 10 3c b0 0f 95 3d 7f 35 32 bd f3 47 20 be
       0.00882228 0.07278383 -0.04350805 -0.15652446
0000c0 75 e0 a2 3e bb 00 14 3c 94 cb 00 3e 08 5f 31 3d
       0.31811872 0.009033377 0.12577659 0.04330352
0000d0 47 c0 b3 bd 8b d0 e5 bd 63 67 af 3d e0 87 93 3d
       -0.08776908 -0.11221417 0.08564641 0.072036505
0000e0 d8 47 70 bd 7a 46 3a 3e a0 99 18 bc 45 26 1e 3e
       -0.058662266 0.18190947 -0.009313971 0.15444286
0000f0 90 c9 fb 3d bf 0f 84 3d dd 1f 94 bd 8a b7 6e bd
       0.12294304 0.06448316 -0.0723264 -0.058280505
000100 50 f1 a8 be 72 84 c2 3b d7 b6 a6 bc 34 d2 4c 3d
       -0.32996607 0.005936199 -0.020350857 0.050005153
000110 b4 2a da 3d 8c cd e0 3c 12 d0 3b 3d dc 5b ba 3d
       0.10652676 0.027441762 0.04585273 0.09099552
000120 2e ad 8e be e1 5f cb bd 6c 6a e7 bd f7 53 1d be
       -0.278665 -0.09930397 -0.11299595 -0.15364061
000130 ba 3e 84 bc b2 3c 77 bb 7f 24 b9 3d da 07 be bd
       -0.016143192 -0.0037725386 0.09040164 -0.09278841
000140 11 50 6a be 0b a1 df 3d 11 a2 b7 bd 23 27 ec bb
       -0.22882105 0.109193884 -0.089664586 -0.007206814
000150 55 e9 49 3d f7 9a 91 3d 96 8e 26 be 3d 03 47 3e
       0.04929479 0.07109635 -0.1626533 0.19434829
000160 f2 fd 64 be 38 dc 32 be 4a 95 0e 3e 3f 80 8a bc
       -0.22362497 -0.1746682 0.13924137 -0.016906856
000170 8a 80 5f 3d c4 b5 97 3a d3 b5 e8 bc 2c 15 9d 3d
       0.054565944 0.0011574556 -0.028407013 0.07670054
000180 bd 82 4b bc 42 ec c1 3c ac f3 81 bc 12 75 7c bd
       -0.012421307 0.023672227 -0.015863262 -0.061635084
000190 6d 23 e4 3d fa f5 02 3d a1 69 88 3d 65 04 1b be
       0.111395694 0.031972863 0.06660772 -0.15138395
0001a0 72 8b 01 be 07 c6 eb 3d 89 9b e9 3d 19 a4 17 be
       -0.1265085 0.1151238 0.11406619 -0.14808692
0001b0 23 85 0b be 2b b0 60 bd 92 59 b4 3d 78 3f 51 3d
       -0.13625006 -0.054855507 0.08806147 0.05108592
0001c0 f2 1f 0e be ff 5f f0 3d 9a 53 cb 3d 7c de 06 be
       -0.13879374 0.1173706 0.09928055 -0.13170809
0001d0 68 df 02 be e2 7c 13 3e 51 95 2a 3e 9e 70 8d be
       -0.12780535 0.14403108 0.16658522 -0.27624983
0001e0 e4 c6 9d 3e 2d 80 aa bd f7 d1 fd 3d 22 71 54 3e
       0.30815804 -0.08325229 0.12393563 0.20746282
0001f0 d1 fe df 3d a6 62 26 be ad d1 72 be 1e c8 3a 3e
       0.10937274 -0.16248569 -0.23712797 0.18240401
000200 ee 13 ba bd ef 1f 3c 3e ce d9 26 bd 8b c8 61 bb
       -0.090858325 0.18371557 -0.04073506 -0.0034451808
000210 45 17 09 be 5c f7 23 3e 75 9e f5 3d ec 1d 68 3d
       -0.13387783 0.16012329 0.11993114 0.05666916
000220 a0 cd c7 3d 9a de 08 bd 67 d5 97 3d ec a6 f5 bd
       0.09756017 -0.033415414 0.0741375 -0.119947284
000230 70 c4 89 bd fd f8 1b 3c e2 51 02 be 43 c5 62 3e
       -0.067269206 0.009519813 -0.12726548 0.22145562
000240 06 04 d3 bd d8 2f bc 3d e5 bd a7 3c 3a 5f 08 3e
       -0.10303502 0.09188813 0.020476291 0.13317576
000250 0e 75 0e 3e 62 a3 2d 3d 9c b2 46 3e c0 47 be bc
       0.1391184 0.042392142 0.19404072 -0.023227572
000260 51 42 cf bd 83 c7 8e 3d f8 4d 89 bc 6b bf bf bc
       -0.10120071 0.069716476 -0.016760811 -0.023406705
000270 1a da 23 bd e1 66 92 3e 0a 68 32 3d b3 ba 9e bd
       -0.04000292 0.28594115 0.04355625 -0.07750454
000280 94 6b d5 3c 04 6a f8 bd 44 42 ca 3d f7 ff 63 3d
       0.026052274 -0.12129596 0.098759204 0.05566403
000290 46 0b 7f be d8 b1 08 3e c2 e5 bb bd a7 77 13 bd
       -0.24906644 0.13349092 -0.09174682 -0.03600278
0002a0 37 a7 b2 3d 80 c5 20 be f3 91 2d be 68 be 89 3e
       0.087233 -0.1570034 -0.16950206 0.2690308
0002b0 f0 a8 bb bc b1 e2 59 3e 8e bc c6 3d ff b3 f9 bd
       -0.022907704 0.21277882 0.09703933 -0.12192535
0002c0 15 43 30 3e 6a c9 c7 bd cd 5b fb 3c d3 85 fa 3d
       0.1721309 -0.097552136 0.030683422 0.12232556
0002d0 44 fc e8 3d b2 2c 24 be 38 8f 29 be b9 06 ff 3d
       0.11376241 -0.16032675 -0.1655854 0.12452454
0002e0 51 bc b0 bd 57 00 d0 3d 6e 47 4d 3d c9 a3 42 be
       -0.086296685 0.10156315 0.05011695 -0.19007792
0002f0 a3 e5 b8 bd ae 6b 51 bd 8c a9 3f 3d e5 3e 18 3e
       -0.09028175 -0.051128082 0.046792552 0.14867742
000300 25 67 51 be 4c 1f 26 be 6e f2 cf bd 5f 35 66 3d
       -0.20449503 -0.16222876 -0.10153662 0.056203242
000310 68 c8 6b bb 90 2b db bd 03 33 50 3e af 3e 81 bd
       -0.0035977606 -0.10701668 0.2033196 -0.06310784
000320 69 02 46 bd 7a 53 85 bc 0e 44 d5 bd 22 3a a3 3d
       -0.048342142 -0.016275156 -0.10413371 0.07970072
000330 4d 89 b0 bd a2 e8 83 3d 40 a1 7e be f7 20 0c 3e
       -0.08619938 0.064408556 -0.248662 0.1368445
000340 ef bb 98 3e 10 67 03 3d 8e d5 21 be 1c 3a 0b 3e
       0.29830882 0.03208071 -0.15804121 0.13596386
000350 ac 30 b9 3d 46 b2 05 3e ae 3a 95 3d 4e 99 fe bc
       0.090424865 0.13056287 0.07286583 -0.03107896
000360 78 25 e4 3d 09 89 d5 3d 56 e5 55 bd 92 c9 2c 3e
       0.11139959 0.10426528 -0.052220665 0.16873768
000370 30 25 7e 3d c6 b8 a2 3d 57 4b 97 be 93 9a 1b 3e
       0.062047184 0.07945399 -0.29549667 0.15195684
000380 21 25 3c 3d cc 3f 39 3e 7a 3d 3e be dd 01 7e 3e
       0.045933846 0.18090743 -0.18578139 0.24805398
000390 57 64 1f 3c af 9b 27 3d 34 ca 92 3e 15 fc dd bd
       0.009728513 0.040919956 0.28669894 -0.108390965
0003a0 b6 24 d7 3c 7b 69 56 be 24 05 cb ba 56 6a df 3d
       0.026262622 -0.20938675 -0.0015489203 0.10908954
0003b0 c0 f6 9c be 60 74 64 3d 41 b8 83 be 9e ca dc bd
       -0.30657005 0.055775046 -0.25726512 -0.10780834
0003c0 08 3e 4f bd 80 ff 20 be fd f4 95 bc 6b e9 bd 3d
       -0.050596267 -0.15722466 -0.018305296 0.092730366
0003d0 3e 89 21 be 27 92 5e 3e d0 38 9d bd f6 24 2f be
       -0.1577501 0.2173544 -0.07676852 -0.17103943
0003e0 ce 71 89 be 63 19 d3 bd 3f ae 3b 3d 2c ba bf 3d
       -0.2684464 -0.103075765 0.04582047 0.09361681
0003f0 58 ad d6 bd be 68 4a be 7b 1b 07 3e 25 07 cb bd
       -0.104822814 -0.19766518 0.13194077 -0.09913472

relation_pred.bias f4 [11]
000000 da 5c 74 3d 84 e5 45 be 8c de 87 3d b2 ee 06 3e
       0.059658863 -0.19325835 0.06634244 0.13176993
000010 48 60 cd 3c 17 ea e3 bd 99 00 97 3c a5 a3 b6 bd
       0.025070325 -0.111286335 0.018432902 -0.089179315
000020 f4 51 9b bd d3 48 c7 bd b6 48 1d bc
       -0.07583991 -0.09730687 -0.009599855
