ShadowWeave/Feature Encoding/ShadowWeave(300d).pth (torch, 44147 bytes, 12 tensors)

node_type_embedding.weight f4 [11, 128]
0	0x3fc3bb57	1.5291547
1	0xb892c2cd	-6.998107e-05
2	0xbfd66cbe	-1.6751935
3	0x3f106319	0.5640121
4	0xbfd96623	-1.6984295
5	0x3d316d00	0.04331684
6	0xbe1b8ab4	-0.1518963
7	0xbc492c4b	-0.012278627
8	0xb94ccac8	-0.00019530498
9	0xbd11f227	-0.035631325
10	0xbfc09310	-1.504488
11	0xbd9816d0	-0.07426226
12	0x3a572eec	0.0008208591
13	0xbf5e5c32	-0.8685943
14	0xbdae87c8	-0.08521992
15	0xbeaf4631	-0.3423324
16	0x1cc74f0c	1.3189148e-21
17	0x3f87d07c	1.0610499
18	0xa8b9234b	-2.0554432e-14
19	0xb71048a4	-8.599982e-06
20	0x9a5cd94b	-4.567046e-23
21	0x3b4f3233	0.0031615614
22	0x3f0b47ff	0.5440673
23	0xbb816c9b	-0.0039497144
24	0x3fd7680e	1.682863
25	0xa1e9c55f	-1.5840938e-18
26	0xbe35850d	-0.17726536
27	0xbe9d2101	-0.30689242
28	0x3c9daf50	0.019248635
29	0xbeb5551f	-0.35416505
30	0x3f4e416a	0.80568564
31	0x2ef13b81	1.0969981e-10
32	0x3efd91cb	0.49525294
33	0xbc453626	-0.012036836
34	0x3f376b4b	0.7164809
35	0x3b46ffcc	0.003036487
36	0xbe61e78a	-0.22060981
37	0x171fbfdb	5.1617827e-25
38	0x1d3bbdbd	2.4847336e-21
39	0xbb95b3a4	-0.004568534
40	0x3f76ea02	0.9645082
41	0x3f9301ba	1.1484902
42	0xbed7c261	-0.42140487
43	0xb9b8a957	-0.00035221383
44	0x3f0517bd	0.51989347
45	0xbd758dcc	-0.05994968
46	0x3ee3e5ff	0.4451141
47	0xbcde082f	-0.027103512
48	0xbfe8c189	-1.8184062
49	0xbe781808	-0.24227917
50	0x3c79f329	0.015255728
51	0xbf298dfa	-0.66232264
52	0x98dd321d	-5.7177763e-24
53	0xb43a5540	-1.7353614e-07
54	0xbdfae4ac	-0.12250647
55	0x3ec1c5dc	0.37846267
56	0xbdaecf47	-0.08535629
57	0x3fe1d20f	1.764223
58	0x3f044981	0.5167466
59	0xbf1c49b3	-0.61049956
60	0xbe9d1bd0	-0.30685282
61	0xbf30d775	-0.6907876
62	0xbecfb328	-0.40566373
63	0xbe546c10	-0.20744348
64	0xbf073fe1	-0.52831846
65	0x3f220c47	0.63299984
66	0x3ef710d9	0.4825504
67	0x3f629a00	0.88516235
68	0x3f92ebab	1.147817
69	0xbca10f1b	-0.019660523
70	0xbebfeb5b	-0.3748425
71	0x401d166b	2.4544933
72	0xbf9b148f	-1.2115649
73	0x3df26065	0.11834792
74	0x3f1aef43	0.60521334
75	0xbeaeb304	-0.34120953
76	0x3c68c2c2	0.01420659
77	0xbfdb164d	-1.7116181
78	0xbf61a043	-0.88135165
79	0xbf64c253	-0.89359015
80	0xbf832a0e	-1.0247209
81	0xbeb47ce4	-0.35251534
82	0x26775d63	8.58219e-16
83	0x3d198624	0.037481442
84	0x3e96d223	0.29457197
85	0x3f2cbabf	0.6747245
86	0x3d25c69e	0.04047262
87	0xbe879486	-0.26480502
88	0x3f4004f8	0.7500758
89	0xbec71ff6	-0.38891572
90	0x3e44ec2b	0.19230716
91	0x3edccfb2	0.4312721
92	0xbf48a897	-0.7838225
93	0xbe4bf5dd	-0.19918008
94	0xbeab8334	-0.33498538
95	0xbcc21e9b	-0.023696234
96	0xa7823d5e	-3.6148783e-15
97	0x3eea428c	0.45753896
98	0xbf139b8a	-0.5765921
99	0x3f3239a5	0.6961921
100	0x9629622a	-1.3682686e-25
101	0xbd68f779	-0.056876633
102	0xbfd2eac1	-1.6477891
103	0xbdf4ee1c	-0.11959478
104	0xbe5a1001	-0.21295168
105	0xbfb7fd63	-1.4374202
106	0xbf2b96a4	-0.67026734
107	0xbf81e242	-1.0147173
108	0x3dde6e48	0.10860878
109	0x15a2fc6a	6.582952e-26
110	0x957a9df8	-5.0611713e-26
111	0xbfc8c152	-1.5683997
112	0xbf470f19	-0.7775741
113	0xbad9131a	-0.0016561479
114	0x3fa0c901	1.2561342
115	0xbf8cf681	-1.1012727
116	0x3c1bf183	0.00951803
117	0x3ef903aa	0.48635608
118	0xbf986238	-1.1904974
119	0x3dd77674	0.1052064
120	0xbd8edd87	-0.06975847
121	0x164326c7	1.576421e-25
122	0x3e3e4439	0.18580712
123	0xbf7ff77f	-0.99987024
124	0x3f9f6163	1.2451595
125	0x3fcadd81	1.5848848
126	0x3eadc271	0.3393741
127	0x3f1b0588	0.60555315
128	0x3fc9816b	1.574262
129	0xbe64b17e	-0.22333333
130	0xbf881588	-1.0631571
131	0xbf463f98	-0.77440786
132	0xbfe28bf1	-1.7698957
133	0xbe28afb7	-0.1647328
134	0x3ec20d10	0.3790059
135	0x3f0cb280	0.5495987
136	0x3f1f843b	0.6231114
137	0xbefa9328	-0.48940396
138	0xc00490e3	-2.0713432
139	0x3faa104c	1.3286223
140	0x3f2f290c	0.6842201
141	0x3eae2b3e	0.34017366
142	0xbf7953ba	-0.9739338
143	0xbf064e7c	-0.5246351
144	0x3f0c7f4e	0.5488175
145	0x3f806012	1.0029318
146	0xbf597482	-0.849434
147	0x3fbae6c0	1.4601669
148	0x3e1309e6	0.14359245
149	0xbf1689ce	-0.58804023
150	0x3f74f019	0.9567886
151	0x3f670931	0.902484
152	0x3faa6e09	1.331483
153	0x3f894d42	1.0726702
154	0xbe7bf141	-0.2460375
155	0x3dea1aaa	0.11430867
156	0x3efa3caf	0.48874423
157	0xbf12ab7a	-0.572929
158	0x3ebbe1ad	0.36695614
159	0x3e62ccc9	0.22148432
160	0xbf88a562	-1.0675471
161	0xbf298870	-0.6622381
162	0xbfb10856	-1.3830669
163	0x3e75e96f	0.24014829
164	0xc02b1170	-2.6729393
165	0xbf05fd6d	-0.5233982
166	0xbff1314d	-1.884317
167	0xbd73365b	-0.05937801
168	0xbf5e28ea	-0.8678118
169	0x3f452757	0.7701315
170	0xbf19e1e3	-0.601103
171	0xbea78629	-0.32719544
172	0xbfbd1b0f	-1.4773883
173	0xbea66cd3	-0.325049
174	0x3f36c460	0.71393394
175	0xbf514936	-0.81752336
176	0x3f195f3b	0.59910935
177	0x3fe18891	1.7619802
178	0x3e639649	0.22225298
179	0x3f4ea9a3	0.80727595
180	0xbeec2c30	-0.46127462
181	0x3f16fdbd	0.58980924
182	0x3f874f10	1.0571003
183	0xbebd714a	-0.37000495
184	0xbf974844	-1.1818929
185	0xc00eb983	-2.2300727
186	0x3fb31739	1.3991462
187	0x3fc0cf2a	1.5063221
188	0xbf01028a	-0.503945
189	0xbe4cfedf	-0.200191
190	0xbf0639a5	-0.5243171
191	0xbecf7fac	-0.40527093
192	0xbfae67d1	-1.3625432
193	0xbe134ab5	-0.14383967
194	0xbf466355	-0.7749532
195	0xbf500f68	-0.8127351
196	0xc00723ce	-2.1115603
197	0x3f5d56ed	0.86460763
198	0xbf7b4771	-0.98155886
199	0xbfd508f7	-1.6643361
200	0x3fedd140	1.8579483
201	0x3fafe562	1.3741877
202	0x3f631865	0.887091
203	0xbf269a4e	-0.650792
204	0xbf1fc265	-0.62406
205	0x3fd969db	1.698543
206	0xbf7fcaf0	-0.99919033
207	0x3edae132	0.42749935
208	0x3eb2ee88	0.3494761
209	0xbfece452	-1.8507178
210	0xbfe2e352	-1.7725623
211	0xbda8e9b7	-0.082477026
212	0xbf8239c3	-1.0173877
213	0xbf6c1330	-0.9221678
214	0x3f980cde	1.1878927
215	0xbfa15b4f	-1.260599
216	0xbe6e0028	-0.23242247
217	0x3e57f095	0.21087869
218	0xbf815c59	-1.0106307
219	0xbe8053ea	-0.2506402
220	0x3dbcccd6	0.09218757
221	0xbf0ccf92	-0.5500423
222	0x3e383c97	0.17991863
223	0x3eb10532	0.34574276
224	0xbfc6382a	-1.548589
225	0x3f92c27b	1.1465601
226	0x3f8527a1	1.0402719
227	0x3ee17970	0.44037962
228	0x3f8cad79	1.099044
229	0x3f89d74d	1.076883
230	0xc00e60bc	-2.2246542
231	0x3dfadbb6	0.12248938
232	0xc011a53d	-2.2757103
233	0xbf16682f	-0.5875272
234	0xbfa424d2	-1.2823737
235	0xbefc0a02	-0.49226385
236	0x3ea79f54	0.32738745
237	0x3f5dcd40	0.8664131
238	0xbdf97d10	-0.12182057
239	0xbf0fcc54	-0.56171155
240	0x40111a88	2.2672443
241	0x3fa28a9a	1.2698548
242	0x3e30a292	0.17249516
243	0xbf30382b	-0.68835706
244	0xbeba0245	-0.36329857
245	0x3deb5681	0.11491109
246	0xbf08236d	-0.53179055
247	0xbfc6d5ce	-1.5533998
248	0xbf5b793e	-0.85731876
249	0x3f6ddd8a	0.92916167
250	0x3f96d398	1.1783323
251	0x3f894af7	1.0726002
252	0xbfce7a78	-1.6131124
253	0x3f0f0e79	0.5588146
254	0x3fa90fb5	1.3207918
255	0xbf46961d	-0.77572805

conv1.convs.<node___to___node>.lin_l.weight f4 [16, 210]
0	0x3c843210	0.016137153
1	0xbdafc147	-0.085817866
2	0x3dcccdf1	0.10000218
3	0x3cece524	0.028917857
4	0x3da5dbcf	0.08098566
5	0xbda45a6b	-0.08025058
6	0xbd1938e9	-0.03740779
7	0xbd1f7713	-0.038931917
8	0x3dcb9d8f	0.09942161
9	0x3ccfe820	0.02537924
10	0xbda878c1	-0.08226157
11	0xbd8b575d	-0.068037726
12	0x3d538f9d	0.051650632
13	0xbd17ddd5	-0.03707679
14	0x3c88ba05	0.016690264
15	0xbd09d7df	-0.033653136
16	0x3b73760a	0.0037149214
17	0xbbe19fe4	-0.0068855155
18	0x3dcdbdde	0.1004598
19	0xbd5c9567	-0.05385342
20	0xbceb5dbb	-0.028731218
21	0xbdc9d5d7	-0.0985524
22	0x3d987d87	0.074458174
23	0x3d850772	0.06495561
24	0x3db7db12	0.08977331
25	0xbd451921	-0.048119668
26	0x3d49a73c	0.049231753
27	0xbd3f21fa	-0.046663262
28	0x3d84747d	0.06467531
29	0x3d287d02	0.04113484
30	0xbd98ca7a	-0.07460494
31	0xbdb998bc	-0.09062335
32	0x3af7317e	0.0018859354
33	0xbe42c584	-0.19020659
34	0xbe0cfcff	-0.13768385
35	0xbe6e5196	-0.2327331
36	0xbddcd342	-0.10782482
37	0x3e685374	0.22688085
38	0xbcfbcec4	-0.030738242
39	0x3d7e6be1	0.0621146
40	0xbe83cefc	-0.25743854
41	0x3e7d816f	0.24756406
42	0x3dfc34ac	0.12314734
43	0xbd0327e5	-0.03202047
44	0xbd58e2c7	-0.052950647
45	0xbdef07cc	-0.11671409
46	0x3de59d2c	0.11211619
47	0xbd450f97	-0.04811057
48	0xbd20cc53	-0.03925736
49	0xbe96f07c	-0.2948035
50	0xbe25559f	-0.16145943
51	0x3d86a0cd	0.06573639
52	0xbd9c2521	-0.07624269
53	0xbe15852d	-0.14601584
54	0x3e1db31c	0.15400356
55	0x3de65096	0.11245839
56	0x3df4b241	0.11948062
57	0x3d83ca19	0.064350314
58	0xbe06ec94	-0.13176185
59	0x3c88eb4e	0.016713765
60	0x3b2a8c61	0.0026023614
61	0x3e454b53	0.19267015
62	0xbbe3efae	-0.0069560623
63	0xbdc7b2d2	-0.09750904
64	0x3c584e4f	0.013202264
65	0x3da91297	0.08255499
66	0x3d01ed93	0.03172071
67	0xbe8841b0	-0.26612616
68	0x3de80a3b	0.11330076
69	0xbda9703c	-0.0827336
70	0xbebb5f3d	-0.365961
71	0xbee9d6ff	-0.45671842
72	0xbdeb1878	-0.114792764
73	0xbe6124aa	-0.21986642
74	0xbeafac8d	-0.34311333
75	0xbe306b56	-0.17228445
76	0x3d939478	0.072060525
77	0x3bedad2c	0.0072533097
78	0xbd8e881e	-0.06959556
79	0xbe85c7ef	-0.261291
80	0x3e7b5aec	0.24546403
81	0xbd92e9d2	-0.07173504
82	0xbd7607f2	-0.06006617
83	0xbccf91c5	-0.025338063
84	0xbc2c4961	-0.010515542
85	0x3d804006	0.062622115
86	0x3d4acc02	0.049510963
87	0x3d2bd5e4	0.04195203
88	0xbd9bff9a	-0.076171115
89	0xbd985c25	-0.0743945
90	0xbd9d537b	-0.07681938
91	0x3c774e22	0.015094312
92	0x3d2a3da2	0.041562684
93	0xbd02d3d6	-0.031940304
94	0xbcee57e8	-0.029094651
95	0xbc9e78a8	-0.019344643
96	0x3dbdd088	0.0926829
97	0xbc48020a	-0.012207517
98	0xbca61453	-0.020273363
99	0xbd98289a	-0.07429619
100	0x3da772f5	0.08176223
101	0xbcf261c8	-0.029587641
102	0xbd63a015	-0.055572588
103	0xbcf6cc5c	-0.030126743
104	0xbd90f47c	-0.07077882
105	0x3ca553cb	0.020181557
106	0x3ca10816	0.019657176
107	0xbd9b753e	-0.075907215
108	0x3d9229db	0.071368895
109	0xba5c1e7a	-0.00083968753
110	0x3a38717a	0.00070359523
111	0x3cf4a04f	0.029861597
112	0x3c9d4eba	0.019202579
113	0xbd176416	-0.036960684
114	0xbc80c4d5	-0.015718857
115	0x3d73009d	0.059326757
116	0x3d48d8f4	0.049035028
117	0x3cf41715	0.029796163
118	0xbd54649c	-0.05185376
119	0x3daad90a	0.08342178
120	0x3d5fe632	0.05466289
121	0xbc8eedb2	-0.017447326
122	0x3d096679	0.03354499
123	0x3ca1e820	0.019764006
124	0x3b809d4c	0.0039250012
125	0xbd6f5259	-0.058428142
126	0x3dd0ac20	0.1018908
127	0xbcf915b3	-0.030405855
128	0xbbdd9d04	-0.0067631025
129	0x3cc1b51a	0.023645926
130	0x3d402d3a	0.04691813
131	0x3d8b82cd	0.06812058
132	0xbd11ec47	-0.035625722
133	0xbc962cfb	-0.018331995
134	0x3da9601b	0.08270284
135	0xbd2b166b	-0.041769426
136	0xbd4a635b	-0.04941116
137	0xbc2a9d28	-0.0104134455
138	0x3b8fb094	0.0043850634
139	0x3d79fe56	0.06103357
140	0xbd563810	-0.05229956
141	0xbd1ffe60	-0.03906095
142	0x3d0cfc66	0.034420393
143	0xbdaa0d25	-0.08303288
144	0x3d79e23d	0.061006773
145	0x3cff20e1	0.031143608
146	0xbbc410cf	-0.005983449
147	0xbd8fff42	-0.070311084
148	0xbc315225	-0.010822807
149	0x3d11afe4	0.035568133
150	0x3d348a05	0.04407694
151	0x3db65993	0.08903804
152	0x3ca0adc8	0.019614115
153	0xbcf13f37	-0.029449088
154	0x3d1688e5	0.036751647
155	0xbdc0b7d0	-0.094100595
156	0x3b206a9c	0.0024477607
157	0xbcd36754	-0.025806107
158	0xbb85bfd5	-0.004081706
159	0xbbe4a8d2	-0.0069781328
160	0x3d9eae84	0.0774813
161	0x3c18539c	0.009297278
162	0x3d494234	0.0491354
163	0xbd0e7167	-0.034776118
164	0xb9dbbe9d	-0.00041912953
165	0x3d2050f1	0.03913969
166	0x3da780d9	0.081788726
167	0x3cb10f83	0.021613842
168	0x3cd3aa76	0.025838118
169	0x3d2af66d	0.041738916
170	0x3c4a4a70	0.012346849
171	0xbaada7d7	-0.0013248873
172	0x3c838e9c	0.016059212
173	0xbdb425c8	-0.08796269
174	0xbd6bf5cc	-0.057607457
175	0x3d883068	0.06649858
176	0xbbb67469	-0.0055680764
177	0x3cd149ec	0.025547944
178	0xba8e37d4	-0.0010850378
179	0xbbf7ce63	-0.007562445
180	0x3be54605	0.0069968724
181	0xbd0c4254	-0.034242943
182	0xbd88274c	-0.0664812
183	0xbdc677f7	-0.0969085
184	0x3ca27c8b	0.019834777
185	0x393933f5	0.0001766233
186	0xbce44445	-0.027864585
187	0x3cf890e0	0.03034252
188	0x3d881552	0.066446915
189	0x3d4cd729	0.05000988
190	0xbd98d50f	-0.07462513
191	0x3c540c5b	0.012942399
192	0xbcfc9583	-0.030833011
193	0xbc82b6f8	-0.015956387
194	0xbd4707c0	-0.048591375
195	0xbd6fa19b	-0.05850373
196	0xbd887b0d	-0.06664095
197	0x3cc1e1c2	0.02366722
198	0x3cc2500f	0.023719816
199	0x3df351e9	0.118808575
200	0x3d2be659	0.041967724
201	0x3b7ff006	0.0039052977
202	0xbd3b5af9	-0.045741055
203	0x3c9cbd49	0.019133227
204	0x3ce39518	0.027781054
205	0xbd83b3ea	-0.064308
206	0x3b456cbc	0.0030124625
207	0xbd973bc3	-0.073844455
208	0x3c396886	0.011316424
209	0x3c0ca9e2	0.008585425
210	0xbd1e39d4	-0.038629368
211	0xba8488de	-0.001011159
212	0x3d628c6c	0.055309698
213	0x3caf0e40	0.0213691
214	0x3c344921	0.011003763
215	0x3cf97841	0.03045285
216	0xbc34b003	-0.011028293
217	0xbced7651	-0.028987082
218	0x3c14aa7e	0.009073852
219	0x3d6cd5b5	0.057820994
220	0xbd117978	-0.035516232
221	0x3cb1b8dd	0.021694595
222	0xbdc128c9	-0.09431607
223	0x3c62e2f2	0.013848053
224	0x3df8cb3e	0.1214814
225	0xbdadef31	-0.08492888
226	0xbde1ac1c	-0.110191554
227	0x3d0a7cae	0.03381031
228	0xbd40a2e1	-0.047030333
229	0xbc124506	-0.008927589
230	0xbd22c6a8	-0.039740235
231	0xbd82453c	-0.06360862
232	0xbcf5474e	-0.029941227
233	0x3d5016ff	0.05080318
234	0xbd5d0d57	-0.0539678
235	0xbd892013	-0.06695571
236	0xbc229816	-0.009923955
237	0xbd0e50ab	-0.0347449
238	0xbd8c911e	-0.068636164
239	0x3d8c252d	0.06843028
240	0x3d1495f4	0.03627582
241	0xbd941e97	-0.07232397
242	0x3ca7cf70	0.020484656
243	0xbcc4c382	-0.024019007
244	0xbc951807	-0.018199934
245	0x3ec39f08	0.3820727
246	0x3b29f518	0.002593344
247	0x3d1f2428	0.03885284
248	0xbda552cc	-0.08072433
249	0xbd8e81ef	-0.069583766
250	0x3e3cfbb5	0.18455394
251	0xbd111f00	-0.035429955
252	0x3de487ce	0.11158715
253	0x3d648fdb	0.055801254
254	0xbd6dbee8	-0.05804339
255	0xbd080f8a	-0.033217944

conv1.convs.<node___to___node>.lin_l.bias f4 [16]
0	0x3d93410c	0.07190141
1	0xbcd846b7	-0.026400907
2	0x3dd4a8ec	0.10383782
3	0x3e0efc07	0.13963328
4	0x3e2ae271	0.16687943
5	0x3e0c8fb6	0.13726696
6	0x3d8670ac	0.06564459
7	0x3dd37ae4	0.10326174
8	0x3d05b795	0.03264578
9	0x3de3b6bd	0.11118839
10	0x3d90ad0f	0.07064258
11	0x3cb57be8	0.02215381
12	0x3cb3c9e7	0.02194686
13	0x3de07a86	0.109608695
14	0x3d926bcb	0.07149466
15	0x3d0bb101	0.03410435

conv1.convs.<node___to___node>.lin_r.weight f4 [16, 210]
0	0xbcc5da18	-0.024151847
1	0x3c85fc1d	0.016355569
2	0x390c1367	0.00013358668
3	0x3d004860	0.031319022
4	0x3d9dbbf4	0.07701865
5	0x3d02ecaf	0.031964
6	0x3ca96ed9	0.02068274
7	0x3c138bdc	0.009005513
8	0x3df3d1ee	0.11905275
9	0x3c06ddeb	0.00823162
10	0x3d6ba60b	0.057531398
11	0x3d5afee4	0.05346574
12	0x3c133e50	0.008987024
13	0xbc4d87f5	-0.012544622
14	0x3deeb040	0.11654711
15	0x3d51b9f7	0.05120274
16	0x3d7a9bb8	0.06118366
17	0x3d767ce5	0.060177702
18	0x3d423a29	0.047418747
19	0x3a510038	0.000797275
20	0x3cce2613	0.02516464
21	0xbc445781	-0.011983753
22	0xbbdbab2f	-0.0067037563
23	0x3cf6fd48	0.03015007
24	0xbce1711c	-0.027519755
25	0x3d800494	0.06250873
26	0x3d2ded5c	0.04246269
27	0x3cf189b2	0.029484604
28	0x3d5b83db	0.053592544
29	0xbca94be3	-0.020666068
30	0x3da2bdc5	0.07946352
31	0xbc9741c3	-0.018463975
32	0xbe654a2e	-0.22391579
33	0x3e1e0580	0.15431786
34	0x3d0d1cbe	0.03445124
35	0x3e4f5bb9	0.20249833
36	0xbe0021bf	-0.12512873
37	0xbcbb05c0	-0.02282989
38	0x3de58549	0.11207063
39	0xbc0f10cc	-0.008732032
40	0x3e4047a3	0.18777327
41	0x3e9883cc	0.29788053
42	0xbde34b47	-0.110983424
43	0xbe4d3039	-0.20037927
44	0x3cedb4dd	0.029016906
45	0x3c3a8e3f	0.011386453
46	0xbdb2e1c9	-0.08734471
47	0xbdcde453	-0.10053315
48	0xbd44ac04	-0.04801561
49	0x3ea9e900	0.33185577
50	0x3e091e40	0.13390446
51	0x3e05c133	0.13061981
52	0x3e699ac2	0.22812942
53	0xbb500008	-0.00317383
54	0x3d97da1b	0.07414647
55	0xbe5b30c4	-0.21405321
56	0x3bf82158	0.0075723343
57	0xbdb40ac8	-0.08791119
58	0x3e1e25c9	0.15444101
59	0xbce1834a	-0.027528424
60	0xbe254182	-0.1613827
61	0x3b03000a	0.0019989037
62	0xbbc948bb	-0.0061427034
63	0x3c2c9707	0.010534055
64	0x3c196524	0.009362493
65	0x3d45864c	0.04822378
66	0x3d171fd3	0.036895584
67	0xbd72eba7	-0.059306767
68	0xbd11ec61	-0.03562582
69	0x3e3e2307	0.1856805
70	0xbdec15c9	-0.11527593
71	0x3dda106a	0.10647662
72	0xbdd07d5e	-0.10180162
73	0xbd71caed	-0.059031416
74	0x3de12dcc	0.10995063
75	0xbde06870	-0.1095742
76	0x3e17a675	0.14809592
77	0xbade7dc7	-0.001697474
78	0xbdd330c3	-0.10312035
79	0x3dff221a	0.12457676
80	0xbdc3394d	-0.09532414
81	0xbd17b091	-0.03703362
82	0x3c047879	0.008085364
83	0x3e5ecf91	0.21758868
84	0x3e01bbc6	0.12669286
85	0x3df063bb	0.11737772
86	0x3e6019b3	0.21884803
87	0x3d097496	0.03355845
88	0xbd88631c	-0.066595286
89	0xbd40894a	-0.04700593
90	0x3dbf4228	0.0933879
91	0xbc51b405	-0.012799268
92	0x3c3c4fe5	0.011493658
93	0x3e2d7485	0.1693898
94	0x3e1a4c48	0.15068161
95	0xbdec0225	-0.115238465
96	0x3d404c0f	0.046947535
97	0x3e045aa4	0.12925202
98	0x3c615d7e	0.0137552
99	0x3d938e4a	0.07204874
100	0x3dc05a63	0.0939224
101	0xbd5ac214	-0.053407744
102	0x3e882035	0.26587072
103	0xbd6cfab1	-0.057856265
104	0xbdc67ed2	-0.09692158
105	0xbde47e13	-0.11156859
106	0x3d0a88fb	0.03382204
107	0xbe051cd0	-0.12999272
108	0x3dd3706a	0.10324176
109	0x3e4f3af3	0.20237331
110	0x3dbff1b2	0.093722716
111	0xbe103d79	-0.1408595
112	0xbc39b417	-0.011334441
113	0x3e89c511	0.26908162
114	0xbd6f9e62	-0.058500655
115	0xbd5ebfac	-0.05438201
116	0xbc2073cd	-0.009793234
117	0x3df8cf6b	0.12148937
118	0x3ce153bd	0.02750575
119	0x3cc41da0	0.023939908
120	0x3d4249b1	0.04743356
121	0xbe1d3124	-0.15350777
122	0xba753630	-0.0009354083
123	0xbe15c405	-0.14625557
124	0x3d77d1b6	0.06050273
125	0x3ddf4f04	0.10903743
126	0x3d609c2f	0.05483645
127	0xbd95d589	-0.07316119
128	0xbd6d227d	-0.05789422
129	0xbda90d34	-0.082544714
130	0xbd52f973	-0.051507425
131	0xbe5336ee	-0.20626423
132	0xbe7a67df	-0.24453686
133	0xbd82dea2	-0.0639012
134	0x3e6b967a	0.23006621
135	0x3da17b7b	0.0788488
136	0xbe04ca0a	-0.12967697
137	0x3e0d6fa2	0.13812116
138	0x3e1b0341	0.1513796
139	0xbdc5eb51	-0.09664024
140	0xbdb1b9c0	-0.08678007
141	0x3dead22f	0.114658706
142	0xbb3ee5f7	-0.002912877
143	0x3e341143	0.1758471
144	0x3cd680f7	0.026184542
145	0x3e432b24	0.19059426
146	0xbdb2280f	-0.08699047
147	0x3e02a04e	0.12756464
148	0xbdf9a32b	-0.12189325
149	0xbda44c14	-0.08022323
150	0x3db75077	0.08950894
151	0x3e02a2af	0.12757371
152	0x3d1b257b	0.03787754
153	0x3dfa22a7	0.12213641
154	0xbd86f0cf	-0.06588899
155	0x3db2cd8d	0.08730612
156	0xbd9896b9	-0.07450623
157	0x3d9fe780	0.07807827
158	0x3e4ec322	0.20191625
159	0x3e7a9571	0.2447107
160	0x3db187ce	0.08668481
161	0xbdaa3fd7	-0.08312958
162	0xbd601618	-0.05470857
163	0x3e216c44	0.15763956
164	0xbc63067a	-0.013856525
165	0x3dd73a5a	0.105091766
166	0xbc5e7d8c	-0.013579737
167	0xbd8c56b8	-0.06852478
168	0x3e217bea	0.15769926
169	0xbe4d0677	-0.20021997
170	0x3e18d456	0.1492475
171	0x3ce19b89	0.027539985
172	0xbe3b45d0	-0.1828835
173	0xbccf4895	-0.025303164
174	0x3e057bfa	0.13035575
175	0x3cf9f0cd	0.03051033
176	0xbd9f3e69	-0.07775576
177	0x3dd2a474	0.10285273
178	0x3de7952a	0.11307748
179	0x3e024d53	0.1272481
180	0xbdf2696a	-0.118365124
181	0x3e089631	0.13338543
182	0xbbc88151	-0.0061189313
183	0xbdf6414b	-0.120241724
184	0xbd5e4ca2	-0.0542723
185	0x3d73bb6a	0.059504904
186	0xbd8be9ed	-0.06831727
187	0x3e24f1fe	0.16107938
188	0x3d5d0c56	0.053966843
189	0xbe0580cc	-0.13037413
190	0x3e841b80	0.2580223
191	0x3dd45933	0.10368576
192	0xbdb05aac	-0.08611044
193	0x3de235e4	0.11045435
194	0xbe3d491c	-0.1848492
195	0xbc100bae	-0.008791847
196	0xbd2b7c18	-0.041866392
197	0xbe02d39e	-0.12776038
198	0x3e3c7fa9	0.18408073
199	0x3e5061f8	0.20349872
200	0x3e3d4238	0.18482292
201	0x3e18a1ad	0.14905424
202	0x3e0efbd7	0.13963257
203	0xbe018dac	-0.126517
204	0x3c865c4d	0.016401434
205	0xbe06e3e1	-0.13172866
206	0x3e1aa14c	0.15100592
207	0xbdaa0495	-0.08301655
208	0xbd077a13	-0.033075403
209	0xbe4a25d8	-0.19740999
210	0xbc8f310d	-0.017479444
211	0xbda7a841	-0.08186389
212	0x3d4a6a0b	0.049417537
213	0xbdc780d9	-0.097413726
214	0xbd22bec9	-0.03973273
215	0xbc358927	-0.011080063
216	0x3bb913f2	0.0056481296
217	0x3ca978e9	0.020687537
218	0x3d16c235	0.036806304
219	0x3ce0c4c5	0.027437577
220	0x3cee6128	0.029099062
221	0x3b96ac61	0.004598186
222	0xbd3a66a7	-0.045508053
223	0xbcf02aa0	-0.0293172
224	0x3dc9181c	0.098190516
225	0x3d5bc419	0.05365381
226	0xbd287f06	-0.041136764
227	0x3d3609ea	0.04444305
228	0xbdcb1f5a	-0.09918089
229	0xbc102dba	-0.008799965
230	0x3d957817	0.07298296
231	0xbcfd7187	-0.030937923
232	0xbd68d72d	-0.056845833
233	0x3d550877	0.052010026
234	0x3d926d8d	0.071498014
235	0xbd21c408	-0.03949359
236	0x3d1f2ac6	0.03885915
237	0xbd226fcd	-0.039657403
238	0xbe0784a1	-0.13234188
239	0x3d94870e	0.07252322
240	0xbcc86872	-0.024463866
241	0xbbad1816	-0.0052824123
242	0xbd200490	-0.03906685
243	0xbcb5b2b8	-0.022179946
244	0xbbc3afc6	-0.0059718816
245	0x3db1670e	0.08662234
246	0x3d8e234d	0.06940327
247	0xbd9a0d57	-0.075220756
248	0xbc8f1cb0	-0.017469734
249	0x3abcf79d	0.0014417056
250	0x3e09d98b	0.13461892
251	0xbd93ef05	-0.07223324
252	0x3d11b1d0	0.035569966
253	0x3e49b58f	0.19698165
254	0xbc893dc8	-0.016753092
255	0x3de9f5b9	0.11423821

conv2.convs.<node___to___node>.lin_l.weight f4 [16, 16]
0	0x3e7f9ccc	0.24962157
1	0x3e6c155e	0.23055026
2	0x3e8cd8e0	0.27509212
3	0xbe0a4b88	-0.13505375
4	0xbdb8afba	-0.09017892
5	0x3e6a34ed	0.22871752
6	0x3d9a7a8c	0.07542905
7	0xbce0fb0a	-0.027463455
8	0x3dbfc266	0.093632504
9	0x3d0294b5	0.0318801
10	0xbcb45375	-0.022012452
11	0x3dbe38be	0.092881665
12	0x3d98f9b1	0.074695
13	0x3dc1f161	0.094698675
14	0x3e326d50	0.17424512
15	0x3daee389	0.08539493
16	0xbd8bd810	-0.0682832
17	0x3e19a766	0.15005264
18	0x3e5c9f33	0.21545105
19	0xbe1fedca	-0.15618053
20	0x3ddbbbe1	0.107291944
21	0x3dcc09a4	0.09962776
22	0xbd5edf35	-0.054412086
23	0x3d4108de	0.047127597
24	0x3e09a4b0	0.1344173
25	0xbcd06aeb	-0.025441607
26	0x3d09431d	0.03351127
27	0x3e39b33b	0.18134777
28	0x3dd10cfe	0.10207556
29	0xbe085456	-0.13313422
30	0x3e3ba165	0.18323286
31	0x3e93586c	0.28778398
32	0x3d9cec15	0.076622166
33	0xbd03a504	-0.032139793
34	0xbe597036	-0.21234211
35	0xbd878560	-0.06617236
36	0x3db8d681	0.090252884
37	0xbe28f236	-0.16498646
38	0xbd29b08a	-0.041428126
39	0xbe837f35	-0.2568299
40	0xbdfb22de	-0.1226251
41	0xbe9c9a49	-0.3058646
42	0xbe6caf1b	-0.23113672
43	0x3ddb5c96	0.10711019
44	0xbc898cd4	-0.016790785
45	0x3e9655d3	0.29362354
46	0x3db24dd9	0.087062545
47	0xbdd3ce5b	-0.103420936
48	0xbe176417	-0.14784275
49	0x3dd3ef49	0.103483744
50	0x3dca6093	0.09881701
51	0x3daca2de	0.08429502
52	0x3d7274a1	0.059193257
53	0xbe2e5ae7	-0.17026864
54	0xbd826288	-0.063664496
55	0xbd0d3b2c	-0.03448026
56	0x3e65787d	0.22409244
57	0xbdb72c37	-0.0894398
58	0xbd56858b	-0.05237345
59	0x3de29247	0.110630564
60	0x3dabf4f9	0.08396334
61	0x3e334b89	0.17509283
62	0xbdaea24a	-0.08527048
63	0x3cf60cbf	0.030035375
64	0xbd40e2d3	-0.047091316
65	0xbdb8a59e	-0.09015964
66	0xbe679847	-0.22616683
67	0x3e34d8e1	0.17660858
68	0x3eac122b	0.3360761
69	0x3d0f4ddb	0.034986358
70	0x3e9bf575	0.30460706
71	0xbda84f4b	-0.08218249
72	0xbe7d338f	-0.247267
73	0xbdd60209	-0.10449607
74	0xbcbf11e5	-0.023323962
75	0x3e8b872f	0.27251574
76	0xbe158f1d	-0.14605375
77	0x3e1e3bf4	0.15452558
78	0xbe4c97b2	-0.19979742
79	0xba9c01b7	-0.0011902367
80	0x3d5ea8c4	0.054360166
81	0x3e4f5ad4	0.20249492
82	0xbe0ec471	-0.13942124
83	0xbe5a830e	-0.21339056
84	0xbc8e0d26	-0.017340254
85	0x3e0748f4	0.13211423
86	0x3d75a974	0.059976056
87	0x3dd13b50	0.10216391
88	0x3e2435bf	0.16036128
89	0xbdf26e99	-0.11837501
90	0xbe03de37	-0.12877737
91	0x3dcefd1c	0.101068705
92	0x3cc96249	0.024582999
93	0xbd8622d7	-0.06549614
94	0x3df869f1	0.12129582
95	0x3cd4a7c3	0.025958901
96	0xbe8d8c1c	-0.27645957
97	0x3deda779	0.116042085
98	0x3e1ecafd	0.15507121
99	0xbe835594	-0.25651228
100	0xbe4b107d	-0.19830509
101	0x3e334022	0.17504933
102	0xbd47b727	-0.048758652
103	0x3e730b0b	0.23734681
104	0x3dc66d6e	0.09688841
105	0xbdf0c5a1	-0.11756445
106	0xbe282689	-0.1642095
107	0xbc8acdfa	-0.01694392
108	0x3d829043	0.06375172
109	0xbe1bb0e2	-0.15204194
110	0xbd9b6894	-0.07588306
111	0xbe368e7a	-0.17827788
112	0xbd60b2ec	-0.054858133
113	0xbe5b9bfa	-0.21446219
114	0x3e478665	0.19484861
115	0x3daa52b4	0.083165556
116	0xbda4a773	-0.08039751
117	0xbe4d998b	-0.20078103
118	0x3e058b8a	0.13041511
119	0x3db24d13	0.08706107
120	0x3e045dc2	0.12926391
121	0x3d133da8	0.03594747
122	0x3e0040ae	0.12524673
123	0xbc22cfdf	-0.009937256
124	0x3d7e7c82	0.06213046
125	0x3e2c07e7	0.1679989
126	0xbd2d264d	-0.042272855
127	0x3ddab5d6	0.10679214
128	0x3d80fb47	0.06297927
129	0xbe243858	-0.16037118
130	0x3c9d4477	0.019197686
131	0xbe59dd75	-0.21275885
132	0xbda8426c	-0.08215794
133	0x3db8cf89	0.09023959
134	0x3e2d4631	0.16921307
135	0xbdcfa7df	-0.10139441
136	0xbcba8330	-0.022767633
137	0xbe58a415	-0.21156342
138	0xbe14f380	-0.14546013
139	0x3d78356c	0.060597822
140	0xbe32c773	-0.17458896
141	0xbc9b98b6	-0.018993717
142	0xbdf7c4ea	-0.12098105
143	0x3e275a2b	0.1634299
144	0x3d881fb4	0.06646672
145	0x3d56513c	0.052323565
146	0x3e1a866a	0.15090337
147	0xbdd63350	-0.10459006
148	0x3d9f6880	0.07783604
149	0x3e77717a	0.24164382
150	0x3d6b54d6	0.057453953
151	0x3e9d6430	0.307405
152	0xbdb44668	-0.088024914
153	0x3d77676a	0.060401358
154	0x3e2a6007	0.16638194
155	0x3e356e40	0.17717838
156	0x3dde0c68	0.1084221
157	0x3d9c6018	0.07635516
158	0x3e00a8fd	0.12564464
159	0x3e310784	0.17288023
160	0x3e597f70	0.2124002
161	0x3e47c9e0	0.19510603
162	0xbd6a961a	-0.057272054
163	0xbd5f925d	-0.054582942
164	0x3e19c573	0.15016727
165	0xbe0014f3	-0.12507991
166	0xbe0caa2f	-0.13736795
167	0x3c0d5e56	0.0086284485
168	0x3d8d56e2	0.06901337
169	0x3d052614	0.032507017
170	0x3d00c044	0.03143336
171	0xbe0a69d7	-0.13516937
172	0x3dea326f	0.11435401
173	0xbd573605	-0.05254175
174	0xbd0fa95d	-0.035073627
175	0xbe2cbdbc	-0.16869253
176	0x3e718524	0.23585945
177	0x3e4e422b	0.20142429
178	0x3e65a4e1	0.22426178
179	0x3d175950	0.03695041
180	0x3db98f30	0.09060514
181	0xbd1eb860	-0.038750052
182	0xbd64c467	-0.055851366
183	0x3e36aafa	0.1783866
184	0x3df0c3f3	0.11756124
185	0x3d1bdefb	0.038054448
186	0xbe1fe38c	-0.15614146
187	0xbc846019	-0.016159104
188	0x3e1bde65	0.15221556
189	0x3d82b504	0.06382182
190	0x3e64907e	0.22320744
191	0x3e21a4ea	0.15785566
192	0xbdd68ceb	-0.10476097
193	0x3e8145a5	0.25248447
194	0x3e2cc902	0.16873553
195	0xbe531a8d	-0.20615597
196	0xbd749d67	-0.059720423
197	0x3e1bd0c1	0.15216352
198	0xbd5154a0	-0.051106095
199	0xbbc9e283	-0.0061610355
200	0x3d83c9c2	0.064349666
201	0x3e31db30	0.1736877
202	0x3d5c88a6	0.053841256
203	0x3d3c3ec8	0.04595831
204	0x3d45aa19	0.04825792
205	0x3e934102	0.28760535
206	0xbc751bcb	-0.01496024
207	0xbe40fdad	-0.1884677
208	0x3dbb7f99	0.09155197
209	0x3df97e6e	0.12182318
210	0xbe1b4f3a	-0.15166941
211	0xbdec9e37	-0.115536146
212	0xbd89e178	-0.06732458
213	0xbb829929	-0.0039855433
214	0x3d981529	0.07425911
215	0x3d77c740	0.060492754
216	0xbe122e6b	-0.1427552
217	0x3df99f77	0.12188619
218	0xbe0fcfa5	-0.14044054
219	0xbe3d8e9b	-0.18511431
220	0xbe052455	-0.13002141
221	0x3e535c26	0.2064062
222	0x3e3bdd08	0.18346035
223	0xbdc50410	-0.096199155
224	0x3e651e12	0.22374752
225	0x3dc62fb4	0.096770674
226	0x3dc491d4	0.09598127
227	0x3dd54211	0.10412992
228	0xbd085b88	-0.033290416
229	0xbd81049a	-0.06299706
230	0x3d95fa6c	0.07323155
231	0xbe097825	-0.13424738
232	0xbdb92494	-0.0904018
233	0x3e17d6f4	0.14828092
234	0x3e389a46	0.180276
235	0xbe585260	-0.21125174
236	0xbe86faad	-0.26363125
237	0xbe0ab2db	-0.1354479
238	0x3bb92b68	0.0056509264
239	0xbe000de9	-0.12505306
240	0xbe1e8ad6	-0.15482649
241	0x3c54efbc	0.01299661
242	0xbdf7463d	-0.12073944
243	0xbd9f87f6	-0.07789604
244	0xbd9ab799	-0.0755455
245	0x3c17342c	0.009228747
246	0xbd755563	-0.059895884
247	0x3d894c66	0.06704025
248	0x3dc119cc	0.094287485
249	0xbd397d9b	-0.045285802
250	0x3e036b66	0.12833938
251	0x3e874b14	0.26424468
252	0x3e16bc09	0.14720167
253	0x3c2dde7f	0.010612129
254	0x3e0c19cf	0.1368172
255	0xbe401a05	-0.18759926

conv2.convs.<node___to___node>.lin_l.bias f4 [16]
0	0x3e877b50	0.26461267
1	0x3e20c010	0.15698266
2	0x3d880c61	0.06642986
3	0x3e0817b4	0.13290292
4	0x3e0dd47f	0.13850592
5	0x3be55686	0.00699884
6	0x3deba1fb	0.11505505
7	0x3ddd434f	0.10803854
8	0x3db774ca	0.089578226
9	0x3e875b8f	0.2643704
10	0x3e743817	0.23849522
11	0x3e93b678	0.2885015
12	0x3c9c0ea9	0.01904996
13	0xbe73cd4f	-0.23808788
14	0xbdbd9fd7	-0.09259003
15	0xbe0fdd30	-0.1404922

conv2.convs.<node___to___node>.lin_r.weight f4 [16, 16]
0	0x3de5baca	0.11217268
1	0x3e806946	0.25080317
2	0xbe9b9451	-0.30386594
3	0x3e7f6c41	0.2494364
4	0x3e281c5e	0.16417071
5	0xbe8b76f0	-0.2723918
6	0x3e8f5225	0.2799236
7	0xbe0b98e0	-0.13632536
8	0xbe9398ee	-0.28827614
9	0xbe9fc7c6	-0.31207103
10	0xbe269537	-0.16267858
11	0xbba3a086	-0.004993501
12	0xbd98675b	-0.074415885
13	0xbd22fabe	-0.039789908
14	0xbddaef85	-0.10690216
15	0xbeba12f1	-0.36342576
16	0xbef8476a	-0.48491985
17	0x3e9c292c	0.30500162
18	0xbde9c8a7	-0.114152245
19	0xbecbefc8	-0.39831376
20	0x3e1ce0ec	0.15320176
21	0x3c8b6fc6	0.017021071
22	0x3e93322e	0.28749222
23	0xbebeaa64	-0.37239373
24	0x3d812b33	0.06307068
25	0xbe939407	-0.28823873
26	0xbebe12c5	-0.37123695
27	0xbd943224	-0.07236126
28	0x3d2fab71	0.04288811
29	0x3ccdbdc9	0.02511491
30	0xbeb8552c	-0.3600248
31	0x3e3f4929	0.18680252
32	0x3b752000	0.0037403107
33	0xbe021b62	-0.12705758
34	0xbd80bfb8	-0.062865674
35	0xbe0ab4ea	-0.13545576
36	0x3e479555	0.1949056
37	0xbeb44228	-0.35206723
38	0xbca65513	-0.020304238
39	0xbe92cfb0	-0.28674078
40	0xbed052b4	-0.40688097
41	0x3e8bdcbb	0.2731684
42	0x3e06285d	0.13101335
43	0x3e870d71	0.26377442
44	0xbefc5cba	-0.49289495
45	0x3eaf9913	0.34296474
46	0x3d7f88c8	0.062386304
47	0x3ea09e7c	0.31370914
48	0x3da7b497	0.08188742
49	0x3e537c00	0.20652771
50	0x3e93e03a	0.2888201
51	0xbe2a1986	-0.16611299
52	0x3e27d075	0.16388114
53	0xbdf7bac1	-0.12096167
54	0xbdda5482	-0.1066065
55	0xbd5b4492	-0.05353219
56	0xbd9bf01e	-0.07614158
57	0xbe984e28	-0.29747128
58	0xbe898aaf	-0.2686362
59	0x3ea5819f	0.32325456
60	0xbea20bfc	-0.31649768
61	0x3e98a6ba	0.29814702
62	0xbe25b799	-0.16183318
63	0x3e34816a	0.17627493
64	0x3de2a3c0	0.11066389
65	0xbdde3430	-0.10849798
66	0xbe83e928	-0.25763822
67	0x3deede3a	0.1166348
68	0x3ebbe45c	0.36697662
69	0xbe21239e	-0.15736243
70	0x3d7c31f1	0.061571065
71	0x3d817382	0.063208595
72	0xbe8663eb	-0.26248106
73	0xbd259638	-0.040426463
74	0xbc755d77	-0.014975897
75	0x3e614adb	0.22001211
76	0xbd0c3456	-0.0342296
77	0x3ebb722b	0.3661054
78	0x3e074b03	0.13212208
79	0xbe2b6883	-0.16739087
80	0x3ec7125e	0.388812
81	0x3dba03a4	0.09082726
82	0xbe63c7aa	-0.22244135
83	0x3e59f717	0.21285664
84	0x3e12cae4	0.14335209
85	0x3e2c4395	0.16822655
86	0xbe1d1d75	-0.15343268
87	0xbe7ccefe	-0.24688336
88	0x3e874b41	0.26424602
89	0xbd0aaaae	-0.03385418
90	0x3e0fe4d6	0.14052138
91	0xbe65b4b8	-0.2243222
92	0x3d606e5f	0.054792758
93	0xbe4794b5	-0.19490321
94	0x3e6ff3f7	0.23432909
95	0xbec49398	-0.38393855
96	0xbeafb3bd	-0.34316817
97	0xbd9d5ad1	-0.076833375
98	0xbd73016a	-0.05932752
99	0xbe8d32ab	-0.2757772
100	0x3e15cc52	0.14628723
101	0x3e50dc39	0.20396508
102	0x3e9c68bf	0.30548665
103	0xbec8f3cc	-0.39248502
104	0x3eafd6c6	0.34343547
105	0x3ea0ade7	0.31382677
106	0x3d9c846d	0.07642446
107	0x3deddecb	0.1161476
108	0xbcbd8643	-0.02313531
109	0xbcb16eed	-0.021659339
110	0x3ec500fc	0.38477314
111	0x3d06cb34	0.032908633
112	0x3e1c2a89	0.15250601
113	0xbd9a3b5a	-0.07530852
114	0x3e82bb9f	0.2553377
115	0x3e9bfdfe	0.30467218
116	0x3e844815	0.25836244
117	0x3e0b7eb7	0.13622557
118	0x3daa847a	0.08326049
119	0x3ec94474	0.39310038
120	0xbe8aa002	-0.270752
121	0xbe7e1c05	-0.24815376
122	0xbe866126	-0.26245993
123	0x3e91dc0b	0.28488192
124	0x3e540fdb	0.20709173
125	0xbe325bfe	-0.17417905
126	0xbe833cb8	-0.25632262
127	0xbd1d6036	-0.038421832
128	0xbe93f94d	-0.2890114
129	0xbe21f391	-0.1581557
130	0x3ea5062b	0.32231268
131	0x3e4c68a3	0.1996179
132	0xbe065f4d	-0.13122292
133	0x3ea3e702	0.32012182
134	0x3e82f693	0.25578746
135	0x3e98f075	0.29870954
136	0x3e23a005	0.15979011
137	0x3d81071d	0.06300185
138	0xbe57be0e	-0.21068594
139	0xbdf3059a	-0.11866303
140	0x3deaa4e3	0.11457231
141	0xbe33fd4b	-0.17577092
142	0x3e8012ff	0.25014493
143	0x3e9bcf4b	0.3043159
144	0xbeb14c5c	-0.3462857
145	0x3da4beb7	0.080441885
146	0xbe70dc77	-0.235216
147	0xbcf1de57	-0.029524965
148	0xbb8a82b4	-0.004227007
149	0xbe8506db	-0.25981793
150	0x3e87ded7	0.265372
151	0xbcf317ab	-0.029674372
152	0xbe108a49	-0.14115252
153	0xbed2f55f	-0.41202828
154	0xbec4e46f	-0.3845553
155	0x3e52a667	0.2057129
156	0xbe04ab1b	-0.12955897
157	0x3e0152f4	0.126293
158	0xbe83897e	-0.25690836
159	0xbe487230	-0.19574809
160	0xbe53a44f	-0.20668148
161	0x3da06081	0.07830907
162	0xbd5e0054	-0.05419953
163	0x3e9b81e8	0.30372548
164	0xbdc10d15	-0.09426323
165	0x3ec313f0	0.3810115
166	0x3e3bff96	0.18359217
167	0xbc93d3e7	-0.018045379
168	0x3e94b275	0.29042402
169	0xbd99e2ba	-0.07513948
170	0xbe20ed44	-0.1571551
171	0xbda87602	-0.08225633
172	0x3edbde1c	0.42942894
173	0xbb632f6b	-0.0034665714
174	0x3e32bf91	0.1745589
175	0x3d8c811a	0.06860562
176	0xbea6873f	-0.3252506
177	0x3e8c0925	0.27350727
178	0x3a6a81a9	0.00089457125
179	0xbe617a88	-0.22019398
180	0x3e85d986	0.2614252
181	0xbe16deb0	-0.14733386
182	0x3dba2bae	0.090903625
183	0xbe8ee7e0	-0.27911282
184	0xbca2d867	-0.01987858
185	0xbe76bb68	-0.24094927
186	0xbe976c26	-0.29574698
187	0x3e735f4d	0.23766823
188	0xbd54e271	-0.051973764
189	0x3ea98bd9	0.33114508
190	0xbbd50cbd	-0.0065017627
191	0xbe87483f	-0.26422307
192	0xbe1c493a	-0.15262309
193	0x3e053704	0.13009268
194	0xbeb8c3b8	-0.36086822
195	0x3e51d87b	0.20492737
196	0x3e0bcdba	0.13652697
197	0xbea3079e	-0.3184175
198	0x3e97d809	0.2965701
199	0xbe776e87	-0.24163257
200	0xbe83709f	-0.2567186
201	0xbe109fdb	-0.1412348
202	0x3defd5c4	0.117106944
203	0x3e98bf25	0.29833332
204	0xbd8bf37d	-0.06833551
205	0x3deec72c	0.11659083
206	0xbd0f4eaa	-0.03498713
207	0xbe62c98b	-0.22147195
208	0x3ecd3d21	0.400857
209	0xbd2c5239	-0.0420706
210	0xbf0884bb	-0.5332753
211	0x3e9692d9	0.2940891
212	0x3d756ea9	0.059919987
213	0x3d881bf9	0.0664596
214	0x3be6a265	0.007038402
215	0x3d699be5	0.05703344
216	0x3e4580dd	0.19287439
217	0xbd86d7bb	-0.06584116
218	0x3ed887a9	0.42291
219	0x3e318999	0.17337646
220	0x3ccde141	0.025131823
221	0x3d4d8b73	0.050181817
222	0x3e74c305	0.23902519
223	0xbed04b90	-0.4068265
224	0x3e834f93	0.25646648
225	0x3de18ace	0.11012803
226	0x3dfba2f4	0.1228694
227	0x3dd3f1ec	0.10348877
228	0x3ea33c4a	0.31881934
229	0xbd5ef604	-0.054433838
230	0x3e591b8a	0.21201912
231	0x3ef28deb	0.473739
232	0xbe8f4a74	-0.2798649
233	0xbee7cc3c	-0.45273006
234	0xbe09f307	-0.13471614
235	0x3ea12d82	0.31480032
236	0x3e60670b	0.21914308
237	0xbe465ec6	-0.1937209
238	0x3e62c640	0.22145939
239	0x3dca4d3f	0.09878015
240	0xbedf43f7	-0.4360654
241	0x3dfb974f	0.12284719
242	0xbd6e8b8c	-0.05823855
243	0xbe90eb2d	-0.28304425
244	0x3dde48c7	0.10853725
245	0x3ed3abfe	0.41342157
246	0x3e8a1470	0.26968718
247	0x3c1e72c4	0.009670917
248	0x3d4fc343	0.050723325
249	0xbec3bb04	-0.3822862
250	0xbe8d1549	-0.27555302
251	0xbd64719a	-0.0557724
252	0x3e915aa4	0.28389466
253	0x3d0b1128	0.03395191
254	0xbea20ab7	-0.316488
255	0x3e43b2c3	0.19111161

conv3.convs.<node___to___node>.lin_l.weight f4 [16, 16]
0	0x3d1aa5de	0.03775584
1	0x3e8cd944	0.2750951
2	0xbd998b56	-0.07497279
3	0x3df1992b	0.117967926
4	0xbc3cf675	-0.011533369
5	0xbe0b4226	-0.13599452
6	0xbd8e833f	-0.06958627
7	0x3d8ddba8	0.06926662
8	0xbd79cedb	-0.06098829
9	0x3e741504	0.23836142
10	0x3c956495	0.018236438
11	0x3ebeefd8	0.3729236
12	0xbc8f682c	-0.017505728
13	0xbbe4558e	-0.0069682067
14	0xbdbef629	-0.09324295
15	0x3e6c92a0	0.23102808
16	0x3bfbeeb0	0.007688366
17	0x3e0508fa	0.12991706
18	0xbeed3e8c	-0.46336782
19	0xbd9f74d9	-0.07785959
20	0xbe38b4bf	-0.18037699
21	0xbe1bf26c	-0.15229195
22	0xbd0d5d4a	-0.034512796
23	0x3e15e969	0.1463982
24	0xbe018b87	-0.12650882
25	0x3e85a3c6	0.26101512
26	0xbe9f46c8	-0.3110869
27	0xbc711791	-0.014715091
28	0x3cef1488	0.029184595
29	0xbe29b830	-0.16574168
30	0x3e174311	0.14771678
31	0xbe9ed62d	-0.31022778
32	0xbdb45a70	-0.08806312
33	0xbe2cfb6f	-0.1689279
34	0xbe539a07	-0.20664226
35	0x3d2f74fb	0.04283617
36	0xbe50d1ac	-0.20392483
37	0x3d71a9b9	0.05899975
38	0xbe4958a9	-0.19662727
39	0xbe46b731	-0.1940582
40	0x3dc1ee63	0.09469297
41	0xbea270b9	-0.31726626
42	0xbe56bfc3	-0.20971589
43	0xbe6434aa	-0.22285715
44	0xbe7f5e39	-0.24938287
45	0xbe18cdec	-0.14922303
46	0xbe8df990	-0.27729464
47	0x3b8c178e	0.004275269
48	0x3e913de4	0.2836753
49	0xbd1b8d20	-0.037976384
50	0x3d760c20	0.060070157
51	0xbe360911	-0.17776896
52	0x3e3a1edb	0.18175833
53	0x3e495ff4	0.1966551
54	0xbe6accde	-0.22929713
55	0xbdce727a	-0.100804284
56	0xbe1d8666	-0.153833
57	0xbe1d1ec4	-0.15343767
58	0xbd83b2ed	-0.06430612
59	0x3e30c508	0.17262661
60	0x3c6a680b	0.014307032
61	0xbe8a0201	-0.26954654
62	0xbdf27942	-0.11839534
63	0xbe0d46bb	-0.13796513
64	0x3e82eb78	0.25570273
65	0x3de97eef	0.11401164
66	0xbef3f745	-0.4764959
67	0x3dfa4b2e	0.12221371
68	0x3d3cc4c6	0.046086095
69	0xbe282337	-0.16419683
70	0xbe1cd3c7	-0.15315162
71	0xbd1c8408	-0.038211852
72	0xbe50edbb	-0.20403187
73	0x3c0eb222	0.008709462
74	0xbd754afc	-0.059885964
75	0x3e5a760f	0.21334098
76	0xbe134b89	-0.14384283
77	0xbcd12d60	-0.025534332
78	0xbe990787	-0.29888555
79	0xbe7f8ba4	-0.24955612
80	0x3e5b8031	0.2143562
81	0xbce8de63	-0.028426355
82	0x3f11fb5d	0.57024175
83	0xbdb36e6e	-0.08761297
84	0xbda1cbe4	-0.07900217
85	0x3e66a141	0.22522451
86	0xbe3a33b1	-0.18183781
87	0x3e1e4b67	0.15458451
88	0x3e75a9bc	0.2399053
89	0x3e601d2b	0.21886127
90	0xbdcf09ba	-0.10109277
91	0x3e81116f	0.25208613
92	0x3c902672	0.017596457
93	0x3e12a4ea	0.14320722
94	0x3e4edcd1	0.20201422
95	0x3e8991da	0.26869088
96	0xbe96c483	-0.29446802
97	0xbdd229ab	-0.10261854
98	0xbe2117be	-0.15731713
99	0x3e8852e7	0.2662575
100	0xbd9be112	-0.07611288
101	0xbe657662	-0.2240844
102	0xbe45616c	-0.19275445
103	0x3e838c95	0.25693193
104	0x3e807520	0.2508936
105	0xbe85a69e	-0.2610368
106	0xbd5f8526	-0.05457034
107	0xbe08ad38	-0.13347328
108	0xbd8f45c6	-0.0699573
109	0x3df5847c	0.1198816
110	0x3e9819f4	0.297073
111	0x3e17b3ca	0.14814678
112	0xbe397ea7	-0.1811472
113	0xbe8d7118	-0.27625346
114	0xbe0ed56d	-0.13948603
115	0x3d7c235b	0.061557155
116	0xbe664641	-0.22487737
117	0x3e2e72d5	0.17035992
118	0x3e0ae4b7	0.1356381
119	0xbeba4e35	-0.36387792
120	0x3daa6ca8	0.08321506
121	0xbea96571	-0.33085206
122	0x3d21b0a8	0.039475113
123	0xbbde46b3	-0.0067833303
124	0x3d73850a	0.059453048
125	0xbe06a7bf	-0.13149928
126	0xbe92f6e2	-0.28703982
127	0xbe8d6de7	-0.2762291
128	0x3da848c0	0.08217001
129	0x3e031ebd	0.12804694
130	0x3daa1a4e	0.083057985
131	0x3e298ab5	0.16556819
132	0x3e2db139	0.16962136
133	0x3d63b059	0.0555881
134	0x3e57c0a9	0.21069588
135	0x3e306db4	0.17229348
136	0x3d31b948	0.04338959
137	0xbe03aa36	-0.12857899
138	0x3e179ce6	0.14805946
139	0x3e85c948	0.26130128
140	0x3e8a9600	0.27067566
141	0x3ca6812e	0.02032527
142	0xbe710b4e	-0.23539469
143	0x3cd1cfdd	0.025611812
144	0xbe780678	-0.24221218
145	0xbd7b00b5	-0.06127997
146	0xbed01d40	-0.40647316
147	0xbd24707b	-0.040146332
148	0xbe074daa	-0.1321322
149	0xbd3a72c6	-0.045519613
150	0x3e0129e2	0.12613633
151	0x3d978946	0.0739923
152	0x3e8b1dc0	0.27171135
153	0x3e3d1da7	0.18468343
154	0x3d13b843	0.036064398
155	0x3c137a6b	0.009001355
156	0x3e01d67d	0.12679477
157	0x3d4c8ce5	0.049939055
158	0xbcd8c60d	-0.026461625
159	0xbe00116c	-0.12506646
160	0x3c3796a7	0.011205352
161	0x3e34044d	0.17579766
162	0xbc91f98c	-0.017819189
163	0xbd305761	-0.04305208
164	0x3de091c8	0.109653056
165	0x3e64f704	0.22359854
166	0xbdfd1322	-0.12357165
167	0x3d3ba7b1	0.04581422
168	0x3ddd48b5	0.108048834
169	0xbcea5b08	-0.02860786
170	0x3e04083c	0.12893766
171	0x3d60908e	0.054825358
172	0x3e15346a	0.14570776
173	0x3e3190c2	0.17340377
174	0xbe619137	-0.22028051
175	0xbeaa3dad	-0.3325018
176	0x3dadab77	0.0847997
177	0x3df628ea	0.120195225
178	0x3e3b0021	0.18261768
179	0x3df91b71	0.12163437
180	0xbc2225db	-0.009896721
181	0x3ddaef0a	0.10690124
182	0x3e45e901	0.19327165
183	0xbda9ded7	-0.082944565
184	0xbd34a2be	-0.044100516
185	0x3de5e2c1	0.112248905
186	0xbd6d1f66	-0.057891272
187	0xbe1b2168	-0.15149462
188	0x3cdd7433	0.027032947
189	0x3e669a00	0.22519684
190	0x3c87f7ae	0.016597595
191	0xbdee26d6	-0.11628501
192	0x3db5c043	0.08874562
193	0xbb08f1e7	-0.0020896138
194	0xbf135786	-0.57555425
195	0xbcabbd96	-0.020964425
196	0xbebfd4bc	-0.3746699
197	0x3e17c711	0.14822032
198	0xbdb4d0a8	-0.088288605
199	0x3e02362c	0.12715977
200	0xbb431525	-0.0029767242
201	0xbe7d81bd	-0.24756522
202	0xbda3c34a	-0.07996233
203	0x3e027ca2	0.12742856
204	0xbe5d0485	-0.21583755
205	0xbbe71644	-0.007052215
206	0xbe0da10b	-0.13830964
207	0xbe2a0ff1	-0.16607644
208	0xbd17aac0	-0.037028074
209	0x3cb4ff3f	0.022094367
210	0xbe1f9989	-0.15585913
211	0xbdc03e6f	-0.09386908
212	0x3dcda000	0.10040283
213	0xbdfae52e	-0.12250744
214	0x3ca48625	0.020083496
215	0x3dd9fb46	0.1064363
216	0xbccc0902	-0.024906639
217	0xbe3d1e92	-0.18468693
218	0xbe813376	-0.25234574
219	0xbe06ae96	-0.13152537
220	0xbd3c9d5a	-0.0460485
221	0xbe1da3fa	-0.15394583
222	0x3da44d19	0.08022518
223	0xbbcde623	-0.006283538
224	0x3b74737c	0.003730028
225	0x3d6f1a8e	0.058374934
226	0x3ce195eb	0.027537307
227	0x3dcc82fc	0.09985921
228	0x3da88ff4	0.08230582
229	0xbe88548c	-0.26627004
230	0xbd0d3497	-0.03447398
231	0x3e373928	0.17892897
232	0x3dc1eb2b	0.09468683
233	0x3c91671d	0.017749364
234	0x3e2a6d98	0.16643369
235	0xbda22237	-0.07916682
236	0x3d82556c	0.06363949
237	0x3d9a27bd	0.07527111
238	0x3e0d70fc	0.13812631
239	0xbe2913fb	-0.16511528
240	0xbe1a0b27	-0.15043317
241	0x3e31cf22	0.17364171
242	0xbdbfb441	-0.093605526
243	0x3d4f1432	0.05055637
244	0xbd7581fe	-0.059938423
245	0x3dd67c4e	0.10472928
246	0x3e0a0828	0.13479674
247	0x3e44454d	0.19167061
248	0xbe2d214a	-0.1690723
249	0x3e1c2bcd	0.15251084
250	0x3e2f876a	0.171415
251	0x3d9493c5	0.07254747
252	0x3e0fcb04	0.14042288
253	0xbdd4cf3e	-0.10391091
254	0xbeb089df	-0.34480187
255	0x3d74d7d5	0.059776146

conv3.convs.<node___to___node>.lin_l.bias f4 [16]
0	0xbea376a8	-0.31926465
1	0xbe8283f7	-0.25491306
2	0x3e92b453	0.286532
3	0xbe1dc8fc	-0.154087
4	0xbe85486f	-0.26031825
5	0x3d651055	0.05592378
6	0x3dd86352	0.10565819
7	0xbe05e950	-0.13077283
8	0x3e024974	0.12723333
9	0x3d16ff27	0.036864426
10	0xbe8dca26	-0.2769329
11	0xbae779b0	-0.0017660167
12	0xbec9947c	-0.39371097
13	0x3e53b00e	0.20672628
14	0x3c777db6	0.015105655
15	0x3dc5fe15	0.09667603

conv3.convs.<node___to___node>.lin_r.weight f4 [16, 16]
0	0xbe37ec36	-0.17961201
1	0xbd196787	-0.037452247
2	0xbc0c8272	-0.008576022
3	0xbd9533b8	-0.07285255
4	0x3d37dd9c	0.044889078
5	0x3dddac53	0.10823884
6	0x3ebe5028	0.3717053
7	0x3e067e4f	0.1313412
8	0x3e88fb80	0.2675438
9	0xbe013100	-0.12616348
10	0x3eb6636f	0.35622737
11	0xbd9a93aa	-0.07547696
12	0x3da9d3a6	0.08292322
13	0x3e9e526d	0.3092226
14	0x3e7564cd	0.23964234
15	0xbdd396a2	-0.10331465
16	0x3de8a78a	0.113600805
17	0x3ac39564	0.0014921841
18	0x3d11f1dc	0.035631046
19	0x3e336798	0.17519987
20	0xbe0339ac	-0.12814969
21	0xba820d42	-0.0009922164
22	0xbe0ee4ba	-0.1395444
23	0x3d817957	0.06321972
24	0xbeb5be55	-0.35496774
25	0x3e90ec2f	0.28305194
26	0xbeadaeaa	-0.3392232
27	0x3e416be6	0.18888816
28	0x3e4d701f	0.20062302
29	0x3da641f0	0.08118045
30	0xbe3c01cf	-0.18360065
31	0xbe20ee73	-0.15715961
32	0x3e120630	0.14260173
33	0x3e893b80	0.26803207
34	0x3e06707f	0.13128851
35	0x3e8a4dc5	0.27012458
36	0xbe02825a	-0.12745038
37	0xbeb3272f	-0.34990832
38	0x3dec148e	0.11527358
39	0x3ea052cc	0.3131317
40	0x3e6fa941	0.23404409
41	0x3e829705	0.25505844
42	0x3bf0bdc3	0.00734684
43	0xbdb701aa	-0.08935864
44	0x3e31ba53	0.17356233
45	0xbe9a9dec	-0.3019861
46	0x3e534d54	0.20634967
47	0x3cc600d7	0.024170322
48	0x3e7270e1	0.23675872
49	0x3d6e924e	0.058244996
50	0x3e834c92	0.25644356
51	0xbccb9209	-0.024849908
52	0x3e9e42d3	0.30910358
53	0xbcc99a86	-0.024609815
54	0x3e6a25e7	0.22866021
55	0xbdb95142	-0.09048702
56	0xbeace393	-0.33767375
57	0x3d9a1ad8	0.07524651
58	0xbe28af03	-0.16473012
59	0x3d9bdd1c	0.07610533
60	0x3e5b0246	0.21387586
61	0x3dd4146c	0.10355458
62	0xbe32e86a	-0.17471471
63	0xbd360b64	-0.044444457
64	0x3e2273c4	0.15864474
65	0xbc0634b7	-0.008191279
66	0x3e01682b	0.12637393
67	0x3dc1e509	0.09467513
68	0x3ea60102	0.32422644
69	0x3e325485	0.17415054
70	0xbeedcdcb	-0.4644607
71	0x3e67b88d	0.22628994
72	0xbe16016c	-0.1464898
73	0x3e1017b7	0.14071546
74	0xbe29e357	-0.1659063
75	0x3df11216	0.11771028
76	0x3e32d842	0.17465308
77	0x3e8545b3	0.2602974
78	0x3e91c141	0.28467754
79	0xbeb5766e	-0.35441917
80	0xbe37f9d9	-0.17966403
81	0xbdeda629	-0.11603958
82	0x3e4d1575	0.20027716
83	0xbe757917	-0.23971973
84	0x3debcc2d	0.11513553
85	0x3dfcc8e4	0.12343004
86	0x3db30ca2	0.08742644
87	0xbe6fba37	-0.23410879
88	0x3e60fd22	0.21971563
89	0xbea788c9	-0.32721546
90	0x3c089503	0.008336308
91	0xbea995c1	-0.33122066
92	0xbde55836	-0.111984655
93	0xbd87a1e3	-0.06622674
94	0xbe568bca	-0.20951763
95	0xbe3fbc9e	-0.18724295
96	0x3c894332	0.016755674
97	0x3e07cbf0	0.1326139
98	0xbef7550a	-0.48307067
99	0xbe819086	-0.25305575
100	0xbe7b1f3c	-0.24523634
101	0x3e5d23ca	0.21595684
102	0x3ed3a9cd	0.41340485
103	0xbd5e16be	-0.054220907
104	0x3e9c4912	0.30524498
105	0x3e7483bf	0.23878382
106	0x3eae8608	0.34086633
107	0x3d645903	0.05574895
108	0xbde19bd8	-0.11016053
109	0x3d47f5d4	0.048818424
110	0xbddafdbc	-0.10692927
111	0x3df7aeec	0.120939106
112	0xbeccfae6	-0.4003517
113	0xbe4e6634	-0.20156175
114	0xbdbcfef9	-0.0922832
115	0x3e5058d2	0.20346382
116	0xbe82ed74	-0.25571787
117	0xbe1ed275	-0.1550997
118	0xbe8ab903	-0.27094278
119	0x3e1bbdc4	0.15209109
120	0x3e8e12ac	0.2774862
121	0xbd80365c	-0.06260368
122	0x3dbb1dba	0.09136529
123	0xbe82b774	-0.2553059
124	0xbeaa48b8	-0.33258605
125	0xbe29a20c	-0.16565722
126	0x3cb4e6b9	0.022082673
127	0x3e05e8bc	0.13077062
128	0xbe28cd21	-0.164845
129	0xbcd837da	-0.02639382
130	0x3e011930	0.12607265
131	0x3dae2507	0.08503156
132	0xbdecd259	-0.11563558
133	0x3e50c9db	0.20389502
134	0xbd92b01c	-0.071624964
135	0x3d0df76c	0.034659788
136	0xbdbd0b89	-0.09230716
137	0xbde2393c	-0.11046073
138	0xbd4c1261	-0.049822215
139	0xbe7c4e8c	-0.24639338
140	0xba1e5159	-0.00060393434
141	0x3eb5ea2a	0.35530216
142	0xbd723ff7	-0.059143033
143	0xbe89c37d	-0.26906958
144	0x3e8fe521	0.281045
145	0xba81a8b4	-0.0009892196
146	0xbe737b55	-0.23777516
147	0xbea87fec	-0.32910097
148	0xbe106eae	-0.14104721
149	0x3e371e0e	0.17882559
150	0xbe3c6151	-0.18396498
151	0x3e835251	0.2564874
152	0xbdffabd3	-0.12483945
153	0xbdc738f8	-0.09727663
154	0x3e946388	0.28982186
155	0xbe24e4c9	-0.161029
156	0x3e275a49	0.16343035
157	0x3c673dde	0.014113871
158	0x3e4f9985	0.20273407
159	0x3dc0076b	0.09376415
160	0x3dc7baeb	0.09752449
161	0xbe68bdd8	-0.2272867
162	0xbe444179	-0.19165601
163	0xbebf17dc	-0.3732289
164	0xbdaaf518	-0.08347529
165	0x3e91ed04	0.2850114
166	0x3e251c44	0.16124064
167	0xbe3b89be	-0.18314263
168	0x3db96bac	0.0905374
169	0xbe7ae006	-0.2449952
170	0x3e327878	0.17428768
171	0xbe3a1564	-0.18172222
172	0xbc132054	-0.008979876
173	0x3ec9cdf2	0.39414936
174	0x3d816a0d	0.06319056
175	0xbe9d80e8	-0.3076241
176	0xbe9d3e9e	-0.30711836
177	0xbe4f7786	-0.20260438
178	0xbea9d5b6	-0.3317086
179	0xbe7a3f30	-0.24438167
180	0x3d8e74ba	0.069558576
181	0xbe0e8388	-0.13917363
182	0xbea2667a	-0.31718808
183	0xbd9ad653	-0.0756041
184	0x3d68d4a2	0.056843407
185	0xbec54c10	-0.38534594
186	0x3e198479	0.1499194
187	0x3d7d90e3	0.061905753
188	0xbeb1a015	-0.34692445
189	0x3e00cbc4	0.1257773
190	0x3d84ebab	0.064902626
191	0x3e1421b8	0.14465988
192	0x3e066a23	0.13126425
193	0x3dfea9bf	0.1243472
194	0xbe5c4cad	-0.21513624
195	0xbe118279	-0.14209928
196	0xbdc64529	-0.0968116
197	0x3ededec5	0.43529335
198	0x3e19fddd	0.15038247
199	0x3e6ed109	0.23321928
200	0x3eb304a4	0.34964478
201	0x3dcb7d92	0.0993606
202	0x3ed4ac2a	0.415376
203	0xbe05b132	-0.13055876
204	0xbe32efd4	-0.174743
205	0x3e16faea	0.14744154
206	0x3d598f33	0.05311508
207	0x3e5d7ea5	0.21630342
208	0x3e888195	0.26661363
209	0x3ebb4517	0.3657615
210	0x3cd0d400	0.025491714
211	0xbcbfa080	-0.023391962
212	0x3df08a4b	0.11745127
213	0x3c043423	0.008069071
214	0xbe0d0e59	-0.13775004
215	0xbeb0b20f	-0.34510848
216	0xbe5e9d47	-0.21739684
217	0xbb123a1c	-0.0022312468
218	0x3e6cb545	0.23116024
219	0x3d9b2c5d	0.07576821
220	0x3eabd160	0.33558178
221	0xbe1a55ac	-0.15071744
222	0xbe6d2ffc	-0.23162836
223	0x3eac51ea	0.33656245
224	0x3e1dd6f9	0.15414037
225	0x3ea9e70f	0.33184096
226	0xbbdcc3c0	-0.0067372024
227	0x3e4d81db	0.20069067
228	0x3e27ab50	0.16373944
229	0x3e76a23a	0.24085322
230	0x3dde4287	0.10852533
231	0x3e86e35e	0.26345342
232	0x3ea9752e	0.33097214
233	0x3e9e6bc3	0.3094159
234	0x3e59fca5	0.21287782
235	0x3e31deb8	0.17370117
236	0xbd765d96	-0.060147844
237	0x3e8a5284	0.2701608
238	0x3cb00479	0.021486508
239	0x3e4b4089	0.19848837
240	0xbe80d0da	-0.2515934
241	0xbe371a6e	-0.17881176
242	0x3df4c431	0.11951483
243	0x3dbeec83	0.09322455
244	0xbe2d14ca	-0.16902462
245	0xbd1a1dcc	-0.037626073
246	0xbe36ed54	-0.17863971
247	0xbeaa868e	-0.33305782
248	0xbe4685f5	-0.19387038
249	0xbc50b324	-0.012738023
250	0xbce6464b	-0.02810969
251	0xbeb17acf	-0.34664008
252	0xbeb1c50a	-0.3472064
253	0x3ddb2c37	0.10701793
254	0xbebd9af7	-0.3703229
255	0xbe511e1d	-0.20421644
