ShadowWeave/Feature Encoding/ShadowWeave(50d).pth (torch, 26721 bytes, 12 tensors)

node_type_embedding.weight f4 [11, 128]
-0.32641265 2.1684972e-17 7.807112e-13 -1.9978518e-07 5.5419227e-06 1.2763858 4.82374e-15 -0.49664834
0.4082067 5.6421107e-11 2.0270598e-08 -0.19729927 -1.4519159e-17 0.29876798 0.6494721 -0.82228905
0.41095814 0.040835023 0.07667498 0.009298474 -6.175203e-18 -0.31122375 0.0596617 -1.3426176e-05
0.24648924 0.060247224 -1.018358 -0.2941652 0.14364871 -3.030013e-12 0.29600215 -0.15119179
0.24097483 -0.00042817963 -1.5873904e-16 -1.58967 0.01000828 1.356952e-13 -0.11390975 0.008862453
-1.0192753 0.00018845049 -0.10178716 -7.891457e-13 -0.82197696 -0.072066404 -0.007032329 1.0005425
3.3588572e-17 2.070589e-07 0.84121805 -1.447793e-16 4.0238892e-17 0.02613743 0.00028932627 0.56044924
-0.0045700213 -0.5864959 -0.0011203631 0.059041936 2.5243686e-05 0.08562286 0.17907873 0.018571956
0.33811125 1.9620931 0.28201768 -0.14651413 0.37578395 -0.39157254 -1.5201309 0.26573938
0.7496113 -1.3848585 -0.9699013 0.76700807 0.34201148 -7.057195e-18 0.29911464 0.07572268
-0.24782757 -0.01560277 6.8546135e-17 1.1617229 1.1104857e-08 1.3675503 0.2227286 1.4026596e-05
-0.00011736567 -0.0005369607 -0.058863148 -0.0010971328 -0.48389778 0.023384731 1.3738968e-17 -1.8520957
-0.5011308 0.24977009 0.003090848 -3.3906742e-14 0.4644817 -0.29679734 0.40860432 -9.396696e-06
0.1794171 -0.13592698 0.031572714 -8.2795105e-18 0.32622582 -0.098045625 -1.1452746 -3.461208e-11
-0.7040643 -0.493766 0.76986235 0.123728916 -0.022826562 -0.5055718 0.51652366 0.16494882
-0.73050046 -0.32523277 -0.11539657 1.337584 -1.0999906 0.13486022 8.1358944e-17 -0.0007590876
-1.6753042 1.0778033 1.1817302 1.1049798 -0.39553952 -0.1413646 0.3400335 0.89671874
0.048542466 -0.6921364 0.14419793 -0.15906815 -1.0212891 0.13302559 1.8792044 -1.0938989
-0.30324778 0.36856407 -0.4021321 -0.34450698 -1.2414684 -0.56275576 -0.31466144 -0.652186
0.26379532 -0.5133314 1.1312064 0.536464 -0.16529672 -0.36486194 0.6492688 0.49274957
0.23838572 0.9710985 -0.58560544 2.0307853 0.18525174 -1.3653018 -0.7252062 1.0165063
-0.97682726 -2.8793068 0.6874935 -0.8441067 0.5269552 -0.6928086 -1.0367882 -0.713423
1.4333345 2.1037574 -0.53252566 -0.79069763 -0.40101692 -0.22522402 -1.4866656 -1.1746527
-1.8611003 -0.45687202 0.51509 -0.30796313 -0.5834288 -1.4222118 0.762125 2.2102437
-1.1404375 1.0653605 -1.693149 1.1666708 1.5650942 0.35368285 -1.9033288 1.6996406
-1.3696952 0.97866786 0.31986114 0.30097923 -0.68280727 -1.6228948 -1.4533191 0.07911954
0.32295367 -0.7357486 0.5732539 1.0200684 1.309316 -0.45466432 1.3921336 -1.2770954
-0.008929301 -0.54657185 -1.8029995 -1.4879918 -0.5954339 0.55283695 0.43585047 -1.1567492
-1.9403939 1.123126 0.116968215 -0.10513116 -0.09397829 0.28807938 0.87484294 -0.2199887
-0.87843645 0.94569045 0.94683194 1.4997371 0.63606846 1.9977716 -0.8350327 -1.4522365
-0.9006507 -0.75811493 0.5353174 1.1635705 -1.2640197 1.3310279 1.8588653 -0.9039227
-0.82774943 0.476286 1.007382 0.70340127 0.90757936 -0.56702244 -1.1362747 -1.9671965
00000000: 8f1f a7be 3102 c823 2cc0 5b2b 8884 56b4
00000010: c1f4 b936 9c60 a33f 26cb ad27 b148 febe
00000020: 7800 d13e 8524 782e 841f ae32 d208 4abe
00000030: 65ea 85a3 1ef8 983e ce43 263f 8981 52bf
00000040: 1b69 d23e a042 273d c607 9d3d a058 183c
00000050: 25d3 e3a2 b858 9fbe d45f 743d fd40 61b7
00000060: ad67 7c3e cbc5 763d 8e59 82bf d29c 96be
00000070: a618 133e dd37 55ac 988d 973e 05d2 1abe
00000080: 1bc2 763e 4c7d e0b9 7f03 37a5 4e7a cbbf
00000090: c5f9 233c 7bc7 182a 8449 e9bd d233 113c
000000a0: 9d77 82bf cb9a 4539 c975 d0bd f11f 5eab
000000b0: 156d 52bf 8d97 93bd 746f e6bb c711 803f
000000c0: 63e6 1a24 eb53 5e34 115a 573f 4feb 26a5
000000d0: b391 3924 2a1e d63c b7b0 9739 9a79 0f3f
000000e0: 1ec0 95bb 9824 16bf 26d9 92ba f5d5 713d
000000f0: 67c2 d337 0a5b af3d 6a60 373e 3724 983c
00000100: eb1c ad3e de25 fb3f 9f64 903e cd07 16be
00000110: c166 c03e 327c c8be a693 c2bf fe0e 883e
00000120: 87e6 3f3f 0b43 b1bf 744b 78bf a45a 443f
00000130: 211c af3e a92e 02a3 8e25 993e 7e14 9b3d
00000140: 83c6 7dbe c3a2 7fbc 7f0e 9e24 56b3 943f
00000150: adc7 3e32 e30b af3f f712 643e c553 6b37
00000160: 3722 f6b8 d3c2 0cba 7c1a 71bd abcd 8fba
00000170: 73c1 f7be 5691 bf3c 7170 7d23 7911 edbf
00000180: 1c4a 00bf bbc3 7f3e d38f 4a3b d0b3 18a9
00000190: 8cd0 ed3e d2f5 97be 9634 d13e 81a6 1db7
000001a0: 1eb9 373e 7130 0bbe 6452 013d e2ba 18a3
000001b0: 1207 a73e 25cc c8bd 5c98 92bf bd39 18ae
000001c0: 8f3d 34bf e6ce fcbe b315 453f 9665 fd3d
000001d0: c5fe babc 276d 01bf e53a 043f 58e8 283e
000001e0: 1402 3bbf e984 a6be 0955 ecbd f435 ab3f
000001f0: 7ecc 8cbf cc18 0a3e d899 bb24 82fd 46ba
00000200: 5e70 d6bf 75f5 893f ef42 973f fa6f 8d3f
00000210: 2884 cabe e2c1 10be df18 ae3e 5c8f 653f
00000220: 77d4 463d da2f 31bf 9fa8 133e c3e2 22be
00000230: 9ab9 82bf dc37 083e c589 f03f e104 8cbf
00000240: 4b43 9bbe 6eb4 bc3e 42e4 cdbe 3863 b0be
00000250: 70e8 9ebf c310 10bf 4e1b a1be a9f5 26bf
00000260: 2e10 873e b069 03bf 5fcb 903f b455 093f
00000270: 8b43 29be 2fcf babe 7b36 263f ac49 fc3e
00000280: 631b 743e e999 783f 3dea 15bf 63f8 0140
00000290: a2b2 3d3e 36c2 aebf 1da7 39bf e11c 823f
000002a0: 5a11 7abf 9046 38c0 93ff 2f3f 6017 58bf
000002b0: 89e6 063f e85b 31bf 7ab5 84bf e4a2 36bf
000002c0: 8177 b73f f6a3 0640 9a53 08bf 296b 4abf
000002d0: 1752 cdbe 20a1 66be 0f4b bebf 055b 96bf
000002e0: 8938 eebf 21eb e9be f0dc 033f 58ad 9dbe
000002f0: 975b 15bf 090b b6bf a01a 433f a274 0d40
00000300: dbf9 91bf bc5d 883f 1bb9 d8bf 7855 953f
00000310: 0255 c83f eb15 b53e 47a0 f3bf d38d d93f
00000320: 2c52 afbf fa89 7a3f d7c4 a33e f319 9a3e
00000330: 75cc 2ebf 04bb cfbf 5c06 babf 6d09 a23d
00000340: 2f5a a53e 055a 3cbf c5c0 123f 9a91 823f
00000350: ab97 a73f c3c9 e8be 6f31 b23f dd77 a3bf
00000360: 344c 12bc 22ec 0bbf b0c8 e6bf 8476 bebf
00000370: 5b6e 18bf b986 0d3f cb27 df3e 5c10 94bf
00000380: d45e f8bf 98c2 8f3f 088d ef3d 014f d7bd
00000390: b177 c0bd 247f 933e b5f5 5f3f b844 61be
000003a0: 36e1 60bf c518 723f 9463 723f 63f7 bf3f
000003b0: 62d5 223f fbb6 ff3f b4c4 55bf e3e2 b9bf
000003c0: 0b91 66bf d213 42bf 900a 093f e1ef 943f
000003d0: 66cb a1bf 1f5f aa3f 4cef ed3f 7a67 67bf
000003e0: 63e7 53bf c2db f33e e5f1 803f 1b12 343f
000003f0: 1f57 683f 6228 11bf 7371 91bf 18cd fbbf

conv1.convs.<node___to___node>.lin_l.weight f4 [8, 210]
-0.012624766 -0.03270342 -0.06511768 0.040176626 -0.03398523 -0.019233793 -0.01845017 0.08310932
0.021041496 0.020790145 0.032337513 0.03105841 -0.0646177 0.031648647 -0.0366172 0.06308033
-0.0064914394 0.065772705 -0.07103503 -0.06761475 0.044469427 -0.0005118594 0.05250447 -0.028740507
-0.08112842 0.056726903 -0.06984133 -0.0374285 0.0027660255 0.05447049 0.010395004 0.053172443
0.15883985 0.0997429 0.17384055 -0.10969355 0.1014675 -0.102555715 0.0053409263 -0.067884065
-0.22708641 0.022213012 -0.22100863 -0.16103765 -0.09879132 0.09829011 0.072274506 0.16677015
0.2794579 -0.21016884 -0.10297633 -0.1886444 0.015210391 0.054507744 0.016956778 -0.03969017
0.04285004 -0.038538862 -0.097020715 -0.017511843 0.18609335 -0.092161104 0.027923806 0.14033368
-0.08481024 0.0019896731 0.13086218 -0.12278836 -0.009675535 0.10742767 0.06242012 0.101421796
-0.19593135 0.12506174 0.2683786 0.2171392 0.14944215 0.11997554 0.0792577 -0.14027126
-0.21008731 -0.27211657 -0.02061321 -0.05847626 -0.113516614 -0.06729019 0.03805543 0.10447755
0.1596041 0.11970227 -0.040281326 0.13434437 -0.29098332 0.06276065 0.13138789 -0.12608528
0.106301814 0.17915785 0.071873635 0.013761069 -0.024635954 0.20153731 -0.15621445 -0.15081617
0.050237495 -0.044827014 -0.13020249 -0.057784423 -0.16210775 0.05932638 0.10294559 0.114065215
-0.07459328 0.021075405 0.14820124 0.060608234 -0.0415721 -0.030784098 0.0063976184 0.08469634
0.05233452 -0.13822027 0.16163032 -0.041419297 -0.14987274 -0.1439622 0.07104217 -0.11317777
0.010620499 -0.06625243 -0.11275952 -0.091636054 0.029182665 -0.001869952 -0.11462717 -0.11906881
0.05211112 0.016477294 -0.0036222416 -0.05725666 -0.17198732 0.14257962 0.0057583223 0.11680517
0.1343654 0.051659018 0.0913866 -0.098446004 0.06492257 -0.031775765 0.13744485 0.03681428
-0.055325963 -0.09309414 0.0243518 0.07700331 -0.19349223 0.068718374 -0.059313715 -0.088187374
0.10918409 -0.10259909 -0.11634174 -0.09154563 -0.04645212 0.015829358 0.1609591 0.049235344
0.108640805 -0.0010165529 -0.14254262 -0.1241621 -0.08091005 -0.05075209 -0.01883896 0.116692595
0.19027263 0.04247137 0.058687225 -0.03500534 -0.10971256 -0.11091454 0.15979002 -0.12958948
-0.032591134 -0.032383226 -0.1532495 0.14034328 -0.24962199 -0.12925076 0.1656252 -0.01525513
0.12047264 -0.0369519 0.016264785 0.013509193 0.016471773 0.050147943 -0.01026164 -0.044718355
0.008926968 0.061971746 -0.18470372 -0.21858929 -0.06078419 -0.0813939 -0.018631622 -0.13501503
0.07055474 0.11379589 -0.016139908 0.0026866149 0.053576868 -0.08304226 -0.105455264 0.055531982
0.051753357 -0.060589775 -0.026043834 -0.1331084 0.05352387 -0.15327945 0.05952469 -0.019404013
-0.047197443 -0.043992825 0.018851094 -0.07023677 0.10741673 -0.078695945 0.05508237 -0.117119014
-0.007161015 -0.0800379 -0.035005163 -0.03924892 -0.082617775 0.05201616 -0.004949796 -0.05511271
0.022486048 -0.0015320984 0.10314305 -0.06408738 0.1438924 -0.16247441 0.045136932 0.020749768
-0.1463029 -0.05714158 -0.13908708 -0.012552646 -0.04447254 -0.10765372 -0.05073132 -0.094633125
00000000: 1bd8 4ebc 05f4 05bd 6b5c 85bd 3f90 243d
00000010: 1934 0bbd 3090 9dbc d024 97bc 3835 aa3d
00000020: 375f ac3c 1850 aa3c 5774 043d 356e fe3c
00000030: 4956 84bd 03a2 013d ebfb 15bd 4330 813d
00000040: 24b6 d4bb d7b3 863d d07a 91bd 9a79 8abd
00000050: 9325 363d 4e2e 06ba ed0e 573d 3671 ebbc
00000060: a826 a6bd 785a 683d f908 8fbd a04e 19bd
00000070: 3546 353b 731c 5f3d cf4f 2a3c 59cb 593d
00000080: eaa6 223e 0146 cc3d 4203 323e 03a7 e0bd
00000090: 31ce cf3d bb08 d2bd f002 af3b cd06 8bbd
000000a0: 5789 68be 10f8 b53c 1650 62be 0ee7 24be
000000b0: 1b53 cabd 534c c93d a804 943d cbc5 2a3e
000000c0: 1b15 8f3e 8036 57be 41e5 d2bd ff2b 41be
000000d0: 0135 793c 8343 5f3d f1e8 8a3c 2992 22bd
000000e0: 8683 2f3d edda 1dbd ccb2 c6bd ff74 8fbc
000000f0: 418f 3e3e f6be bcbd 77c0 e43c a2b3 0f3e
00000100: feb0 adbd 2d65 023b bc00 063e 7778 fbbd
00000110: 2386 1ebc 0a03 dc3d 3dac 7f3d 3bb6 cf3d
00000120: 3aa2 48be 2f10 003e eb68 893e bd59 5e3e
00000130: 5d07 193e bcb5 f53d dc51 a23d 45a3 0fbe
00000140: 2121 57be dd52 8bbe 09dd a8bc ce84 6fbd
00000150: 667b e8bd 70cf 89bd 03e0 1b3d 53f8 d53d
00000160: 426f 233e 7726 f53d 08fe 24bd 9291 093e
00000170: c4fb 94be a888 803d 8c8a 063e 801c 01be
00000180: c4b4 d93d 2875 373e 7c32 933d 1b76 613c
00000190: 57d1 c9bc cc5f 4e3e aef6 1fbe 8e6f 1abe
000001a0: d5c5 4d3d 889c 37bd cd53 05be 5caf 6cbd
000001b0: 93ff 25be 3800 733d 23d5 d23d 069b e93d
000001c0: 5dc4 98bd 54a6 ac3c 11c2 173e 5740 783d
000001d0: 8247 2abd ef2e fcbc 1da3 d13b 4675 ad3d
000001e0: b95c 563d 9d89 0dbe 6b82 253e 48a7 29bd
000001f0: 3d78 19be d46a 13be 8f7e 913d bfc9 e7bd
00000200: 9a01 2e3c 5baf 87bd 77ee e6bd afab bbbd
00000210: 7c10 ef3c 2d19 f5ba a6c1 eabd 59da f3bd
00000220: 7872 553d 64fb 863c 2163 6dbb f685 6abd
00000230: 721d 30be 6400 123e 4fb0 bc3b 8d37 ef3d
00000240: 1597 093e 6898 533d e628 bb3d 0f9e c9bd
00000250: 20f6 843d 4e27 02bd 58be 0c3e 92ca 163d
00000260: 7a9d 62bd 24a8 bebd 6d7d c73c e9b3 9d3d
00000270: d422 46be 38bc 8c3d f0f2 72bd 959b b4bd
00000280: e89b df3d 791f d2bd 9444 eebd 467c bbbd
00000290: 9444 3ebd 92ac 813c 76d2 243e 00ab 493d
000002a0: 127f de3d db3d 85ba b1f6 11be b348 febd
000002b0: 2bb4 a5bd 6ce1 4fbd 2a54 9abc 87fc ee3d
000002c0: d4d6 423e 76f6 2d3d 0462 703d c261 0fbd
000002d0: fbb0 e0bd 2a27 e3bd ff9f 233e 1bb3 04be
000002e0: 487e 05bd 46a4 04bd 70ed 1cbe 26b6 0f3e
000002f0: e89c 7fbe 505a 04be a799 293e a7f0 79bc
00000300: 5cba f63d e05a 17bd ba3d 853c aa55 5d3c
00000310: d0ef 863c ee67 4d3d 7020 28bc 982a 37bd
00000320: 6b42 123c 16d6 7d3d f922 3dbe dfd5 5fbe
00000330: d8f8 78bd d8b1 a6bd 58a1 98bc 6141 0abe
00000340: 017f 903d d20d e93d d737 84bc eb11 303b
00000350: 6b73 5b3d 0f12 aabd eef8 d7bd 8175 633d
00000360: 54fb 533d fc2c 78bd e159 d5bc 924d 08be
00000370: d83b 5b3d 4af5 1cbe 29d0 733d 2af5 9ebc
00000380: 1b52 41bd d231 34bd 9c6d 9a3c 4cd8 8fbd
00000390: 4dfd db3d 572b a1bd 0d9e 613d 18dc efbd
000003a0: f3a6 eabb e9ea a3bd 9361 0fbd 7ac3 20bd
000003b0: 8233 a9bd e60e 553d e631 a2bb ddbd 61bd
000003c0: a934 b83c b1d0 c8ba aa3c d33d 3f40 83bd
000003d0: 8858 133e b15f 26be 81e1 383d 6bfb a93c
000003e0: 6dd0 15be 4a0d 6abd d86c 0ebe 9da9 4dbc
000003f0: d728 36bd 8e79 dcbd a5cb 4fbd 03cf c1bd

conv1.convs.<node___to___node>.lin_l.bias f4 [8]
0.063914165 0.1349209 0.011983455 0.05339195 0.07027369 0.10567505 0.11376349 0.16481377
00000000: 6ee5 823d b428 0a3e 4156 443c 84b1 5a3d
00000010: a7eb 8f3d 296c d83d d5fc e83d f1c4 283e

conv1.convs.<node___to___node>.lin_r.weight f4 [8, 210]
-0.027999075 -0.03314205 -0.024976503 0.0025553564 0.11532695 0.027061103 -0.028608363 -0.06397758
0.06240325 0.05507302 -0.004750543 -0.15890284 -0.018747933 0.106356256 0.060550738 -0.025295211
-0.074625365 -0.07728384 0.0049172374 0.10332588 -0.035557624 -0.09583009 0.06802832 0.09421271
0.06871198 -0.046112232 -0.016108857 -0.034487482 0.027578963 0.05438071 0.06745655 -0.09091995
0.17281935 0.11437528 -0.1657093 0.2215279 0.07396601 0.09590264 -0.054643344 -0.06854884
0.05127264 0.03232149 0.018553413 0.057316374 -0.1070945 -0.10997633 0.03301574 0.010227921
0.07868613 -0.10348141 -0.1458254 -0.16765715 0.09821319 0.17106952 0.15345329 -0.10425239
-0.055848632 -0.06597582 0.04646864 -0.077259585 0.0020865542 -0.09759786 0.054455645 0.07118798
-0.15438625 -0.15799145 0.13153426 0.07034603 0.06214936 0.10342767 0.082686074 -0.1471863
-0.14086635 0.1348534 0.1533745 0.10905885 -0.12914012 0.045140613 -0.03223052 0.06477173
-0.07074447 -0.017735712 -0.23055705 -0.07966546 -0.0932195 0.22650832 0.060508493 -0.120864026
-0.098099045 0.04044477 0.1858836 -0.089343466 0.22390035 0.00043555401 0.100299805 0.014075208
-0.19866107 0.04607069 0.040970106 -0.14272496 0.16058935 -0.17171593 -0.010057209 0.17719404
0.14423198 0.095659345 -0.0047522457 0.18145818 -0.19525406 0.15956007 0.06325683 -0.13203475
-0.062276978 -0.031634826 -0.183424 -0.024106577 -0.17438519 -0.01579219 0.15125947 -0.063104324
-0.10339595 -0.11749983 0.067974 0.038405918 0.13181226 -0.07873166 -0.1554382 -0.11033825
0.2053424 -0.08376188 0.15501127 -0.15178248 0.06156641 0.09842916 -0.116040625 0.08371034
0.039411373 -0.14998741 0.18773484 -0.031821433 0.16708842 -0.0678079 -0.12520805 0.07241957
-0.06818857 0.15954667 -0.12438175 -0.058308836 0.0409805 0.16512857 0.07138538 0.09979496
-0.03444919 -0.0815685 0.12367771 -0.06159292 -0.058434688 0.06799365 -0.0026469545 -0.07482335
0.12305355 0.081977546 -0.092431605 0.16021343 -0.08466777 -0.07316206 0.005443725 -0.10194162
-0.17269003 0.11751184 0.12242343 -0.04136528 0.011082597 0.13657366 0.29611248 -0.15731254
0.10991209 -0.051703542 -0.098193854 0.23797964 -0.10831427 -0.09726601 0.13082798 -0.15873794
0.13815105 0.15646543 -0.12465368 0.14553197 -0.104490176 -0.12806375 -0.010897505 -0.12885745
0.10380688 -0.15236677 -0.19548748 0.14751053 -0.03942937 -0.02920643 -0.08425356 0.0834216
-0.2331957 0.101133294 -0.015232102 -0.02901513 0.07641225 0.13902722 -0.20682663 0.0693097
-0.03213995 -0.13015111 -0.025597567 0.005877022 -0.06218054 -0.028533705 0.0017413455 -0.051882412
-0.0070745456 -0.010196881 0.060777303 0.012400023 0.03701506 -0.04099607 -9.397847e-06 0.029424377
0.049479578 0.063394435 0.041923627 -0.016945593 -0.017814226 -0.0148436325 0.013231159 -0.12983091
0.034954537 0.067736916 0.025041498 -0.0025264232 0.04258157 -0.09092668 -0.000214132 -0.021628372
0.11180225 -0.045616392 -0.10157376 0.26083457 0.18346973 0.24546327 -0.09292677 -0.14970002
0.23724236 0.05713896 0.057897706 0.17415544 -0.22672087 -0.20868047 0.1115598 0.12494349
00000000: 515e e5bc f5bf 07bd 869b ccbc c477 273b
00000010: 8930 ec3d 3faf dd3c 165c eabc ad06 83bd
00000020: 8d9a 7f3d 3f94 613d 71aa 9bbb 6db7 22be
00000030: 4495 99bc 4fd1 d93d 0d04 783d e737 cfbc
00000040: 2fd5 98bd fd46 9ebd c720 a13b 859c d33d
00000050: dfa4 11bd 9142 c4bd 6f52 8b3d 98f2 c03d
00000060: deb8 8c3d 2ee0 3cbd b9f6 83bc bf42 0dbd
00000070: 47ed e13c 4fbe 5e3d a926 8a3d 3d34 babd
00000080: 8ef7 303e 963d ea3d b3af 29be 36d8 623e
00000090: 7e7b 973d 9a68 c43d b3d1 5fbd 5663 8cbd
000000a0: 4203 523d 8a63 043d 54fd 973c 93c4 6a3d
000000b0: 5c54 dbbd 453b e1bd 833b 073d 0393 273c
000000c0: 3226 a13d 10ee d3bd 4153 15be 51ae 2bbe
000000d0: ff23 c93d d92c 2f3e dc22 1d3e 4782 d5bd
000000e0: 89c1 64bd 551e 87bd e755 3e3d 463a 9ebd
000000f0: 92be 083b 63e1 c7bd e20c 5f3d 01cb 913d
00000100: 6e17 1ebe 83c8 21be ebb0 063e 9411 903d
00000110: 5490 7e3d e3d1 d33d 5157 a93d 01b8 16be
00000120: 453f 10be 0217 0a3e 340e 1d3e 3f5a df3d
00000130: 4f3d 04be 5de5 383d 2604 04bd 0aa7 843d
00000140: 7ae2 90bd 7c4a 91bc 2617 6cbe a527 a3bd
00000150: dde9 bebd ccf1 673e c1d7 773d 8f87 f7bd
00000160: 27e8 c8bd 6aa9 253d 4558 3e3e b5f9 b6bd
00000170: 2246 653e 125b e439 fc69 cd3d b49b 663c
00000180: cf6d 4bbe 9fb4 3c3d 45d0 273d 7e26 12be
00000190: 8971 243e 4dd6 2fbe fec6 24bc 5b72 353e
000001a0: 8cb1 133e 0ce9 c33d bab8 9bbb 2cd0 393e
000001b0: aef0 47be b763 233e cc8c 813d 1e34 07be
000001c0: 2516 7fbd 8593 01bd 80d3 3bbe 287b c5bc
000001d0: 0892 32be 9f5e 81bc c3e3 1a3e d73c 81bd
000001e0: 41c1 d3bd c0a3 f0bd f435 8b3d 864f 1d3d
000001f0: cbf9 063e 113e a1bd 312b 1fbe 05f9 e1bd
00000200: 4745 523e 598b abbd 46bb 1e3e de6c 1bbe
00000210: 0f2d 7c3d 3a95 c93d b5a6 edbd 5470 ab3d
00000220: d26d 213d 4d96 19be 903d 403e 3157 02bd
00000230: 3a19 2b3e dede 8abd 8a36 00be b650 943d
00000240: 73a6 8bbd 3460 233e dcbb febd 3fd5 6ebd
00000250: 2bdb 273d 7717 293e 8032 923d 4d61 cc3d
00000260: 981a 0dbd 630d a7bd bd4a fd3d dc48 7cbd
00000270: 3659 6fbd 4140 8b3d 8778 2dbb fc3c 99bd
00000280: 8003 fc3d d8e3 a73d c84c bdbd fd0e 243e
00000290: 4c66 adbd fdd5 95bd 4661 b23b c5c6 d0bd
000002a0: a8d5 30be 0caa f03d 23b9 fa3d a46e 29bd
000002b0: c893 353c f7d9 0b3e 0e9c 973e 8a16 21be
000002c0: 9719 e13d 18c7 53bd dc19 c9bd efb0 733e
000002d0: dfd3 ddbd 6733 c7bd c5f7 053e 338c 22be
000002e0: 7877 0d3e 7938 203e 6e4a ffbd 5506 153e
000002f0: f2fe d5bd 2523 03be 738b 32bc 35f3 03be
00000300: b498 d43d 0906 1cbe df2d 48be 000d 173e
00000310: b180 21bd 5342 efbc 218d acbd f2d8 aa3d
00000320: dbca 6ebe f91e cf3d 1190 79bc 23b1 edbc
00000330: 077e 9c3d 275d 0e3e 5cca 53be 3ef2 8d3d
00000340: 2ea5 03bd 5546 05be fdb1 d1bc 0994 c03b
00000350: 06b1 7ebd 84bf e9bc dc3d e43a a782 54bd
00000360: 97d1 e7bb d210 27bc 9ff1 783d 7729 4b3c
00000370: 1b9d 173d 7feb 27bd 72ab 1db7 640b f13c
00000380: 19ab 4a3d f1d4 813d 1cb8 2b3d 7cd1 8abc
00000390: 24ef 91bc b532 73bc 81c7 583c 65f2 04be
000003a0: 7d2c 0f3d a7b9 8a3d d423 cd3c 5992 25bb
000003b0: 036a 2e3d c437 babd 9f88 60b9 fc2d b1bc
000003c0: 94f8 e43d 41d8 3abd e705 d0bd 1c8c 853e
000003d0: 7ddf 3b3e b95a 7b3e 6450 bebd f64a 19be
000003e0: a9ef 723e 8b0a 6a3d 2526 6d3d ce55 323e
000003f0: 8429 68be 55b0 55be 7779 e43d 5fe2 ff3d

conv2.convs.<node___to___node>.lin_l.weight f4 [8, 8]
0.13589437 0.15871051 -0.10403761 0.080377884 -0.24374767 0.11836796 0.11061995 -0.16576953
0.10590576 0.3862193 0.23678309 0.2225759 -0.033105757 0.08955545 0.029021086 -0.08877315
-0.11349084 -0.32404748 -0.05508847 0.012528145 -0.28360015 -0.08848224 -0.4392307 -0.17683706
0.21275365 0.18877357 -0.14441973 -0.1764057 -0.45196584 -0.03295182 -0.059235837 -0.29234228
0.16769223 0.0713609 0.3449067 0.09126684 -0.039677747 0.16516672 0.17912982 -0.10413732
-0.23854156 0.31434548 -0.16404329 -0.2599331 -0.051942017 0.22910812 -0.324454 0.20376594
0.24540342 0.34874472 0.21521941 -0.089627974 -0.22730403 0.023193814 -0.22191115 0.28609583
-0.20773835 -0.47802982 0.09759537 0.13382004 -0.13683727 -0.44727707 -0.44726115 -0.31724092
00000000: e527 0b3e 0285 223e ac11 d5bd 299d a43d
00000010: fd98 79be e76a f23d b68c e23d 7dbf 29be
00000020: 1ee5 d83d 89be c53e 4477 723e f0ea 633e
00000030: e799 07bd d968 b73d a1bd ed3c b3ce b5bd
00000040: e36d e8bd 8de9 a5be 73a4 61bd d942 4d3c
00000050: 0a34 91be 2d36 b5bd d9e2 e0be c614 35be
00000060: 18dc 593e dc4d 413e c4e2 13be b2a3 34be
00000070: 1168 e7be 7df8 06bd 47a1 72bd e3ad 95be
00000080: 83b7 2b3e aa25 923d 9c97 b03e 1cea ba3d
00000090: 2285 22bd 7721 293e cf6d 373e f245 d5bd
000000a0: 3d44 74be e4f1 a03e f7fa 27be f415 85be
000000b0: 27c1 54bd 529b 6a3e d61e a6be 05a8 503e
000000c0: 094b 7b3e ab8e b23e 7a62 5c3e df8e b7bd
000000d0: 63c2 68be f400 be3c ad3c 63be 277b 923e
000000e0: 5db9 54be 53c0 f4be 15e0 c73d 1f08 093e
000000f0: 121f 0cbe 8001 e5be 6aff e4be 676d a2be

conv2.convs.<node___to___node>.lin_l.bias f4 [8]
0.18538876 0.2100422 0.05769797 0.5077018 0.22992429 0.19036958 0.24319601 -0.10731395
00000000: 8dd6 3d3e 4d15 573e b554 6c3d bff8 013f
00000010: 4671 6b3e 3ef0 423e 6008 793e 6bc7 dbbd

conv2.convs.<node___to___node>.lin_r.weight f4 [8, 8]
0.5552122 -0.36686042 -0.042641018 0.022893634 -0.5106183 0.23933063 -0.16313213 0.55415004
0.37265489 0.046816047 -0.4892921 -0.34961268 -0.05254799 0.46017298 -0.2507485 -0.0057103476
-0.23827183 0.4573756 -0.072733134 0.31653357 0.2662859 -0.30300447 0.48125622 0.31645492
-0.2617748 0.5362973 0.18241912 -0.42366478 -0.107564986 0.34167218 0.41495135 -0.57099736
-0.06439558 0.3342033 -0.33539137 -0.22546352 -0.030616542 0.52396595 -0.3712984 -0.24707502
0.1569462 -0.3488146 0.3789696 0.5163768 -0.34201807 0.0683742 -0.08892318 -0.023820592
-0.38293535 -0.30135253 -0.08567801 0.2696357 0.56792897 0.35478652 -0.08046816 0.37272128
-0.07253846 -0.33057305 0.50470746 0.25200155 -0.4653046 0.4374732 -0.27908763 -0.16472948
00000000: 6322 0e3f 21d5 bbbe 59a8 2ebd 6e8b bb3c
00000010: e2b7 02bf 1713 753e 1c0c 27be c7dc 0d3f
00000020: 9fcc be3e 2fc2 3f3d 7e84 fabe 6f00 b3be
00000030: 903c 57bd cb9b eb3e 1b62 80be de1d bbbb
00000040: 88fd 73be 222d ea3e 1cf5 94bd b010 a23e
00000050: a056 883e 6723 9bbe 3767 f63e 6106 a23e
00000060: 5907 86be c84a 093f 14cc 3a3e 97ea d8be
00000070: 084b dcbd a8ef ae3e 8174 d43e e22c 12bf
00000080: d4e1 83bd b21c ab3e 6bb8 abbe e9df 66be
00000090: 8bcf fabc a222 063f d31a bebe 3c01 7dbe
000000a0: 81b6 203e d497 b2be 4e08 c23e 4531 043f
000000b0: fe1c afbe c607 8c3d 5b1d b6bd 6723 c3bc
000000c0: 1a10 c4be e14a 9abe f477 afbd b10d 8a3e
000000d0: cb63 113f 94a6 b53e 7ecc a4bd 53d5 be3e
000000e0: 0b8f 94bd df40 a9be 8234 013f 5906 813e
000000f0: 683c eebe 7dfc df3e 93e4 8ebe d8ae 28be

conv3.convs.<node___to___node>.lin_l.weight f4 [8, 8]
0.34913582 0.51723003 -0.31345654 0.33228913 0.21496753 0.1139155 0.16565953 0.07717661
-0.6321194 0.12536773 0.32148805 0.3818674 0.20539522 -0.41481727 0.13074996 0.2568007
0.35469705 0.08960592 0.028102042 -0.39221475 -0.04350288 -0.58838964 -0.46361053 -0.11379367
0.13371345 -0.46106127 0.14016269 0.17594753 -0.10379977 0.3808239 0.4556193 0.12394342
-0.2806107 0.15687771 0.025197757 0.48151705 0.035941474 0.21568052 -0.19881414 0.55334806
-0.313526 -0.2305886 0.375856 -0.093068086 -0.20463508 -0.16264212 -0.27340695 -0.19682549
0.07714711 -0.17369497 0.34065866 -0.30520335 -0.22154012 0.076435566 0.10203251 -0.10530292
0.33837518 -0.031442717 -0.31162176 -0.10271593 0.2979562 -0.183812 -0.113767415 -0.34068862
00000000: eec1 b23e 3069 043f 607d a0be cd21 aa3e
00000010: 7320 5c3e 884c e93d a7a2 293e c50e 9e3d
00000020: 94d2 21bf 6660 003e 159a a43e 2084 c33e
00000030: 2053 523e ee62 d4be 51e3 053e 627b 833e
00000040: da9a b53e 4f83 b73d 4136 e63c 5fd0 c8be
00000050: 1330 32bd b4a0 16bf 5c5e edbe a80c e9bd
00000060: 2eec 083e 3910 ecbe cf86 0f3e 972b 343e
00000070: f994 d4bd 5afb c23e ef46 e93e 0cd6 fd3d
00000080: 35ac 8fbe 8da4 203e 876b ce3c 6789 f63e
00000090: 5e37 133d 5bdb 5c3e ef95 4bbe 38a8 0d3f
000000a0: 7b86 a0be 6b1f 6cbe 3370 c03e 7b9a bebd
000000b0: dc8b 51be a88b 26be fffb 8bbe 9f8c 49be
000000c0: 4eff 9d3d 18dd 31be d06a ae3e 9d43 9cbe
000000d0: 6adb 62be 408a 9c3d 6cf6 d03d 0fa9 d7bd
000000e0: 833f ad3e 14ca 00bd e38c 9fbe bb5c d2bd
000000f0: b78d 983e 3739 3cbe e4fe e8bd bd6e aebe

conv3.convs.<node___to___node>.lin_l.bias f4 [8]
0.07802274 0.33991915 -0.15474044 0.28719208 0.31502318 -0.2089079 -0.16468519 0.1894202
00000000: 63ca 9f3d e209 ae3e 4774 1ebe d70a 933e
00000010: b84a a13e f4eb 55be 3ca3 28be 5ef7 413e

conv3.convs.<node___to___node>.lin_r.weight f4 [8, 8]
0.07155502 -0.4577514 0.15379523 0.21412435 -0.4629036 0.19067591 -0.2590252 0.6438589
-0.5128267 -0.18726377 -0.21209641 0.19835572 -0.07435859 -0.31799722 -0.4412725 -0.20271067
0.12836862 -0.4313528 0.18097544 -0.19506232 -0.41926682 0.12019859 -0.22812344 -0.2327128
0.4112415 0.5601346 0.10584324 -0.23307915 0.16233161 0.06452597 -0.02464083 -0.40549067
0.35815966 0.5873143 -0.2388106 -0.23214911 0.38378444 -0.32343954 -0.40685478 -0.0575144
0.29149693 -0.10462656 -0.072546646 -0.44176167 -0.124804944 0.019353265 0.19669054 -0.3552933
-0.4465583 0.033202883 0.54500026 0.40567026 0.14022118 -0.4974277 -0.074298255 -0.47272456
-0.08726611 0.19488658 -0.36785525 0.6864676 0.3750157 -0.1717675 -0.1477525 0.040109444
00000000: 708b 923d 645e eabe 7f7c 1d3e 6a43 5b3e
00000010: b301 edbe 8c40 433e f39e 84be f0d3 243f
00000020: 9c48 03bf 13c2 3fbe cd2f 59be c31d 4b3e
00000030: 5149 98bd 88d0 a2be 78ee e1be 6393 4fbe
00000040: 1073 033e 46da dcbe a051 393e 6bbe 47be
00000050: 24aa d6be ae2a f63d 3199 69be 444c 6ebe
00000060: 3f8e d23e fb64 0f3f 57c4 d83d 4dac 6ebe
00000070: 423a 263e 3126 843d 91db c9bc 799c cfbe
00000080: b460 b73e 3b5a 163f c48a 74be 7fb8 6dbe
00000090: 657f c43e de99 a5be 454f d0be 3894 6bbd
000000a0: 163f 953e 7346 d6bd 5693 94bd 962e e2be
000000b0: bc99 ffbd bd8a 9e3c 3f69 493e 01e9 b5be
000000c0: 4aa3 e4be bfff 073d 2385 0b3f 03b4 cf3e
000000d0: 2496 0f3e d8ae febe af29 98bd f408 f2be
000000e0: 93b8 b2bd 5990 473e 8657 bcbe 57bc 2f3f
000000f0: 0f02 c03e d2e3 2fbe 6e4c 17be cd49 243d

relation_pred.weight f4 [11, 16]
0.02381216 0.32456708 0.02342806 -0.38600406 -0.35346958 -0.2808293 -0.21821813 0.09014261
0.05427959 -0.20838328 0.08118308 0.15580323 -0.34351996 -0.23374549 -0.09190271 -0.18831745
-0.032265905 0.03427285 -0.40496516 -0.019471014 -0.059856426 0.06915762 -0.047620144 0.19829091
0.31382266 -0.04791972 0.18267745 -0.2998323 -0.24094485 0.09897302 -0.23286118 -0.16109075
-0.15718277 -0.048078556 -0.16041954 0.02485377 0.050146803 -0.30625623 0.12064318 0.020350521
-0.36797044 -0.026226688 -0.16667935 -0.1638392 0.04199028 -0.19051883 0.062002916 0.3895466
0.038590636 -0.035156958 -0.15553346 -0.04630305 -0.121229 0.098535106 -0.042929515 0.090853006
0.29657075 0.17045043 -0.064798884 -0.12842558 0.13257977 -0.35183722 0.51035976 0.1072434
0.21123894 -0.12952128 0.12813567 -0.13742745 0.033960793 0.22718187 0.061156422 0.021994578
0.059029337 -0.10917607 -0.086661324 0.06454105 -0.23634274 0.079822466 0.14236261 -0.12974095
-0.4627916 0.23638272 0.48824772 0.3606753 0.266298 0.38617468 -0.29595426 -0.23211409
-0.07591311 -0.40256715 0.22177602 0.33145103 -0.17840119 0.025365585 -0.05284507 0.48540944
0.08320261 -0.030546388 0.036266934 0.01806651 -0.14983211 0.1869192 0.2646219 -0.31151673
-0.21763779 0.29429168 -0.2746452 0.15346022 0.25418583 0.14145951 0.33187804 0.0030021681
-0.36658874 0.37987044 -0.0297838 -0.36173132 0.014570635 0.11908154 0.38296312 0.14558649
0.23154937 0.2527771 -0.1683625 0.37490475 0.2468429 0.2344949 -0.31949952 -0.005992844
0.23996587 -0.053365123 0.12879106 -0.019533724 -0.24635872 0.040889367 -0.3880515 -0.48663586
0.2494487 -0.028759034 0.217914 -0.39418235 -0.26128402 0.14688891 -0.3638228 -0.25943756
0.18437853 0.06848172 0.038291864 -0.096350715 -0.18195368 0.14416032 0.03877323 0.06823872
-0.55003834 0.03061776 -0.073496185 0.25438857 0.024584321 0.023538377 0.2897031 -0.23075394
-0.14138179 -0.105074055 -0.038289264 -0.009082701 -0.091086105 -0.2594019 -0.20424981 -0.043445613
-0.044834793 0.039023858 -0.064771555 -0.08892941 0.35811296 -0.23466563 -0.36537558 0.23148511
00000000: b811 c33c a82d a63e 34ec bf3c 53a2 c5be
00000010: f7f9 b4be dcc8 8fbe 9374 5fbe b09c b83d
00000020: 4654 5e3d 6d62 55be 5143 a63d e28a 1f3e
00000030: d9e1 afbe fa5a 6fbe 7d37 bcbd 4ad6 40be
00000040: 4129 04bd b061 0c3d 9857 cfbe ad81 9fbc
00000050: 032c 75bd 83a2 8d3d 570d 43bd c60c 4b3e
00000060: 5dad a03e 7847 44bd cc0f 3b3e 9f83 99be
00000070: 3fba 76be 5eb2 ca3d 2973 6ebe f9f4 24be
00000080: 85f4 20be 05ee 44bd 0545 24be 229a cb3c
00000090: bc66 4d3d 9ecd 9cbe c613 f73d 23b6 a63c
000000a0: 9f66 bcbe 5ad9 d6bc fead 2abe 77c5 27be
000000b0: 00fe 2b3d 5e17 43be c5f6 7d3d a772 c73e
000000c0: 3711 1e3d be00 10bd 2a44 1fbe 44a8 3dbd
000000d0: e946 f8bd c6cc c93d dcd6 2fbd 2411 ba3d
000000e0: 1fd8 973e 8f8a 2e3e 47b5 84bd ff81 03be
000000f0: fec2 073e 0224 b4be f0a6 023f 6da2 db3d
00000100: 054f 583e 3aa1 04be ff35 033e c8b9 0cbe
00000110: 791a 0b3d 5da2 683e 287f 7a3d f92d b43c
00000120: bfc8 713d b497 dfbd 7e7b b1bd 192e 843d
00000130: d503 72be f679 a33d 81c7 113e d0da 04be
00000140: 05f3 ecbe 500e 723e 9bfb f93e 6faa b83e
00000150: 3658 883e b0b8 c53e 5187 97be 51af 6dbe
00000160: 5578 9bbd 481d cebe 4119 633e f3b3 a93e
00000170: cdae 36be 7dcb cf3c 1274 58bd 9687 f83e
00000180: 2166 aa3d 6b3c fabc a38c 143d 3800 943c
00000190: 976d 19be bf67 3f3e 867c 873e 1f7f 9fbe
000001a0: 71dc 5ebe 66ad 963e 4c9e 8cbe ad24 1d3e
000001b0: a524 823e c3da 103e ebeb a93e 06c0 443b
000001c0: 85b1 bbbe 617e c23e 28fd f3bc d934 b9be
000001d0: acb9 6e3c 06e1 f33d be13 c43e a014 153e
000001e0: 471b 6d3e 006c 813e 3867 2cbe 84f3 bf3e
000001f0: 63c4 7c3e 6e1f 703e 7195 a3be 9e5f c4bb
00000200: 9db9 753e 6395 5abd cee1 033e 3005 a0bc
00000210: 7645 7cbe 9c7b 273d b0ae c6be 5628 f9be
00000220: 7b6f 7f3e 1198 ebbc d924 5f3e 45d2 c9be
00000230: 05c7 85be 0c6a 163e fb46 babe 00d5 84be
00000240: bacd 3c3e 2540 8c3d eed7 1c3d 8653 c5bd
00000250: 1152 3abe c39e 133e aed0 1e3d bec0 8b3d
00000260: 50cf 0cbf 19d2 fa3c 2b85 96bd 383f 823e
00000270: 0f65 c93c 8ed3 c03c f753 943e c34a 6cbe
00000280: 63c6 10be 1131 d7bd 34d5 1cbd 9ccf 14bc
00000290: 5a8b babd 53d0 84be dd26 51be 07f4 31bd
000002a0: b0a4 37bd 7bd7 1f3d f3a6 84bd 9f20 b6bd
000002b0: 955a b73e 304c 70be 8212 bbbe 6f0a 6d3e

relation_pred.bias f4 [11]
-0.08103115 -0.17084666 -0.19943006 -0.2161215 -0.29478157 -0.041653298 0.025296144 0.077658
0.08430463 0.14670661 -0.0074370205
00000000: a9f3 a5bd 6df2 2ebe 6537 4cbe f44e 5dbe
00000010: 9ced 96be a69c 2abd dc39 cf3c 280b 9f3d
00000020: e8a7 ac3d 423a 163e 40b2 f3bb
