ShadowWeave/Feature Encoding/ShadowWeave(Numerical feature).pth (torch, 23965 bytes, 12 tensors)

node_type_embedding.weight f4 [11, 128]
0.00044775312 0.9296358 0.5453206 -0.00015441758 0.7831986 0.13445933 -0.3896795 0.22445564
0.21511312 -0.49624896 -1.7971464e-13 -0.50535035 1.3943595 -2.6229495e-15 -4.9594953e-13 0.9338843
0.68265104 -1.606129 6.1084926e-14 -1.9784292e-10 -0.7204923 -0.4817918 0.36168975 0.16255404
-0.9968657 0.045997463 1.2202531 0.006372941 -1.2164108 -0.28780168 -0.00012280884 -0.06694721
-0.20764625 0.004952382 0.008120435 -0.13685323 0.15895507 3.3582332e-09 -0.102604285 -0.87434363
-7.600897e-14 -0.5853852 -0.5612335 0.4785878 0.25875044 -0.05486415 0.2666152 -0.052135523
1.3538342 -1.3386743 -0.06127927 -0.36830717 -8.2793905e-09 0.10811446 -0.009633653 -0.5135452
-0.56300545 -2.4062824e-12 -0.01887693 0.035666853 0.70441437 0.24641295 0.08795399 -0.123433754
-0.022926934 0.24135515 0.25730446 0.19793184 -0.08257619 6.681538e-12 -0.06676009 0.0015111823
-0.10999636 0.6870689 0.3606324 1.4146152 0.00036560732 0.002276095 -0.32038435 -0.041064855
1.3734781e-10 0.9696785 -0.31409878 0.033737183 -0.0059093875 0.7990475 2.105989e-10 0.14116973
-0.75956595 0.7630043 0.62905574 0.33499694 0.15210965 0.024254845 0.11975222 0.27408484
-0.15491699 1.4331774e-14 -0.37336764 -0.01580601 -0.023748275 7.102081e-07 3.310691e-09 -2.1478878e-10
0.079611935 -0.5219064 -2.3858086e-13 -0.38372794 -1.6357876 2.336957e-14 -0.04894294 -5.1810934e-15
2.0203995e-12 0.09931564 -0.0006677857 0.3058569 0.3028109 1.1564127 1.0756965 -0.44776163
-0.020394245 -0.1266063 -0.15330724 1.3878339e-05 0.037595544 0.015234197 -0.6486766 0.001554814
1.2632008 0.3072156 -1.8578037 1.6819103 -0.41584876 0.78930604 0.27884495 -0.85106784
-0.99495035 -1.1756186 -1.7862706 -0.55842143 0.7609769 1.2105613 0.40817153 0.8774057
-0.80060273 -0.7471762 -0.97605234 0.34530324 0.43899396 0.10025201 -1.1058551 -0.33533582
-0.21763727 -0.25112087 -0.042720404 1.1607774 -0.8136276 1.1271126 0.7816512 1.1947048
-0.2451062 -0.026078254 0.73291504 -0.45546892 0.75565535 2.3217852 0.60916495 -0.24638991
-1.5346947 0.9481417 -0.2930679 -0.7038721 -0.7895621 0.6789244 -1.0885756 -0.5915492
0.2903278 -1.7038167 -1.5167122 0.4589884 -2.114519 0.63398504 -0.7196471 -0.0619753
1.8875101 1.2013177 -0.9767869 -0.5949317 -0.78214115 0.13122821 1.5969795 0.62490433
-0.027170783 -1.0700514 0.9456081 0.16133219 0.6336815 1.409201 -0.42127472 2.1419392
1.1562947 1.3560848 1.4492658 1.1259384 -1.1574059 -0.9315607 -1.0647613 -1.2425438
1.3193991 -1.9591938 -0.7847308 0.8478283 1.0162915 1.4046265 -0.6552485 -0.2750887
-0.6314345 0.14690584 0.8944155 -0.14496294 -1.5303024 0.8433728 1.4484674 0.5271924
0.17745036 -1.9618354 0.91467273 0.8685443 1.0670797 0.96715504 -0.5086015 0.54101956
-0.63327384 -0.9471587 -0.99700075 1.764234 1.4791762 -1.2188504 1.0369687 -0.4251178
-0.48888853 -1.435523 1.3078879 1.7182128 0.16828686 1.5484018 -0.58596206 0.88770974
-0.63658726 -2.4312305 1.0671481 -0.56973374 -0.20496902 -0.9986895 1.2370261 -0.041330542
00000000: 68c0 ea39 9dfc 6d3f 219a 0b3f 27eb 21b9
00000010: b47f 483f b5af 093e 1284 c7be b3d7 653e
00000020: 9d46 5c3e 5814 febe 3857 4aaa a45e 01bf
00000030: 5f7a b23f e100 3da7 ee98 0bab 0b13 6f3f
00000040: 38c2 2e3f a395 cdbf 108d 8929 d587 59af
00000050: 2f72 38bf 6aad f6be 662f b93e 9174 263e
00000060: 9732 7fbf d667 3c3d 4131 9c3f 1bd4 d03b
00000070: 59b3 9bbf be5a 93be 3fc6 00b9 9e1b 89bd
00000080: 38a1 54be 9747 a23b 930b 053c 4123 0cbe
00000090: 1ec5 223e aac6 6631 3222 d2bd fcd4 5fbf
000000a0: 3028 aba9 cedb 15bf 00ad 0fbf 7609 f53e
000000b0: f07a 843e 3bb9 60bd ca81 883e 0f8c 55bd
000000c0: 704a ad3f ae59 abbf f9ff 7abd c292 bcbe
000000d0: 253d 0eb2 1d6b dd3d 78d6 1dbc b377 03bf
000000e0: 2021 10bf bb53 29ac cba3 9abc 6817 123d
000000f0: 8054 343f ad53 7c3e 3921 b43d d6ca fcbd
00000100: 44d1 bbbc ce25 773e 69bd 833e a5ae 4a3e
00000110: b51d a9bd f215 eb2c 84b9 88bd dd12 c63a
00000120: c645 e1bd bfe3 2f3f cfa4 b83e 1c12 b53f
00000130: fcae bf39 8a2a 153b 6b09 a4be 9f33 28bd
00000140: f903 172f da3c 783f 8ed1 a0be 0030 0a3d
00000150: 89a3 c1bb 618e 4c3f 528e 672f cc8e 103e
00000160: ea72 42bf 4054 433f cc09 213f b884 ab3e
00000170: a2c2 1b3e 19b2 c63c a740 f53d d954 8c3e
00000180: 8fa2 1ebe d216 8128 0b2a bfbe 9b7b 81bc
00000190: be8b c2bc 21a5 3e35 4b82 6331 ab29 6caf
000001a0: 950b a33d a89b 05bf 204f 86aa fd77 c4be
000001b0: 7d61 d1bf 8f7e d228 6478 48bd 27ab baa7
000001c0: 482c 0e2c 0066 cb3d 570e 2fba 4799 9c3e
000001d0: 080a 9b3e 5505 943f 6cb0 893f 0341 e5be
000001e0: d511 a7bc 15a5 01be 93fc 1cbe 03d7 6837
000001f0: c9fd 193d da98 793c ab0f 26bf e7ca cb3a
00000200: 90b0 a13f 5d4b 9d3e 83cc edbf d648 d73f
00000210: 21ea d4be f60f 4a3f c4c4 8e3e 95df 59bf
00000220: 11b5 7ebf ac7a 96bf 84a4 e4bf b5f4 0ebf
00000230: 62cf 423f acf3 9a3f dcfb d03e a99d 603f
00000240: 4df4 4cbf f046 3fbf 91de 79bf 96cb b03e
00000250: d1c3 e03e ed50 cd3d a98c 8dbf 23b1 abbe
00000260: 4edc 5ebe ea92 80be 97fb 2ebd 5b94 943f
00000270: e649 50bf 3a45 903f 4b1a 483f 16ec 983f
00000280: 1ffd 7abe 10a2 d5bc 52a0 3b3f 3933 e9be
00000290: a172 413f 2198 1440 3cf2 1b3f a34d 7cbe
000002a0: e070 c4bf 6ab9 723f ff0c 96be f630 34bf
000002b0: be20 4abf fdcd 2d3f 7256 8bbf c56f 17bf
000002c0: d8a5 943e aa16 dabf a023 c2bf 8700 eb3e
000002d0: 4754 07c0 d84c 223f cb3a 38bf d0d9 7dbd
000002e0: ee99 f13f c7c4 993f b50e 7abf 724d 18bf
000002f0: 673a 48bf b060 063e d369 cc3f bbf9 1f3f
00000300: 4395 debc 72f7 88bf 5f13 723f 4434 253e
00000310: f338 223f b360 b43f 52b1 d7be 8815 0940
00000320: 7701 943f 3094 ad3f 8b81 b93f c01e 903f
00000330: e025 94bf c37a 6ebf 194a 88bf ad0b 9fbf
00000340: 12e2 a83f ddc6 fabf 1ee4 48bf 470b 593f
00000350: d715 823f cdca b33f 5ebe 27bf 6dd8 8cbe
00000360: b1a5 21bf 7c6e 163e 6af8 643f 2a71 14be
00000370: f3e0 c3bf 48e7 573f 6167 b93f 15f6 063f
00000380: 8cb5 353e 6c1d fbbf fe27 6a3f eb58 5e3f
00000390: 1196 883f 7997 773f b533 02bf 4280 0a3f
000003a0: 3c1e 22bf fe78 72bf 713b 7fbf 6bd2 e13f
000003b0: a555 bd3f 4a03 9cbf 64bb 843f 0aa9 d9be
000003c0: 994f fabe 38bf b7bf df68 a73f 66ee db3f
000003d0: 6453 2c3e 0832 c63f 9c01 16bf f240 633f
000003e0: 62f7 22bf 4899 1bc0 4f98 883f 12da 11bf
000003f0: 66e3 51be 1daa 7fbf df56 9e3f 374a 29bd

conv1.convs.<node___to___node>.lin_l.weight f4 [8, 160]
0.082644545 -0.10300694 0.10987661 -0.038582176 -0.16003661 0.043544855 -0.037518278 -0.030253306
0.01589664 -0.051979147 -0.030516647 0.05061381 -0.040492672 -0.016309239 -0.047070455 0.12694515
-0.18730676 -0.004330173 0.03317458 -0.09275054 -0.00848333 -0.07288495 0.022802072 0.029426726
-0.15735891 0.04216429 0.0080686575 0.008456545 -0.16328275 -0.14425768 0.053723026 -0.044455025
-0.08304654 -0.019504484 -0.06958747 0.04643136 -0.09989184 0.024531092 0.06947909 -0.06329525
0.05793847 -0.021550111 -0.042400982 0.05029316 0.1101018 0.14226167 -0.034808956 0.062321566
-0.051727712 0.0030475485 0.061235297 0.1262791 0.025115253 0.01501745 -0.19437572 0.05750978
0.003032013 -0.0690302 -0.018693546 0.06270804 -0.037141055 -0.022360168 -0.0666379 0.01811409
0.042741027 0.15690602 -0.05673546 -0.023466969 -0.059159245 0.16846775 -0.018679472 0.15014492
-0.0073050978 -0.015308483 -0.062174648 -0.10218017 0.031586584 0.17438267 -0.069631785 0.017726084
0.10297926 -0.08689234 -0.05167602 -0.16935559 -0.009421988 -0.03734371 0.06788151 -0.020365808
0.09860991 -0.062030416 -0.042327676 -0.06552882 -0.120787464 0.026308589 0.028363561 0.017476203
-0.089300595 0.027902126 0.12293734 -0.068951905 0.054035094 0.07682841 -0.094549626 0.111997955
-0.0022904647 0.16345832 0.110032365 0.06152701 -0.0052449596 -0.17642535 0.01767026 -0.008174513
0.18046024 -0.080024146 0.006961774 -0.031992257 0.15214409 0.015704444 0.002239905 0.058337603
0.16080385 0.10129951 0.00072138116 -0.038023047 -0.025258938 -0.04744251 -0.018796057 -0.025828712
-0.116959475 -0.010569094 0.010331368 -0.16940463 0.011155111 0.0711853 -0.16767804 -0.023053829
-0.048062533 -0.01023587 -0.1398675 0.018605737 -0.024039794 -0.02971778 -0.09431192 0.01749185
0.17241198 -0.0361786 -0.025316348 0.04750847 0.01835307 0.054418392 -0.0070254626 -0.024800662
0.058603864 -0.0496667 0.09003742 -0.03826935 0.032500774 -0.22298558 0.09258925 0.040337022
0.047508553 0.06022194 -0.03609307 0.052511647 -0.03322445 -0.06915658 -0.026436428 0.008390668
0.0054225246 0.005055203 0.007512598 -0.033965617 -0.0021509333 0.0792567 0.01805143 -0.023440538
-0.014342393 -0.0888027 0.035485275 0.016602768 0.022509048 0.0045686453 -0.05768216 0.03389865
-0.060181696 -0.05168949 0.012442653 0.014182874 0.026585337 -0.09170908 0.008860706 -0.00067498686
-0.0074545187 -0.17240421 -0.07901738 -0.017666113 -0.09672237 0.10119903 0.01568898 0.060721327
0.0057636476 0.03464418 0.040256854 0.05076003 -0.052645523 0.122990996 -0.03553931 0.10808993
-0.09438366 -0.11684669 0.04970392 0.14067201 0.057085525 0.03167498 -0.047640003 0.08330159
0.15594374 0.067062005 -0.05581895 0.041922875 -0.04261639 0.081870295 0.0028790773 0.027709244
-0.039042126 0.057790384 0.046715114 -0.0023042257 -0.13745369 0.04181962 -0.02776335 0.14346997
0.019120328 -0.001622264 -0.06650508 -0.08376742 0.06052811 0.21206774 -0.00033782749 -0.08323384
0.01489006 -0.05371524 -0.10815388 -0.1438575 0.025224626 0.023423618 0.14437455 -0.034885403
0.12025676 0.02765197 -0.03944763 -0.06507768 -0.046161022 0.060390633 0.024192331 -0.012085164
00000000: 8b41 a93d 4df5 d2bd fd06 e13d 5808 1ebd
00000010: a3e0 23be 175c 323d c4ac 19bd c8d5 f7bc
00000020: ac39 823c 16e8 54bd 0cfe f9bc 6d50 4f3d
00000030: a5db 25bd f49a 85bc f3cc 40bd e9fd 013e
00000040: 58cd 3fbe 20e4 8dbb 12e2 073d fff3 bdbd
00000050: aafd 0abc b444 95bd 69cb ba3c 5110 f13c
00000060: b222 21be 76b4 2c3d 6732 043c 528d 0a3c
00000070: 9833 27be 49b8 13be ad0c 5c3d 7916 36bd
00000080: 4e14 aabd dec7 9fbc e083 8ebd cf2e 3e3d
00000090: 1894 ccbd 6ef5 c83c 0e4b 8e3d f1a0 81bd
000000a0: e450 6d3d dc89 b0bc a7ac 2dbd 3300 4e3d
000000b0: 0d7d e13d 0bad 113e d693 0ebd e644 7f3d
000000c0: 70e0 53bd 61b9 473b ddd1 7a3d 4f4f 013e
000000d0: 81be cd3c c00b 763c 6e0a 47be 608f 6b3d
000000e0: bdb4 463b b55f 8dbd 3523 99bc 136d 803d
000000f0: 3821 18bd ac2c b7bc 7479 88bd 0064 943c
00000100: 3711 2f3d f9ab 203e 7163 68bd cd3d c0bc
00000110: f750 72bd cf82 2c3e b105 99bc 97bf 193e
00000120: 9a5f efbb 6ed0 7abc d8aa 7ebd d643 d1bd
00000130: ef60 013d 5f91 323e 1c9b 8ebd 4b36 913c
00000140: cae6 d23d 9cf4 b1bd 3caa 53bd 8d6b 2dbe
00000150: af5e 1abc b8f5 18bd 7605 8b3d 32d6 a6bc
00000160: fef3 c93d 9b13 7ebd c95f 2dbd f933 86bd
00000170: 6b5f f7bd 1c85 d73c b35a e83c 412a 8f3c
00000180: 3be3 b6bd 0093 e43c 92c6 fb3d a836 8dbd
00000190: e753 5d3d 3758 9d3d 3ca3 c1bd 2f5f e53d
000001a0: 9f1b 16bb 9e61 273e a658 e13d bf03 7c3d
000001b0: e9dd abbb d9a8 34be 39c1 903c 64ee 05bc
000001c0: 92ca 383e b3e3 a3bd 981f e43b 500a 03bd
000001d0: a9cb 1b3e 9ba6 803c 5fcb 123b 69f3 6e3d
000001e0: c4a9 243e 1e76 cf3d 121b 3d3a 0ebe 1bbd
000001f0: d5eb cebc 1453 42bd 30fa 99bc bc96 d3bc
00000200: 7388 efbd fe29 2dbc e644 293c 6878 2dbe
00000210: edc3 363c 99c9 913d cbb3 2bbe 62db bcbc
00000220: 38dd 44bd 5ab4 27bc 6d39 0fbe 0f6b 983c
00000230: 1aef c4bc b472 f3bc 9c26 c1bd 114b 8f3c
00000240: c48c 303e 0330 14bd 3b64 cfbc 3e98 423d
00000250: 2d59 963c d2e5 5e3d da35 e6bb c22a cbbc
00000260: 9b0a 703d 4f6f 4bbd 8a65 b83d 52c0 1cbd
00000270: 881f 053d 5556 64be 6f9f bd3d 6f38 253d
00000280: 5498 423d 48ab 763d 54d6 13bd 7416 573d
00000290: 5c16 08bd f7a1 8dbd 3591 d8bc 0379 093c
000002a0: 6faf b13b 1ea6 a53b 3d2c f63b 881f 0bbd
000002b0: acf6 0cbb 5651 a23d 98e0 933c 5f06 c0bc
000002c0: 5bfc 6abc 31de b5bd 0259 113d 8702 883c
000002d0: e564 b83c 93b4 953b 2144 6cbd 50d9 0a3d
000002e0: 1581 76bd 5cb8 53bd 45dc 4b3c 495f 683c
000002f0: 7ec9 d93c f8d1 bbbd 7f2c 113c 9af1 30ba
00000300: 0945 f4bb bb8a 30be ddd3 a1bd 86b8 90bc
00000310: 6116 c6bd 7041 cf3d 2d86 803c edb6 783d
00000320: fbdc bc3b 0ee7 0d3d 5fe4 243d c0e9 4f3d
00000330: d5a2 57bd b4e2 fb3d ab91 11bd 415e dd3d
00000340: 384c c1bd 514d efbd 5696 4b3d 530c 103e
00000350: 83d2 693d a0bd 013d 2a22 43bd 069a aa3d
00000360: b7af 1f3e ce57 893d 69a2 64bd 52b7 2b3d
00000370: 868e 2ebd 9dab a73d e7ae 3c3b 7ffe e23c
00000380: a3ea 1fbd 9cb5 6c3d 5958 3f3d 7e02 17bb
00000390: a9c0 0cbe 0d4b 2b3d f76f e3bc cbe9 123e
000003a0: 3ca2 9c3c 26a2 d4ba d133 88bd 418e abbd
000003b0: 53ec 773d 4928 593e 701e b1b9 8176 aabd
000003c0: 70f5 733c 8304 5cbd c87f ddbd 614f 13be
000003d0: e0a3 ce3c e3e2 bf3c ecd6 133e ffe3 0ebd
000003e0: 2d49 f63d 6286 e23c d793 21bd 7247 85bd
000003f0: 5713 3dbd 2b5c 773d ff2e c63c da00 46bc

conv1.convs.<node___to___node>.lin_l.bias f4 [8]
0.13549013 0.21569756 0.09929899 -0.038225077 0.05398406 0.20792422 0.105018914 0.10057724
00000000: edbd 0a3e d2df 5c3e 455d cb3d e691 1cbd
00000010: 641e 5d3d 16ea 543e 2814 d73d 71fb cd3d

conv1.convs.<node___to___node>.lin_r.weight f4 [8, 160]
0.027894171 0.08694196 -0.15586369 0.04498656 0.030387256 0.09648822 -0.07584534 0.06454903
-0.018475369 0.008963004 0.026229942 -0.07800685 0.005252261 0.08904482 -0.061886877 0.10257735
-0.03862181 0.025444627 -0.08750143 0.02190406 0.06949213 0.005967144 -0.13493495 -0.016171971
-0.06849344 0.13564861 -0.036445558 -0.03871029 0.074764736 -0.049116436 -0.014997025 -0.010732103
0.15039434 -0.2757945 -0.086603574 -0.074722596 -0.09547149 -0.30106765 0.2305797 -0.16433392
0.18710297 -0.1868199 0.10235919 0.20767097 0.012083066 -0.2921652 -0.13778795 0.095866576
0.019867454 0.26120427 0.058659397 0.22992449 -0.055318728 0.23381045 -0.22962731 0.2327327
-0.25984845 0.45866182 0.1403099 -0.15040582 -0.15713587 -0.23428482 0.025870893 0.02208609
0.030260954 0.015169239 0.13853279 -0.29938725 -0.24954192 0.058393635 0.11781367 0.19380409
-0.060555592 -0.26077014 0.06594752 -0.24260677 0.25135046 -0.08809074 0.15968405 0.23542295
0.27706525 0.045000553 -0.11975184 -0.078294955 -0.02635631 0.2084708 -0.25293162 0.19490552
-0.11644829 -0.16423744 -0.11856409 -0.18284886 -0.16477138 -0.09154365 0.22627991 0.2200836
-0.20661253 -0.00080351514 0.14131404 0.020035986 -0.20929082 -0.1883363 -0.15787266 -0.14829323
0.16554168 0.17989793 -0.09197401 0.098798774 0.079054154 0.07220574 -0.02226497 -0.1859941
0.14312854 -0.019320061 0.11925228 -0.26273248 0.24528389 0.0037143738 -0.17085226 -0.00089091685
-0.05394874 -0.22869308 0.1259368 -0.08012366 -0.20888484 0.13176501 0.13973157 0.16187538
-0.2582612 -0.182707 -0.073066935 0.014337312 0.044109304 0.29881823 -0.11061024 -0.31725323
0.09713805 0.23832616 -0.19581184 0.052509073 -0.23285058 -0.14719106 -0.1449122 -0.05121523
0.14919408 -0.21271086 -0.11416963 0.009648947 -0.23807009 0.10260066 -0.19267973 -0.0030472863
-0.14528112 -0.11402698 0.12789221 -0.054588333 -0.13762946 0.32295698 0.19366233 -0.0036810855
0.022492101 0.0433557 -0.02161603 0.07257704 -0.026430827 -0.008285893 -0.008185937 0.025059162
0.040970888 0.08311769 -0.017497705 -0.058278944 0.04200767 0.0008063153 0.08006015 -0.019863132
0.032370973 -0.012614687 0.07006415 -0.057959042 0.022986796 -0.02377375 -0.044240884 0.048421923
0.038231283 0.061250716 0.038936548 -0.029966548 0.03477559 0.021905823 -0.028673407 0.058856186
-0.2292796 -0.20524527 -0.060183242 -0.17413972 0.2357825 -0.20320974 -0.20679541 0.14153759
0.22278872 0.2129602 0.25842527 0.1687984 0.13130784 -0.22075164 0.19787061 0.15963465
-0.1409973 0.24860492 0.17424835 -0.060858767 -0.119847715 0.24376199 -0.0061147055 0.13072224
-0.112952635 0.22100064 -0.15665108 -0.13134614 0.12534466 -0.18054454 -0.10926523 0.085724354
0.2078827 0.11709888 -0.15222304 -0.102547586 -0.1170945 -0.18888393 0.060934182 -0.019325856
0.17447746 -0.13516389 0.0915203 -0.123583145 0.13160168 -0.231724 0.2110898 -0.081252076
0.18890756 0.05051637 0.1249509 0.0820277 -0.12831545 0.016195439 0.124312006 -0.12136795
0.123537764 -0.2587556 -0.1782397 0.06825733 -0.0809979 0.14574519 0.14397989 -0.09119158
00000000: 5182 e43c a00e b23d bb9a 1fbe d443 383d
00000010: b2ee f83c 9e9b c53d cd54 9bbd 4832 843d
00000020: a859 97bc 90d9 123c 2de0 d63c 0ec2 9fbd
00000030: 291b ac3b 215d b63d 187d 7dbd 1314 d23d
00000040: e731 1ebd 4071 d03c f333 b3bd 2570 b33c
00000050: e451 8e3d 0888 c33b 632c 0abe 157b 84bc
00000060: 4a46 8cbd 78e7 0a3e f047 15bd ae8e 1ebd
00000070: 411e 993d 512e 49bd 15b6 75bc b4d5 2fbc
00000080: f900 1a3e f034 8dbe 375d b1bd 2908 99bd
00000090: 8e86 c3bd 8a25 9abe 161d 6c3e 2747 28be
000000a0: ec97 3f3e b74d 3fbe b2a1 d13d b3a7 543e
000000b0: 0df8 453c ad96 95be 4918 0dbe b255 c43d
000000c0: 12c1 a23c 91bc 853e d644 703d 5371 6b3e
000000d0: e495 62bd 026c 6f3e 6c23 6bbe 7b51 6e3e
000000e0: db0a 85be b9d5 ea3e 66ad 0f3e fc03 1abe
000000f0: 3ae8 20be 5ce8 6fbe 32ef d33c e3ed b43c
00000100: d2e5 f73c 6688 783c 8adb 0d3e 4949 99be
00000110: eb87 7fbe 2a2e 6f3d 4b48 f13d 9474 463e
00000120: 2409 78bd aa83 85be 7e0f 873d e96d 78be
00000130: 02b1 803e eb68 b4bd 3784 233e b712 713e
00000140: 7fdb 8d3e 8052 383d 7440 f5bd 1b59 a0bd
00000150: 30e9 d7bc 5f79 553e 4180 81be 5095 473e
00000160: 717c eebd dc2d 28be bbd1 f2bd bb3c 3bbe
00000170: d4b9 28be 3d7b bbbd ecb5 673e 985d 613e
00000180: 3c92 53be fda2 52ba a1b4 103e 8222 a43c
00000190: 5550 56be 3bdb 40be 5fa9 21be 2eda 17be
000001a0: c283 293e 2a37 383e df5c bcbd 0357 ca3d
000001b0: 25e7 a13d 9ae0 933d 0765 b6bc 3d75 3ebe
000001c0: 4a90 123e 1b45 9ebc 8a3a f43d df84 86be
000001d0: b32b 7b3e da6c 733b e5f3 2ebe 6b8c 69ba
000001e0: 5bf9 5cbd 852e 6abe 94f5 003e e017 a4bd
000001f0: e8e5 55be 68ed 063e cb15 0f3e a9c2 253e
00000200: d03a 84be 8b17 3bbe 1ea4 95bd 0ce7 6a3c
00000210: f5ab 343d b4fe 983e 9f87 e2bd 046f a2be
00000220: 50f0 c63d c60b 743e e682 48be c113 573d
00000230: 6270 6ebe 41b9 16be dd63 14be 10c7 51bd
00000240: 55c6 183e e0d0 59be c4d1 e9bd 9e16 1e3c
00000250: a5c8 73be 4b20 d23d d64d 45be fbb4 47bb
00000260: 93c4 14be fa86 e9bd 2df6 023e 0498 5fbd
00000270: bdee 0cbe 9e5a a53e 6b4f 463e 5e3e 71bb
00000280: 5b41 b83c bf95 313d 1a14 b1bc 45a3 943d
00000290: 7685 d8bc 8ec1 07bc 4f1e 06bc df48 cd3c
000002a0: 17d1 273d 9c39 aa3d 5957 8fbc e7b5 6ebd
000002b0: 3c10 2c3d e75e 533a 93f6 a33d 02b8 a2bc
000002c0: 6d97 043d d5ad 4ebc cb7d 8f3d 7666 6dbd
000002d0: ce4e bc3c 2bc1 c2bc ee35 35bd 1156 463d
000002e0: 6898 1c3d 08e2 7a3d ee7b 1f3d 687c f5bc
000002f0: d970 0e3d d773 b33c 7ee4 eabc 2f13 713d
00000300: 45c8 6abe d12b 52be b482 76bd af51 32be
00000310: f870 713e 3716 50be 2dc2 53be 3bef 103e
00000320: ba22 643e 3d12 5a3e 5150 843e 7dd9 2c3e
00000330: 9075 063e b80c 62be 989e 4a3e 4477 233e
00000340: 9961 10be 4a92 7e3e 296e 323e 0b47 79bd
00000350: b872 f5bd be9c 793e de5d c8bb 0ddc 053e
00000360: b653 e7bd fe4d 623e 2469 20be 9a7f 06be
00000370: 5a5a 003e abe0 38be 73c6 dfbd 4090 af3d
00000380: 34df 543e 8ad1 ef3d 5be0 1bbe 7804 d2bd
00000390: 3ecf efbd ca6a 41be 1f96 793d 4251 9ebc
000003a0: 38aa 323e 6768 0abe ff6e bb3d 2919 fdbd
000003b0: 97c2 063e 0e49 6dbe ed27 583e 7d67 a6bd
000003c0: fc70 413e 41ea 4e3d 42e6 ff3d 24fe a73d
000003d0: 2065 03be 4cac 843c 4b97 fe3d c38f f8bd
000003e0: 5e01 fd3d 9d7b 84be 7884 36be 80ca 8b3d
000003f0: 3ae2 a5bd 3a3e 153e 776f 133e a7c2 babd

conv2.convs.<node___to___node>.lin_l.weight f4 [8, 8]
0.07058935 -0.2505913 -0.22317319 0.15805231 0.04968058 0.17083396 0.08078959 0.1784775
-0.12766695 -0.11847946 0.17832492 -0.0069851577 0.05530972 -0.27452078 0.2130161 -0.20958121
0.070923105 -0.04698411 -0.03907137 0.09326955 0.2412025 0.27872622 -0.002871431 0.04900283
0.13389716 -0.03714514 0.13133346 0.37751228 0.029908612 -0.33991894 -0.17361207 -0.05323845
0.105704255 0.32932106 0.29796565 0.053442758 -0.091204755 -0.29883423 -0.3948766 0.4480447
-0.048687015 -0.031654906 0.08678684 -0.46212506 -0.0069651688 0.12977691 -0.003623172 -0.16116731
-0.039827283 -0.31822824 -0.16918696 -0.26972887 0.21676531 0.51200765 -0.28024143 0.12109897
-0.056288235 0.22982459 0.23744981 0.019517874 0.15258263 -0.22221807 0.1664278 0.06641553
00000000: 2691 903d 814d 80be 8387 64be 77d8 213e
00000010: dd7d 4b3d 19ef 2e3e 0375 a53d cec2 363e
00000020: 20bb 02be 5ca5 f2bd cf9a 363e c0e3 e4bb
00000030: 728c 623d fd8d 8cbe e420 5a3e 759c 56be
00000040: 2240 913d 6972 40bd 4d09 20bd 1b04 bf3d
00000050: cafd 763e 34b5 8e3e 9e2e 3cbb 31b7 483d
00000060: 561c 093e 8125 18bd 477c 063e 4a49 c13e
00000070: e802 f53c db09 aebe 5dc7 31be 9010 5abd
00000080: 797b d83d c59c a83e f48e 983e cbe6 5a3d
00000090: 8fc9 babd cd00 99be 442d cabe 1d66 e53e
000000a0: 096c 47bd 93a8 01bd 4cbd b13d a89b ecbe
000000b0: 123c e4bb 3de4 043e bd72 6dbb 0b09 25be
000000c0: ef21 23bd d0ee a2be 593f 2dbe e719 8abe
000000d0: baf7 5d3e ef12 033f ce7b 8fbe bd02 f83d
000000e0: 7e8e 66bd 2357 6b3e 0b26 733e f3e3 9f3c
000000f0: 9f3e 1c3e 228d 63be 0d6c 2a3e de04 883d

conv2.convs.<node___to___node>.lin_l.bias f4 [8]
-0.10516639 -0.11846666 -0.12881906 0.17102449 -0.18043046 -0.15718636 0.33320922 0.52111346
00000000: 7a61 d7bd a69e f2bd 25e9 03be 0b21 2f3e
00000010: c3c2 38be 76f5 20be 669a aa3e b167 053f

conv2.convs.<node___to___node>.lin_r.weight f4 [8, 8]
0.2676829 0.49025318 0.54391295 -0.120502755 -0.1407629 -0.118237555 0.18631701 0.30538318
0.49129134 -0.26333198 0.3390593 -0.22874682 0.20322043 0.40267718 -0.34850207 -0.44445315
0.41026208 0.4981038 0.05123767 -0.38320336 -0.067263484 -0.47463143 -0.089599766 0.25247276
0.08533753 -0.087773345 0.40244868 0.5268182 -0.06361349 0.1301806 -0.48938948 -0.3660253
0.030013466 -0.06548681 -0.21187767 -0.30023533 0.49657968 -0.4276118 0.27178252 0.35142225
-0.11955504 -0.21765423 -0.5517557 -0.115250975 0.4099923 -0.7660847 -0.3617938 -0.09989118
-0.4210801 -0.26782972 -0.38234442 -0.33418658 -0.03480479 0.44459903 0.49573448 -0.18789542
0.21931764 -0.30286467 -0.11689575 -0.20816909 0.5147418 -0.17004992 -0.027346436 -0.26852944
00000000: bc0d 893e 7702 fb3e e13d 0b3f 26ca f6bd
00000010: 2624 10be 8826 f2bd e3c9 3e3e 2f5b 9c3e
00000020: 8a8a fb3e 73d3 86be 2e99 ad3e 9b3c 6abe
00000030: 0419 503e b42b ce3e dd6e b2be 5d8f e3be
00000040: df0d d23e 7607 ff3e 97de 513d 3b33 c4be
00000050: 70c1 89bd e402 f3be 1580 b7bd 1c44 813e
00000060: 71c5 ae3d 83c2 b3bd c10d ce3e 8fdd 063f
00000070: ca47 82bd 104e 053e 4291 fabe ab67 bbbe
00000080: cdde f53c f31d 86bd 76f6 58be 72b8 99be
00000090: b13f fe3e efef dabe 1427 8b3e 9eed b33e
000000a0: 46d9 f4bd c0e0 5ebe dd3f 0dbf b408 ecbd
000000b0: 83ea d13e 201e 44bf 093d b9be bf93 ccbd
000000c0: d097 d7be fa20 89be a6c2 c3be 811a abbe
000000d0: 788f 0ebd 7ca2 e33e e9d0 fd3e a867 40be
000000e0: ce94 603e 1411 9bbe 0a67 efbd 472a 55be
000000f0: 1ec6 033f 9121 2ebe a205 e0bc b17c 89be

conv3.convs.<node___to___node>.lin_l.weight f4 [8, 8]
0.006668154 5.603455e-05 0.18983534 0.12441382 -0.07381771 0.13421015 0.44815645 0.13015349
0.14439496 0.070844956 -0.1251169 0.1341185 0.32369453 0.5026233 0.047828604 0.42018557
-0.17768887 0.14190115 -0.0027989715 -0.035220228 0.22922169 0.11470751 -0.30936038 0.063981794
0.0016246226 0.062215764 0.07872534 0.055986337 0.29726154 -0.1237227 0.20403053 0.19863935
0.1708364 -0.16818811 0.10886298 -0.030051336 -0.10849601 0.23173095 -0.54325956 0.102714464
-0.10345398 0.29239422 0.029547976 -0.11943509 -0.21622425 0.27065474 0.23904903 -0.03020504
0.022779724 -0.12126996 0.33017087 0.0012966177 -0.01607548 -0.092297815 -0.43148378 0.0056966413
-0.21823138 0.09374434 0.48062545 -0.13435069 0.38076785 0.16562966 -0.61004174 0.06077628
00000000: 8880 da3b a406 6b38 3264 423e accc fe3d
00000010: bd2d 97bd 636e 093e c374 e53e f546 053e
00000020: 46dc 133e 2917 913d a51e 00be 5c56 093e
00000030: 4abb a53e ecab 003f ede7 433d 9022 d73e
00000040: 12f4 35be 894e 113e f36e 37bb 1643 10bd
00000050: 17b9 6a3e c5eb ea3d 7c64 9ebe e308 833d
00000060: 4af1 d43a f5d5 7e3d c03a a13d ee51 653d
00000070: aa32 983e 5462 fdbd 61ed 503e 1d68 4b3e
00000080: bdef 2e3e 8139 2cbe 8ef3 de3d 382e f6bc
00000090: 2833 debd e14a 6d3e 0f13 0bbf f65b d23d
000000a0: aedf d3bd b2b4 953e 990e f23c 629a f4bd
000000b0: e469 5dbe 4293 8a3e 45c9 743e 8f70 f7bc
000000c0: 8b9c ba3c 635c f8bd 280c a93e 45f3 a93a
000000d0: bab0 83bc a306 bdbd 71eb dcbe e4aa ba3b
000000e0: 0c78 5fbe 08fd bf3d 8a14 f63e 3a93 09be
000000f0: 01f4 c23e d29a 293e b22b 1cbf 8cf0 783d

conv3.convs.<node___to___node>.lin_l.bias f4 [8]
-0.10323084 -0.09990523 -0.23496327 0.16619912 -0.27669597 0.3342054 0.023809977 0.27609512
00000000: b16a d3bd 1d9b ccbd 369a 70be 1a30 2a3e
00000010: 18ab 8dbe f81c ab3e 240d c33c 575c 8d3e

conv3.convs.<node___to___node>.lin_r.weight f4 [8, 8]
0.35170746 0.34287223 0.36997223 0.39561918 -0.28772593 -0.10159356 -0.22151715 -0.21703283
0.5835429 -0.16249014 -0.14611389 0.23203434 -0.3929359 -0.6321336 0.16909741 -0.39117023
-0.37057596 0.27611884 -0.2680088 -0.0625362 0.52448934 -0.13299467 0.045118175 0.36143306
-0.39466786 0.29318964 -0.57312447 0.43173394 -0.082878366 0.03818047 0.396458 -0.16003521
-0.1362321 0.29237577 -0.30382422 0.3315265 0.1521545 -0.061956607 -0.5444523 0.33130854
-0.4029708 0.018786687 -0.33183405 0.05696142 -0.3459712 -0.10553927 0.36643407 0.101768486
-0.3769713 0.2844552 -0.26689306 0.51697 -0.13813306 0.35304928 -0.19425133 0.48894018
-0.2559877 -0.37930974 -0.22733752 0.11219547 -0.058765303 0.15785226 -0.20372124 -0.45775712
00000000: 0013 b43e f38c af3e 006d bd3e 998e ca3e
00000010: d050 93be 4910 d0bd 64d5 62be db3d 5ebe
00000020: 1163 153f d163 26be e19e 15be 699a 6d3e
00000030: e52e c9be 82d3 21bf df27 2d3e 7747 c8be
00000040: 22bc bdbe 735f 8d3e 7338 89be fb12 80bd
00000050: ef44 063f c12f 08be d6cd 383d c10d b93e
00000060: e811 cabe f41c 963e 49b8 12bf 3b0c dd3e
00000070: 22bc a9bd 2063 1c3d 8bfc ca3e 45e0 23be
00000080: 6d80 0bbe 47b2 953e d98e 9bbe d7bd a93e
00000090: 64ce 1b3e 36c6 7dbd 3a61 0bbf 46a1 a93e
000000a0: 3052 cebe 8ae6 993c 27e6 a9be 6150 693d
000000b0: 2323 b1be f924 d8bd 3f9d bb3e ff6b d03d
000000c0: 6202 c1be 1da4 913e 35a6 88be 2558 043f
000000d0: c172 0dbe e0c2 b43e d2e9 46be 5e56 fa3e
000000e0: d210 83be e334 c2be 2bcb 68be bdc6 e53d
000000f0: e3b3 70bd 06a4 213e 4d9c 50be 245f eabe

relation_pred.weight f4 [11, 16]
0.18007882 0.09784886 0.26350766 -0.0077254404 0.23244919 -0.015923046 -0.106101684 -0.40334493
-0.15079424 -0.07083971 0.08182729 0.44868752 0.060781512 0.040176556 0.03895012 -0.17162837
0.13164814 0.3832974 -0.1398512 0.2391684 0.09436651 0.27316338 -0.0607338 0.21444228
-0.075589836 -0.07794783 0.13278717 0.012738027 -0.037904587 0.0106094545 0.27365807 0.036876913
0.08290368 0.26338667 -0.2212122 0.31510386 0.19464122 0.08951377 -0.10051486 0.19674657
0.028116738 0.38883656 -0.36320764 0.13208537 0.19617768 0.088399336 0.027112218 0.27727672
0.121567465 -0.049923092 0.14632392 0.03610432 0.0139964465 -0.063298695 0.06721267 0.08687427
-0.11255182 0.21478005 0.059948877 -0.5052296 0.07624358 -0.38441765 -0.41345504 0.06604607
-0.1034426 0.15096928 0.015605075 -0.28671572 0.20734388 -0.014922583 0.15673298 -0.078270964
0.02468165 0.034011517 0.24388555 0.2849553 -0.13263226 0.37119973 0.13206187 0.29488283
-0.17879643 -0.010917343 0.037966233 -0.45170859 -0.42826647 -0.07691946 -0.32919085 -0.08401903
0.22926803 0.029020522 0.16626672 0.07167338 -0.044446506 -0.18040761 0.29343215 -0.066583835
-0.21721356 0.15902893 0.36758736 0.3715433 0.0022822511 0.3748212 0.018127427 -0.11309794
-0.027239889 0.3273172 -0.016206099 0.0812259 -0.39782917 0.13099852 -0.49645117 -0.020516796
-0.32605296 -0.089252755 -0.16876143 0.15803185 -0.435206 0.35647538 -0.31031555 -0.21289644
0.29522374 0.19924153 -0.24597205 -0.041161243 -0.17103557 -0.024672924 -0.22256166 -0.36054608
-0.528707 -0.26085573 0.08913536 -0.16117705 0.10685895 -0.049363177 0.15664648 0.025613924
-0.110617444 -0.25013393 -0.037287842 -0.15042804 0.25773767 0.119999744 -0.012842273 -0.20772512
0.15142633 -0.10700953 0.0014503059 0.030548017 0.02331307 -0.1995142 0.1367612 -0.26217052
0.030631406 0.2709296 0.22172259 0.032525554 -0.3706066 0.26785767 -0.29118592 -0.055980828
0.041870255 0.08077486 0.12583606 0.0026898186 0.16259837 -0.21730332 0.12765375 -0.014169783
0.35947812 0.15988554 -0.4442041 0.030136071 -0.1267675 -0.12895904 0.120964035 -0.2113672
00000000: 9566 383e fc64 c83d 7aea 863e b125 fdbb
00000010: 2907 6e3e 0c71 82bc d74b d9bd 3a83 cebe
00000020: ce69 1abe 6914 91bd 1195 a73d 5fba e53e
00000030: 09f6 783d 2c90 243d 298a 1f3d 59bf 2fbe
00000040: c5ce 063e 8f3f c43e 2735 0fbe 90e8 743e
00000050: 3b43 c13d 12dc 8b3e 01c4 78bd c296 5b3e
00000060: d8ce 9abd 1da3 9fbd 5cf9 073e 28b3 503c
00000070: d741 1bbd 47d3 2d3c e91c 8c3e 3f0c 173d
00000080: 68c9 a93d 9eda 863e 7385 62be 4b55 a13e
00000090: 0750 473e ff52 b73d bcda cdbd ef77 493e
000000a0: 1355 e63c 9615 c73e 5af6 b9be 6341 073e
000000b0: cde2 483e b60a b53d 711a de3c 37f7 8d3e
000000c0: 5df8 f83d 287c 4cbd f0d5 153e 20e2 133d
000000d0: 5a51 653c bfa2 81bd cca6 893d 23eb b13d
000000e0: 9281 e6bd 4def 5b3e f48c 753d ba56 01bf
000000f0: 9825 9c3d 64d2 c4be 61b0 d3be 2943 873d
00000100: b7d9 d3bd b197 1a3e 6eac 7f3c 67cc 92be
00000110: f451 543e d97d 74bc 9c7e 203e 874c a0bd
00000120: 2c31 ca3c a94f 0b3d 22bd 793e a9e5 913e
00000130: c0d0 07be e40d be3e 3a3b 073e e2fa 963e
00000140: 6916 37be a8de 32bc 7b82 1b3d 5946 e7be
00000150: be45 dbbe f387 9dbd b48b a8be 2b12 acbd
00000160: 3dc5 6a3e 72bc ed3c d341 2a3e 7ec9 923d
00000170: 8a0d 36bd c6bc 38be bd3c 963e 1b5d 88bd
00000180: 3b6d 5ebe 7bd8 223e 6934 bc3e ec3a be3e
00000190: d291 153b 90e8 bf3e f87f 943c e59f e7bd
000001a0: 3026 dfbc 1f96 a73e a7c2 84bc c459 a63d
000001b0: 44b0 cbbe 7a24 063e d92e febe d712 a8bc
000001c0: 6af0 a6be 26ca b6bd cccf 2cbe 1ad3 213e
000001d0: 52d3 debe f183 b63e aee1 9ebe 8601 5abe
000001e0: 9127 973e f905 4c3e 19e0 7bbe b198 28bd
000001f0: f323 2fbe df1e cabc 34e7 63be 7f99 b8be
00000200: 5859 07bf e28e 85be 9a8c b63d 990b 25be
00000210: ddd8 da3d 0b31 4abd ef67 203e 4bd4 d13c
00000220: 668b e2bd 8e11 80be 23bb 18bd cf09 1abe
00000230: 31f6 833e 6dc2 f53d 6668 52bc e5b5 54be
00000240: 810f 1b3e d027 dbbd 3118 be3a d63f fa3c
00000250: 0dfb be3c 734d 4cbe 210b 0c3e 373b 86be
00000260: b7ee fa3c 49b7 8a3e 3f0b 633e 8439 053d
00000270: 26c0 bdbe a424 893e 5216 95be 274c 65bd
00000280: 2580 2b3d 4a6d a53d 2bdb 003e ab47 303b
00000290: 3080 263e c384 5ebe aab7 023e 6128 68bc
000002a0: 840d b83e 09b9 233e b86e e3be ecdf f63c
000002b0: 57cf 01be d70d 04be febb f73d a570 58be

relation_pred.bias f4 [11]
0.14625867 -0.13086428 0.06448702 -0.009156637 0.023723103 0.21654741 -0.022421604 0.19018124
-0.085455045 0.09633932 -0.15432052
00000000: d5c4 153e 4901 06be c511 843d b805 16bc
00000010: f456 c23c 9bbe 5d3e 83ad b7bc dfbe 423e
00000020: 0e03 afbd 8d4d c53d 3306 1ebe
