ShadowWeave/Feature Encoding/ShadowWeave(100d).pth (torch, 26739 bytes, 12 tensors)

node_type_embedding.weight f4 [11, 128]
00000000: 4de6 a0bb f716 edbd 16fa 5fbe a807 58bf
00000010: 7fdb 07bf b39a 77bf 15a1 8e3f 7a52 19bf
00000020: 865b 68be 4cf3 5e3e 6755 abbd 7195 d6be
00000030: e6f7 1fbf 99b6 8cbe a747 dc3d dd75 2b3f
00000040: 962b 62bf c440 e53f 9915 7eb2 61ca ac3e
00000050: 39a6 1240 47c4 053f 28a9 283f 68e7 95be
00000060: ec71 94bd 4b6d 62ba edef c8be 62a3 13b9
00000070: 1a22 f5be 9fc0 253e ca18 333f 2793 ac3e
00000080: 9fc2 9d3f 0484 91a0 4174 fcbe 7b40 24ac
00000090: 45c3 ebbe c5de 4bbf 1d7b 9d96 ca6d 78be
000000a0: bca5 50a2 c49b b53d 277c fdbe 25b9 7519
000000b0: 49fb 0abf b622 703b 5491 eebe 1eb8 c2be
000000c0: 2989 92bf 56ca 7539 fa46 2bbb 949b fd18
000000d0: 0c89 b23f c99a 25be b3ff e7bc 0b4b 8b3f
000000e0: 5072 93be 88c1 1ebf 6b37 e43b 05ae 75bf
000000f0: 0623 8c3d 672e d6bf d3f1 5a3f e51e 333c
00000100: 0161 0c3c d18d 329a a298 473f 4a50 cb3c
00000110: 2483 2725 2e68 5538 3274 09bf 5ef0 8d3f
00000120: c3af e73d ebc9 253e e0fe c821 1d44 c0bd
00000130: 5b57 933f d45b bdbe eebb 093e 6aed 9abf
00000140: 2d1d 063d cb99 0a3f d65c f7b3 b4ab bd3e
00000150: d79d d038 926b cc3f a269 cb3e 27ec a3b7
00000160: db29 cebe ffb9 163a 8f3d 143f 3e57 ec3d
00000170: 415c 65bd 826c 913d 1973 f1bc 5158 e0bf
00000180: fc62 5b3f f227 bd3f d720 f4bf 15c5 acbe
00000190: 5b5e 09be 95e7 f5bc de47 7bbf 139b b616
000001a0: 0015 cebd 00e7 8bbb 391a ebbd 0f81 0840
000001b0: 2b72 293f 4c39 ca3d 7397 44b0 4453 3c3e
000001c0: d006 92bf daba 193d 76cb 80be bed7 91bc
000001d0: 5956 453d 9b93 193f 55a9 8236 72ef bbbc
000001e0: b311 7fbf fcc3 7917 b385 b8bf 5cf7 42be
000001f0: af19 d8be 24f6 243f 2931 fcbe 2140 8c3e
00000200: cb2c 7bbf 4973 7fbf 98fb 1fbd c775 d6be
00000210: ac6c 1c3e 12f5 76bf 93d2 bf3e 6b57 8fbf
00000220: a4bf 88be 039f 9a3f e4fb 69be 7442 87be
00000230: c2b7 903f 30a7 733e 47c9 0c40 ea63 583e
00000240: 80ff c1ba 677e a53f 511a 453e 5d0b 4b3f
00000250: 455c 2cbe 6ac9 11bf add5 a23f 015b 53bf
00000260: a3b4 803f ffcb eebe 4f96 a0bd f217 503f
00000270: d8a7 9f3e aad3 acbf 1a1d b63f c85d e03f
00000280: 16d6 443e 7b9f ddbf d885 e63e 0fee ca3f
00000290: 2baa 783f b6bb ac3e c8f2 39bf 6f78 5bbf
000002a0: 8f85 d93d eab7 cf3f ea0f c33d 010d 07bf
000002b0: 91d4 9dbf 3ad3 c53e bfaf 263f 40ee 263f
000002c0: d790 cfbf 635d fdbd ca93 8b3e d9a3 8a3f
000002d0: 3c98 a4bf 2d83 833e 23a1 c93f 585e d3bd
000002e0: 1a4f 9f3f 81ea c23f e3ee afbf 01a7 59bf
000002f0: a721 a8bf 8788 69be 41b0 8dbf 70d1 e8be
00000300: 027f 2dbe 4ec4 01c0 fef7 ce3f 9ac5 6cbe
00000310: 2b44 7fbf 2208 ab3e 103e ad3f 9ffd 913e
00000320: ab11 253f 353a 0540 7743 18bf e3bb f1bf
00000330: 5296 ff3f 7305 db3e 5dcb a83e 554b b23f
00000340: 5302 ebbe fba7 27bf 97c0 87bf 42a9 2fbe
00000350: 941f 003f f75d 5bbd 0025 babf 51bf 5fbf
00000360: 8e9c a03e 24ba 883f 2f97 46bf 9c38 883f
00000370: bb18 8e3e f06b a3bf d172 b1be fcef 083d
00000380: 73df 0540 ffbd 03c0 966b 92bf 8533 e03d
00000390: 4d74 4bbe 0323 9fbf 18c6 4abe 05b0 c63f
000003a0: 52c6 3cbe 539f 6440 b6e8 4f3f c05f f0bf
000003b0: 5625 ed3f b6b5 1a40 4df0 a23f 5b15 0f3f
000003c0: 1696 203f 495a fcbf 05fe 323f 2853 b23d
000003d0: 03ff d5bd 13e7 df3e d3db bebf baa4 1b3f
000003e0: 9e82 ddbf 82a9 19bf ae9b 47bf 6b0b fa3e
000003f0: 3de3 11bf 8a15 34bf cf9e 0abf d6b4 fe3f
-0.0049102665 -0.11576646 -0.21872744 -0.8438668 -0.530693 -0.9672043 1.1142908 -0.59891474
-0.22691163 0.21772498 -0.083658986 -0.4191089 -0.6248764 -0.2748306 0.10755854 0.6697672
-0.88347757 1.791039 -1.4789657e-08 0.33748153 2.2913954 0.5225262 0.6588311 -0.2927811
-0.072482914 -0.0008637502 -0.3924555 -0.00014079877 -0.4787758 0.1618676 0.699597 0.33706018
1.2325019 -2.4651316e-19 -0.49307445 -2.3341596e-12 -0.46047416 -0.79636794 -2.5442413e-25 -0.24260631
-2.8276996e-18 0.088676006 -0.49508783 1.2703593e-23 -0.5428968 0.0036641783 -0.46595252 -0.38031095
-1.1448108 0.00023440397 -0.0026134835 6.555606e-24 1.3948073 -0.16172327 -0.02832017 1.0882276
-0.2879815 -0.62014055 0.006964614 -0.9596866 0.06842618 -1.6732911 0.85525244 0.010932659
0.008568049 -3.6924096e-23 0.77967274 0.024818558 1.4529373e-16 5.0880182e-05 -0.53692925 1.1088979
0.11312821 0.16190307 1.3619992e-18 -0.093879916 1.1511034 -0.36984122 0.13450596 -1.2103703
0.032742668 0.5414092 -1.15187206e-07 0.37045062 9.947613e-05 1.5970328 0.3972903 -1.9541081e-05
-0.40266308 0.00057497615 0.5790643 0.115400776 -0.055996183 0.07100774 -0.029473828 -1.7526952
0.85697913 1.4777815 -1.9072522 -0.33744112 -0.134149 -0.030017653 -0.98156536 2.9501551e-25
-0.10062599 -0.0042694807 -0.11479611 2.132877 0.6618983 0.0987421 -7.1519607e-10 0.18391138
-1.1408329 0.03753171 -0.25155228 -0.01780307 0.04817805 0.59990853 3.8940148e-06 -0.022941325
-0.9963638 8.0703606e-25 -1.4415802 -0.19039673 -0.42207095 0.6443808 -0.49256256 0.27392676
-0.98115224 -0.99785286 -0.039058298 -0.41886732 0.1527583 -0.964677 0.37465343 -1.1198553
-0.2670871 1.2079777 -0.22849995 -0.26417887 1.1306078 0.23794246 2.199785 0.21131864
-0.0014800876 1.29292 0.1924832 0.79314214 -0.16832073 -0.5694796 1.2721459 -0.82560736
1.0055126 -0.46640012 -0.07841169 0.8128654 0.31182742 -1.3502095 1.4227631 1.752862
0.19222292 -1.7314295 0.4502399 1.58539 0.97134656 0.33736962 -0.7263608 -0.8573064
0.106211774 1.6228001 0.0952452 -0.5275422 -1.2330495 0.38637716 0.6511192 0.6520729
-1.6216077 -0.12371328 0.27261192 1.0831252 -1.2858958 0.25686017 1.57523 -0.10320729
1.2446015 1.5227815 -1.3744777 -0.8502045 -1.313527 -0.22805987 -1.1069413 -0.45472288
-0.16942981 -2.0276065 1.6169431 -0.23122254 -0.9971339 0.33404642 1.3534565 0.2851381
0.64480084 2.0816777 -0.59477943 -1.8885463 1.9967749 0.42777595 0.32967654 1.392924
-0.4590021 -0.6549069 -1.0605649 -0.1715441 0.50048184 -0.05355641 -1.4542542 -0.874013
0.31369442 1.0681806 -0.7757444 1.0642276 0.27753243 -1.2767315 -0.3465791 0.033431992
2.0917633 -2.0584714 -1.1439083 0.109473266 -0.19868584 -1.243256 -0.1980213 1.5522467
-0.18435028 3.5722244 0.81214464 -1.877922 1.8527019 2.4173408 1.2729584 0.5589196
0.6272901 -1.9715053 0.69918853 0.08707267 -0.1044903 0.43730983 -1.4910835 0.6079823
-1.7305486 -0.60024273 -0.77971923 0.48836836 -0.56987363 -0.70345366 -0.5414857 1.9898937

conv1.convs.<node___to___node>.lin_l.weight f4 [8, 210]
00000000: eb7c 783c 6437 90bc b45f 173e da18 9d3d
00000010: 33cb 04be cdb5 d6bc 3c83 9b3d 8ff1 c83d
00000020: ae9b 533d a2c5 27be 49dc 9dbd 9d3b 363c
00000030: 6004 d23d fc66 273d 80e3 44bd 0a95 80bd
00000040: 91af 873c d582 2f3e 99cd ddbc 27e5 3dbe
00000050: e927 653d 3d2f 58bb 18eb 833c 88db d4bb
00000060: e6cf bfbd ad67 61bd f280 c2bc b394 773d
00000070: 200a 0a3d d494 00be c402 87bc 2cce 75bc
00000080: 1d88 e33d 0917 b73b 93f4 de3d cfd5 cdbd
00000090: cc99 053e 6e6a d13b 2a2e 943c 77cf 8ebd
000000a0: 620c 0bbd d9f6 11be 8ee6 323d e855 1b3e
000000b0: 557f dd3d dbc4 a5bc 486b abbc d538 833b
000000c0: f2ca 84be 9a53 2b3e 2f08 76ba 712c b4bd
000000d0: dc27 6c3d ba51 dcbd f036 4dbd cd9b 0fbe
000000e0: 4d67 53bd 9162 b7bd 8877 1cbe b005 09be
000000f0: cd28 3ebe b81c 373d 02f2 643d f6aa 873d
00000100: 0e8f a1bd e7c3 edbd aaf8 ba3d 4da3 403e
00000110: 0c9a 093e 5de9 8cbd 3d59 193e 269b 883d
00000120: 47bd 07bc 3cb6 f43d fe09 a13d 4fe9 233e
00000130: 5ff6 fc3c 9bb2 4fbe 211a 1bbe 1b39 ea3d
00000140: 42c5 883d 8d77 433e 0782 eb3d 795e 1b3d
00000150: b7e1 b9bc 58a2 91bd b141 b13c 6213 a3bd
00000160: f26a 74bc bba0 aabd 81b7 ef3c 43f9 db3d
00000170: 97dd 923d 14d2 afbd 61de 3bbd 9d77 c13d
00000180: 9855 19bc af28 71bd 4639 073d 0ba9 3e3d
00000190: da53 07be 5ded 2d3d 28e6 a0bd 33a2 883d
000001a0: 5c76 e73d 7bee 97bc b1db 20bd c177 b6bd
000001b0: e8ea c8bd 8d9c c6bd e898 16bb 7145 c6bd
000001c0: e2fa 96bd cfff 353d aee2 9c3b 34a2 be3d
000001d0: e110 00be de31 133d 2a75 86bd cdca 893d
000001e0: 8ecb 833d 7b21 51bc 1c26 083d 4f66 48bd
000001f0: 50f1 113e 3a14 c5bd f02d 34bc 9ba3 0dbe
00000200: fea7 8bbc 8830 d0ba 04e8 983d d0a1 60bd
00000210: 2b79 0a3e 363d d1bd a623 7bbd c5f4 64bd
00000220: b3b4 c6bd 295e 04be b833 a9bc 6989 ad3d
00000230: 6f63 bb3d 5bb5 8dbc d8a6 bebd 82c3 9dbc
00000240: bff7 04be 46aa 56bd 8fc1 a2bc fc0d 94bd
00000250: 2b1f 8cbd 4b08 d03c e55a 283d 5cb0 943d
00000260: 8ce8 273c 5cdf dd3d eaf2 f239 4107 3c3d
00000270: e3f6 4c3d 8f9f 203c b8b1 833d 53dc 2a3d
00000280: 203e 473d 5a48 c53d faca a33c 17fe 423d
00000290: 0150 a8bd f284 bfbd 5260 933d d2cb 51bd
000002a0: 4cfe 16be 50fc c73c 7eeb 923d 458e ea3d
000002b0: 81eb b2bc 3638 f33d e5d5 82bd bbe3 a7bd
000002c0: 868b 10be f35d 183e d7ee c63d 5d52 47bd
000002d0: 8233 50bb e0ce 363d 5329 bb3c f907 d5bd
000002e0: 45f5 b03d 987b 23bd b5d5 353d 493d 083c
000002f0: 5329 0e3d 8581 bebd 0beb 3fbd f139 6b3d
00000300: 125b c23d 92bf a43d ce31 8c3d 5863 d63c
00000310: 300c dcbb 7088 93bc 82f0 aa3d 4f35 49bd
00000320: 6293 223d bd1f ca3d 7d6c 533d f14b 98bc
00000330: d730 723d 6d88 53bd 7191 d53d 9de4 b43b
00000340: 1c08 b7bd 6ff3 0dbe eaad 513d 68d1 5e3d
00000350: 7157 b03c 4342 30bd cec6 cc3b 7470 1dbd
00000360: 7818 a23d bc1e cb3c 2a16 fb3b 4b92 a0bd
00000370: 7086 a3bd 6275 ed3c 8721 923d ed74 0a3c
00000380: 54cc adbd 1ff7 38bd 2a51 dc3d 08b6 7c3d
00000390: 07f7 6abd f206 bbbd 066c 50bc 3814 973d
000003a0: 8b8f 6c3d 6861 813d 5505 65bd c988 eebc
000003b0: e2a0 e03d bc1d 403d 0812 a23d c3c1 cbbc
000003c0: 13a9 99bd 6d6a e2bb 63d9 a83d 09cf 303c
000003d0: 4123 e73c 78c1 94be abf7 e9bc cc86 83bc
000003e0: e5be 543d 8b96 2cbd a94b 97bd b9fc 3bbd
000003f0: 0dd9 a8bb 5564 6d3c d1bd 5b3d ab46 bbba
0.0151665015 -0.017604537 0.14782602 0.07670756 -0.1296814 -0.026209736 0.0759339 0.09811699
0.05166214 -0.16383985 -0.07708032 0.011122611 0.10254741 0.040869698 -0.048068523 -0.06278427
0.016563209 0.17139752 -0.027075576 -0.18544446 0.055946264 -0.003298714 0.016103312 -0.0064958967
-0.09365825 -0.055030514 -0.023743127 0.060444545 0.033701062 -0.12556773 -0.016480811 -0.0150027685
0.11109946 0.005587463 0.108864926 -0.100505464 0.1304695 0.0063908612 0.018088419 -0.069731645
-0.033947356 -0.14254321 0.043676905 0.1516949 0.10815302 -0.02023547 -0.02092518 0.0040045776
-0.25936085 0.1673111 -0.0009385375 -0.08797539 0.0576552 -0.107577756 -0.05010122 -0.14024277
-0.051612187 -0.08954347 -0.15279973 -0.13381076 -0.18570252 0.044705123 0.05589486 0.06624405
-0.07888614 -0.11609631 0.0912946 0.18812294 0.1343767 -0.06880448 0.14975448 0.06670217
-0.008284873 0.11948821 0.07863234 0.16006969 0.030879198 -0.20282976 -0.15146686 0.11436673
0.06678249 0.19088574 0.1149941 0.037931893 -0.022690637 -0.07111043 0.02163777 -0.07962681
-0.014918076 -0.08331438 0.029262306 0.10740902 0.07171171 -0.08584991 -0.045866374 0.094466425
-0.009358786 -0.05887669 0.033013605 0.04654793 -0.1321558 0.042462695 -0.07856399 0.06671562
0.11301872 -0.018546334 -0.039272014 -0.0890956 -0.0981043 -0.096978284 -0.0022979323 -0.09681214
-0.07372071 0.04443341 0.0047877645 0.093082815 -0.12506439 0.03593623 -0.06565316 0.06728134
0.06435309 -0.01276433 0.03323947 -0.048925694 0.1425221 -0.096229985 -0.0109972805 -0.13831942
-0.017047878 -0.0015883604 0.074661285 -0.054841816 0.13522784 -0.10216753 -0.061313294 -0.055897493
-0.097024344 -0.12926544 -0.020654544 0.084734745 0.09149825 -0.017298391 -0.09309167 -0.019258264
-0.12985133 -0.05240848 -0.019867687 -0.0722923 -0.06841882 0.02539458 0.04110231 0.072602004
0.010248315 0.10833618 0.00046338822 0.045905355 0.050040137 0.009803667 0.064303815 0.041714024
0.04864323 0.096329406 0.019994248 0.0476056 -0.082183845 -0.09351529 0.07196106 -0.05121977
-0.14745444 0.024412304 0.07173823 0.11452917 -0.021840813 0.11875956 -0.063884534 -0.08197733
-0.14115724 0.14879589 0.09713524 -0.048662532 -0.0031768982 0.044630885 0.022846853 -0.10401911
0.086405315 -0.03991279 0.04439326 0.008315393 0.03470738 -0.09302048 -0.046855014 0.057428304
0.094900265 0.08044352 0.06845437 0.026170418 -0.00671532 -0.018009394 0.083466545 -0.049123105
0.039691336 0.09869335 0.051617134 -0.0185909 0.05912861 -0.051643778 0.10428131 0.005520417
-0.089370936 -0.13862394 0.051191248 0.054398924 0.02152607 -0.043031942 0.0062492853 -0.03843732
0.07914823 0.024794929 0.0076625543 -0.07840403 -0.07984626 0.028986637 0.07135301 0.008450729
-0.08486238 -0.045157548 0.10757668 0.061697036 -0.05736449 -0.09132184 -0.012721067 0.07376903
0.05775408 0.06317407 -0.05591329 -0.029117959 0.10968186 0.046903357 0.079135954 -0.024872666
-0.075029515 -0.0069096596 0.08244588 0.0107915485 0.028215053 -0.29053855 -0.02856048 -0.016055487
0.051939864 -0.042135756 -0.07387478 -0.045895312 -0.0051528276 0.014489253 0.05364782 -0.0014288028

conv1.convs.<node___to___node>.lin_l.bias f4 [8]
00000000: 4c85 4e3e 65ce 053e 3a23 fb3d 2e59 233e
00000010: 0874 883a 1767 0a3e c0dc c33d 746f ad3d
0.20168036 0.13067015 0.12262578 0.15951988 0.0010410557 0.13515888 0.09563589 0.084685236

conv1.convs.<node___to___node>.lin_r.weight f4 [8, 210]
00000000: e40e 9ebd c27f 303d 1e2c 8bbd 2ffa 803c
00000010: 0226 eb3c 074c 183d e6ef 09be c808 3c3d
00000020: 079e b43c ee86 143e 8829 d8bc d161 dc3d
00000030: 0903 8a3c 6c74 923d 4d1b 583d 51f4 d8bb
00000040: 64dc 36bd 6aff 5fbd 3b49 6fbd 1519 ee3d
00000050: 82d3 45bd 59fe 703d af12 aabc a004 833d
00000060: 8d66 143e 1a03 71bc 3a29 11bd 33cc 5fbd
00000070: 054d 4fbd 3eff 813d d570 20bc ffff a4bc
00000080: 1f9e 11bd 1421 843e 17b3 563e 9eea e93c
00000090: f269 823c 0fa4 4abc 1a7f a43c 43b2 16be
000000a0: 9f8d 1cbe f0fc 53bc 7531 743d 2c05 c93c
000000b0: ac5f 4e3c 8198 b0bd 6de7 8f3d b867 083e
000000c0: a2e0 c7bd eb41 49bb 7edb 963b 2351 c73c
000000d0: a88f ef3d df57 83bd d4a1 e13c f8a6 b4bd
000000e0: f89c 97bd 9e28 e3bd 1b2f 7abb 5510 08be
000000f0: 2c64 a1bd e704 a2bd d4c0 e13d a4e1 7ebd
00000100: 45f5 bfbd 7aaf 22be ae11 973d f5ce 923c
00000110: 9314 b0bb 6731 323e 3126 a23d 30f5 6abc
00000120: e26c babd 767c 6ebd d9a0 e13d bb3d b3bb
00000130: 308d 80bc fc27 eb3b 9004 cfbd 7e53 503d
00000140: c0f3 713d 245d a3bd 46f4 01be e18a c9bb
00000150: 695d 163d 961b 7b3e 56f1 43be b317 433e
00000160: e2d3 d43d 6a37 423e 7085 12be ecd1 29be
00000170: d8f9 2a3d 8e46 80bd 9d5a 913d 32a2 9bbd
00000180: a0c7 933d c579 4b3e 4e25 8b3d d797 22bb
00000190: 9a63 8abd 087c 623e d0c9 493c 7d6b 6c3e
000001a0: 4d80 8f3d ab5e cebc c7cd eebd 542a a33d
000001b0: 8f16 3dbe 8f6c ac3d 0cb4 c8bc 4a87 ff3d
000001c0: 3cd9 223e f189 1e3d 350e ff3c 0215 8ebd
000001d0: 8dc9 823c 38e1 1abe 004f be3d 5784 c93c
000001e0: 7b6b ac3d 4592 133e 92cc 3c3e c584 f23d
000001f0: 11eb 7c3e bb19 523e 5227 25be e97d 493e
00000200: 503e 5cbe 2912 973d e9ae 003e 589c c2bd
00000210: 0006 bebd dfbc 0bbe f262 5e3e 5162 4a3e
00000220: 3e7c 753d 1e6f 493e a6d0 e23d a528 3f3e
00000230: 87bd bcbd f31d b03d f9fb 543e 3eac 563e
00000240: 5b11 3c3b ee35 143c 3a20 da3d 5ffe f43c
00000250: e3db 033e a31b 40be 4847 04be d4ed 3abe
00000260: d062 49be 1fc5 d63d 4bd0 a23d 9cba 64bd
00000270: b298 c83d 53ab 303e 9cda 953d 922d f33d
00000280: f0a3 50be bd37 abbd 8bbc acbd c45a 383e
00000290: 67d7 39be 4ce0 cbbd 013d 1abe 8d0e c4bd
000002a0: e3a9 2e3e 3cb4 f53d aab2 e8bd 9577 aebd
000002b0: 9792 d0bd 588c 233d a234 293e 7c4d 3abd
000002c0: 876b 6abe 1d9b f8bc 7afb 2f3e cfab fabc
000002d0: a9ef ab3d dc21 e3bd 01b8 5c3e 32f8 123e
000002e0: d387 0ebe fc01 273e 889c 213e 72a6 753c
000002f0: 9a1f 53be 15ca b7bb 14a3 793c 54fe 6abd
00000300: 3616 2fbe a2f8 e43d d0a6 8cbd 6d0e 64bd
00000310: 282c 78be 2a8f 2ebd 0b50 193e 7cd7 0ebe
00000320: b5b6 393d c9da 1bbe 72ee 013e 1ad9 36be
00000330: 250c 28be d499 463e 0b63 213e c370 05be
00000340: 6b61 7a3e fa58 ee3d e15c 28bd 835f d1bc
00000350: f7fd d0bd 739d c63d 3c83 b0bd fe79 b8bb
00000360: e565 2b3d 3a87 0d3d 6efc da3c 3e01 5b3d
00000370: 4904 fa3c 39e5 073c 6498 96bd b75e 503e
00000380: e195 adbc 8155 47bc d201 9dbd 6881 6fbd
00000390: 52af 613d 122e 803b 5769 b8bc e69f 9b3c
000003a0: fff0 65bd 8b81 fd3d 7d5e 6bbd faaa f53c
000003b0: ab8a 88bd e895 1ebd 42cf 7e3d 70ac 10bd
000003c0: b1b5 64bd 41ba dd3d c098 bf3a 13f6 423e
000003d0: 5279 9a3d 13d7 7c3e efe8 a9bd f011 883d
000003e0: 5cbb 083c 53c9 73bc ca85 9b3d c51e f23d
000003f0: 272d 6f3e 7014 34be afc6 a6bc 9618 a2bb
-0.07717684 0.04309059 -0.06795524 0.015744297 0.028704647 0.03718188 -0.1347042 0.045906812
0.02204801 0.14504597 -0.026386991 0.107608445 0.01684715 0.07151112 0.05276041 -0.0066209217
-0.044643775 -0.05468694 -0.058419447 0.11625878 -0.048297413 0.058836315 -0.020760862 0.063973665
0.14492245 -0.014710212 -0.035439707 -0.0546381 -0.05061056 0.06347512 -0.009792526 -0.0201416
-0.035551187 0.25806487 0.20966755 0.028554257 0.01591966 -0.012368216 0.020080138 -0.14716439
-0.15288399 -0.012938723 0.05961748 0.024538599 0.012596052 -0.08622838 0.07026563 0.13320816
-0.09759642 -0.0030709456 0.004603802 0.024330681 0.11697322 -0.064132445 0.027542986 -0.08820909
-0.07402986 -0.110917315 -0.003817505 -0.1328748 -0.078804344 -0.07911091 0.11023107 -0.062226906
-0.09372953 -0.15887251 0.07376419 0.01792095 -0.0053735464 0.17401658 0.07917441 -0.014340684
-0.09102799 -0.058224164 0.110170074 -0.0054700053 -0.015692323 0.0071763974 -0.10108292 0.050860874
0.05907035 -0.079767495 -0.12690839 -0.006150589 0.036710177 0.24522242 -0.19135031 0.1905201
0.10391976 0.18966451 -0.14308715 -0.16583985 0.041742176 -0.06263457 0.07097361 -0.07599296
0.0721581 0.1987067 0.06794225 -0.0024809742 -0.06757279 0.22117627 0.012316182 0.23087879
0.07006893 -0.025191626 -0.11660343 0.07967058 -0.18465637 0.084191434 -0.024499916 0.12476976
0.15903181 0.03870577 0.031134704 -0.06937601 0.015965248 -0.15124977 0.09292412 0.024599237
0.08418938 0.14411266 0.18437412 0.1184173 0.24699046 0.20517628 -0.16128281 0.19676937
-0.21508145 0.07376511 0.12566723 -0.095024765 -0.09278488 -0.13646267 0.21717432 0.19764067
0.05993294 0.19671294 0.11074953 0.18667848 -0.09215837 0.08599462 0.20799245 0.20964143
0.0028696868 0.009046061 0.10650678 0.02990645 0.12876849 -0.18760543 -0.12917817 -0.18254787
-0.196666 0.104868166 0.07949885 -0.055842027 0.09794749 0.17252855 0.07317087 0.11873926
-0.20375037 -0.083602406 -0.08434399 0.18003374 -0.18148576 -0.099548906 -0.15062334 -0.09573088
0.17056994 0.119972676 -0.113622025 -0.08518902 -0.1018421 0.039928764 0.16523984 -0.04548405
-0.22892581 -0.030347401 0.17185774 -0.030599503 0.08395321 -0.110904425 0.21554567 0.14352491
-0.13919 0.1630935 0.15782368 0.014993297 -0.20617524 -0.005608807 0.015236635 -0.057371452
-0.17098317 0.111802354 -0.068677545 -0.05567782 -0.24235594 -0.042617 0.1497194 -0.13949388
0.04534026 -0.15220179 0.12688616 -0.17856255 -0.16410883 0.19394618 0.15760438 -0.13031296
0.24451225 0.11638065 -0.0411042 -0.025558239 -0.1020469 0.09698 -0.08618781 -0.005629777
0.04184522 0.03455279 0.026731696 0.05346798 0.030519621 0.008294397 -0.07353285 0.20348631
-0.021189632 -0.012166382 -0.07666363 -0.05847302 0.05509884 0.003911742 -0.022511167 0.018997144
-0.056138035 0.12378224 -0.057463158 0.029988755 -0.06667074 -0.03871718 0.062209375 -0.0353207
-0.055837337 0.10826541 0.0014617667 0.19039182 0.07542671 0.2469142 -0.08296382 0.06644046
0.008345451 -0.014879542 0.075938776 0.11822275 0.23357068 -0.17585921 -0.020358412 -0.0049467785

conv2.convs.<node___to___node>.lin_l.weight f4 [8, 8]
00000000: 4ad5 503e 59be 6bbe d252 83bc 1394 1d3e
00000010: 6c05 023e f18e e53e 488b 0d3b 9cfc 8d3d
00000020: 362f 6abe e069 a1bc 0791 51be 8041 25be
00000030: a162 a4bd a94e c73e 2ba0 52be 4adf a33d
00000040: 5411 27be bc5a b5bd bc12 c13e 1e07 c43e
00000050: eb97 043d e7f0 24be 2cae 33bd 47f5 833e
00000060: 8959 8a3e 49a3 3a3d 5a61 923d 6ff3 9f3e
00000070: 048f 40be d383 c43c 90c2 8c3d 56bf 95bd
00000080: b44f 60bd 3cc8 b83e f39a 1e3e 1ddd 643c
00000090: b81d 02be 6a76 2b3e 35db 833e 1da0 99be
000000a0: cc1e 073d b055 e43e 4ec8 883b 2060 02bb
000000b0: 8fed 903e e9ec bcbd ebe7 d1bd 8766 6b3d
000000c0: 7c3e e1bd 10c2 943d 8d7a a7bc ac20 d03d
000000d0: 7f21 553e cfbd 21be 666e 5b3d 8b1f c43e
000000e0: a861 21be 2c26 51be 090f a23e ccee 593e
000000f0: 02a5 a63d 883b fc3c e85d 12bb d33c 053e
0.20393863 -0.2302183 -0.016030703 0.15388517 0.12697381 0.44835618 0.002159791 0.06932947
-0.22869572 -0.019703805 -0.2046548 -0.16138268 -0.080266245 0.389272 -0.20568912 0.080015734
-0.16315204 -0.08855197 0.37709606 0.3828668 0.032371443 -0.16107522 -0.043867275 0.2577307
0.27021435 0.045565877 0.071474746 0.31240413 -0.18804556 0.02398864 0.06873047 -0.07311885
-0.05476351 0.36090267 0.15488796 0.013968733 -0.1270665 0.1674439 0.2575318 -0.3000497
0.032988355 0.44596624 0.004174269 -0.001989372 0.28306243 -0.092248745 -0.10249313 0.057470825
-0.10998246 0.07263577 -0.020444179 0.10162482 0.20813559 -0.15795062 0.05357208 0.38305315
-0.15759909 -0.20424718 0.31652096 0.212825 0.081369415 0.030790105 -0.0022333805 0.13011484

conv2.convs.<node___to___node>.lin_l.bias f4 [8]
00000000: e54c fd3b 60a1 a0bd 254a f63d fb38 21be
00000010: 629e fabd 2d28 3abc 9b54 f33d 3ad4 d73e
0.007730114 -0.0784328 0.12025861 -0.15744393 -0.122372404 -0.011362118 0.118813716 0.42154104

conv2.convs.<node___to___node>.lin_r.weight f4 [8, 8]
00000000: 4925 193f a32f 6e3e 0661 823e 7880 84bb
00000010: 1902 85be 0a00 193f 46fa ad3e 4725 06be
00000020: 8c9e ce3e 265d 01bf 62fd 91bd 8525 2a3b
00000030: c5e4 9abe fe31 843c 6790 f93e a066 ba3e
00000040: fc07 a2be d1fc 94bd 83e5 c33d 21af 90bb
00000050: 61bf 01be 599b b7bc 9af9 54be d25a 2b3f
00000060: 4fdd 9f3e 01b5 c7bd 957a 0a3f 6f78 6bbe
00000070: 9fb9 0cbf fb7e 0fbe 6d75 cb3e 7599 5abe
00000080: 6724 a63b 38ff 0d3f ac97 e0be 61e5 9ebe
00000090: 682a ac3e 2e04 8c3e 31f0 a5be bf9b b5be
000000a0: 2a7a 8b3e 1119 163e 0229 24ba 88b4 6a3e
000000b0: c57d 58be 85a1 0e3f 43fb 3439 4098 1bbd
000000c0: aaf9 dcbd 6962 75bd bddf 99be 8047 043f
000000d0: 8059 69be f300 b4bd 7d43 36be 03f4 56bd
000000e0: 0d91 28bd 24fb 0a3d 120c e83e 5d3b 27bf
000000f0: cdd5 f2be 8b7e b6be 1017 083f ca1f 08bf
0.5982252 0.2326036 0.25464648 -0.004043635 -0.25978163 0.59765685 0.33980006 -0.13100158
0.40355337 -0.5053276 -0.07128407 0.0025962305 -0.30252662 0.01613712 0.48742983 0.36406422
-0.31646717 -0.072747834 0.0956526 -0.0044154082 -0.12670662 -0.022412943 -0.2079834 0.66935456
0.31223533 -0.09751321 0.54093295 -0.2299516 -0.54970735 -0.14013283 0.39738026 -0.21347602
0.0050702575 0.5546756 -0.43865716 -0.31034377 0.33626103 0.2734694 -0.32409814 -0.35470387
0.2724164 0.14658 -0.0006262214 0.2292043 -0.21141727 0.5571521 0.0001725974 -0.037986994
-0.10789807 -0.059908304 -0.3005351 0.516716 -0.22788048 -0.087892435 -0.17799182 -0.0524788
-0.041153956 0.033930913 0.4532171 -0.65324956 -0.47428742 -0.3564342 0.5316019 -0.53173506

conv3.convs.<node___to___node>.lin_l.weight f4 [8, 8]
00000000: 2af3 2a3e ab1e 7d3d 7994 a83e 4023 7a3d
00000010: 8703 383f afee 5e3e 3daa c7bd 938d 91bd
00000020: 2fdd 99be fd83 90be 085b 03be d100 64be
00000030: 637d a5be 4b4b 7c3c df0d 1fbe dbf8 cdbe
00000040: b922 94be ecaa e33e 4e4e 62be 3e9f 99be
00000050: f885 663c 5833 053f d6fd 9c3d bbcc 87be
00000060: 307a 323a 4de8 ce3c bf60 52be e1c9 32be
00000070: 6d97 01bd e3b8 cbbd b8af b9bd 8f67 0b3d
00000080: 9a5d 203e 3fae 35bb 61f2 53bd 21d1 a73d
00000090: ac7b 183e 457a 9c3d d9c8 31bd 59c1 d83d
000000a0: facd 3b3e 5deb 7cbd 327d 843d 27da 863e
000000b0: 89b8 e2be 9955 773e da97 023f 0f44 873e
000000c0: 7df0 e4bd ddf1 1b3e 9f0a 1d3d 7ba7 43be
000000d0: 8f73 83be e7c1 963e cf74 283f dacd 0abe
000000e0: 0e39 1a3d 17d4 853d 9ac6 053e 9bd3 393d
000000f0: ce35 4b3e 8058 babe bf4b d4be 00d7 5fbe
0.16694322 0.061796825 0.32925776 0.061068773 0.7188038 0.21770738 -0.09749267 -0.07107081
-0.30051562 -0.282257 -0.12827694 -0.22265936 -0.32322225 0.015398811 -0.15532635 -0.40228924
-0.2893274 0.4446634 -0.22100183 -0.30004305 0.014070027 0.5203147 0.07665603 -0.26523384
0.00068083685 0.025257254 -0.20544718 -0.17459823 -0.03163855 -0.09947374 -0.09066719 0.034034308
0.15660706 -0.0027722267 -0.051744822 0.08194185 0.14890927 0.076405086 -0.043404434 0.10583753
0.18340293 -0.061747897 0.064691916 0.26338312 -0.44281414 0.24153747 0.5101296 0.26419112
-0.11178682 0.15228982 0.038340207 -0.19106857 -0.25674102 0.2944481 0.65803236 -0.13555089
0.037652068 0.065345936 0.13064042 0.04536782 0.19844744 -0.36395645 -0.4146404 -0.2185936

conv3.convs.<node___to___node>.lin_l.bias f4 [8]
00000000: f438 60bd e81f 3f3e 0a28 d53e b5b9 57be
00000010: 9f82 d93e 538f e23c 21cd 02be 589d bbbe
-0.054741815 0.18664515 0.4163211 -0.21066935 0.42482468 0.027656233 -0.12773563 -0.3664348

conv3.convs.<node___to___node>.lin_r.weight f4 [8, 8]
00000000: 2c5b 953e 6ffb eb3e 2b1b 94be 1f72 0abe
00000010: 5e67 6f3e 82d2 593e 7736 10be c3e8 a6be
00000020: 4898 a93e 5c9e 43bd b4ea b7be 8a10 0d3f
00000030: 674f e03c f867 42be eb89 27bd f093 173f
00000040: 1d8b 7a3e 346c f1be 12c8 d23c 2bcf a3be
00000050: 4560 f6bd a5bb 063f 8031 ad3e e936 92be
00000060: 7172 653b 75c8 a73e e60d d33e 5d18 d13c
00000070: 0833 08bf e0df dc3d 5ffa 313e 9f9a 333d
00000080: 2145 03bf bcfa 49be e37d cabd 1417 a3be
00000090: 84b3 dd3e a16a f0be ab8c f03d 6bc6 c7be
000000a0: 5540 6d3e b55c d73e 5441 123e a90b d33e
000000b0: 4f57 22be e812 1cbe ed88 08bd 19b3 273e
000000c0: b908 a9be f4e8 8f3e a55f a93e fd62 983e
000000d0: c315 aabe 50d7 84be 6c6e 013f 0521 5e3c
000000e0: cdf0 d23d 9945 ab3e 8b2b d3be dcc4 2bbe
000000f0: 99ae dabe 4924 fb3e cbea cf3e 4f55 1abe
0.2917112 0.46090266 -0.28926978 -0.13520096 0.23379275 0.21271709 -0.14083277 -0.32599458
0.33123994 -0.047758445 -0.35921252 0.5510336 0.027381612 -0.18984973 -0.040903013 0.5921011
0.2446713 -0.47152865 0.025730167 -0.31993994 -0.12030081 0.5263007 0.33826828 -0.28557518
0.003501084 0.32770124 0.4122154 0.025524313 -0.5320287 0.10784888 0.17380665 0.04384863
-0.5127736 -0.19724554 -0.09887292 -0.31853545 0.43301022 -0.4695635 0.1174558 -0.39018568
0.23169072 0.42062917 0.14282733 0.41219833 -0.15853618 -0.15241587 -0.033333708 0.16376914
-0.33014467 0.28107417 0.33080783 0.29763022 -0.33219728 -0.2594552 0.50559115 0.013557677
0.10299835 0.33451536 -0.41244158 -0.16774315 -0.42711332 0.4905112 0.4060882 -0.15071605

relation_pred.weight f4 [11, 16]
00000000: 3847 333e e88e 343d 137c 74bd 8f1c 6e3e
00000010: 0292 aebe 7ddd 8eba c80d 643e 98a0 c33d
00000020: 3721 27be 28fe 243e f65c 8fbc be54 69be
00000030: bdce e9bc cd3a f83d 4aa7 3abc 8850 afbe
00000040: 77fe 11bd 1d14 c2be 2362 cfbd 31a8 87bc
00000050: 068f f63d 8035 c13d 48ba 2a3c ce1d 0fbd
00000060: e576 88be ceab 0b3e 4057 293e 4944 64bc
00000070: 2627 87be 7cb3 c03d 5a5f 6f3e 930e 29bd
00000080: 7cc8 80bd e7be e1be 9573 1fbe 8ac6 68bd
00000090: fccb b13d e133 313e 87dc fa3d ec4d b43d
000000a0: 6f2a bcbd d2d1 85be 58d2 b83c 7255 bb3d
000000b0: 0e24 903e 565e babd e917 bd3e 970d 83bb
000000c0: 69de 21bc 3b1c b03c 32d1 97be 388c 51bb
000000d0: 5051 8fbd f56e 47bc 7649 2f3d 71a2 2cbe
000000e0: 3aae 35be 7fc6 413e 7ef7 6cbe 423a a43a
000000f0: 324b 89be 82ae 333e c01d c83b 81b5 a43e
00000100: 738a d5bd 6349 1dbb d54b c4bc 565b 2dbe
00000110: 13ad bebd a465 3a3e 04a6 3b3e 1730 3c3d
00000120: 9b47 dbbd 6e5f e6bd 1040 a4be 1e2a b3bc
00000130: 224c 363e 84ef a3be 4ded 63bc 8659 b2bd
00000140: fc65 a2be 6351 933d 88d4 f03d 8718 e6bd
00000150: 0041 db3e e91b 07bf ef5b 86bc 5536 9f3e
00000160: 50a5 3abe 19b5 953d e350 663e b358 b9b8
00000170: c4b3 04be 767d 8c3e 7ede 323e ce3b 97be
00000180: 19c5 12be 91c5 99bc 97b3 80be 9e65 19be
00000190: 811a 04bd 262a 573e 505c 8fbe 30cb 2bbe
000001a0: 1c27 103d 62c6 c1bd 1e4a 493e 7ad3 a3be
000001b0: 071f 89bd 471e 30be a8da d8be 2f7f 31bd
000001c0: 7b3c 913e 89e3 dbbb 3b22 b73e 2e3a 91be
000001d0: 7b08 cebc fc94 9bbe b235 ccbe 275f 45bd
000001e0: 6dc3 aa3e 76e0 953d 5bc3 8cbd fb21 a83e
000001f0: 00e2 2fbe 385d 2cbe 1522 cc3d 43e4 5c3d
00000200: 99f5 3dbd d80b c33e 122d 03be 19fa 0c3e
00000210: fc4d 1f3d 6643 0f3d 8767 81bc 8b9f 9abe
00000220: 2e0c a2be 2f61 863e 4182 383e 4c06 1fbd
00000230: 870d 69be a5fd b73c f5c7 a63d b6a8 54be
00000240: c191 353c e1e5 e43c c528 10be 3552 393e
00000250: bce7 85be d836 e73d 361a 253d cd8b 8a3d
00000260: cf68 3e3c 18c8 9abd 346b c73e 8802 97be
00000270: 2063 073e fce8 263d 71df bfbe 5e3d 6cbc
00000280: 4662 053d 3b95 b1bd 62c2 98be ea6f ba3d
00000290: 7989 7dbe 94f0 593e f27a 3f3d 1718 54bc
000002a0: 1c40 003e 44a7 97bd edad fc3d 8976 dd3e
000002b0: 4690 0bbe 24b6 c6bc c719 433e a147 023e
0.17507637 0.0440816 -0.05968864 0.23253082 -0.3409577 -0.0010899749 0.22270882 0.09552115
-0.16321264 0.16112578 -0.017500382 -0.22786233 -0.028540963 0.1212059 -0.011392424 -0.34241128
-0.035643067 -0.3790597 -0.1012614 -0.016559692 0.12038998 0.094340324 0.0104203895 -0.034940533
-0.2665321 0.13639757 0.1653719 -0.013932296 -0.26397055 0.09409234 0.23376217 -0.041273665
-0.06288239 -0.4409096 -0.15571435 -0.056829967 0.08681485 0.17304946 0.122490935 0.08803925
-0.09187781 -0.26136643 0.022561237 0.09147157 0.28152508 -0.091000244 0.36932305 -0.003999423
-0.009879687 0.021497836 -0.2965179 -0.0031974446 -0.06997931 -0.01217245 0.042794667 -0.16858841
-0.17742243 0.18923377 -0.23141286 0.0012529569 -0.26815182 0.17547038 0.006107062 0.32169726
-0.10426798 -0.002400004 -0.02396194 -0.16929373 -0.09310355 0.18202835 0.18325049 0.0459443
-0.10707017 -0.112486705 -0.32080126 -0.021870669 0.1780248 -0.32018673 -0.013911557 -0.087084815
-0.31718433 0.07193258 0.11759287 -0.11235147 0.4282303 -0.5277696 -0.01640126 0.3109614
-0.18227124 0.07309932 0.22491793 -8.838009e-05 -0.129592 0.2743947 0.17467687 -0.29537815
-0.14333 -0.018770965 -0.25137016 -0.1498017 -0.03225184 0.21012172 -0.28000116 -0.16776729
0.035193548 -0.09461667 0.1965718 -0.3199728 -0.06695371 -0.1719905 -0.4235432 -0.043334182
0.28366455 -0.006710474 0.35768303 -0.283647 -0.025150528 -0.30387104 -0.39884716 -0.048186447
0.33352223 0.07318203 -0.068731986 0.32838425 -0.17176056 -0.16832435 0.09967438 0.053928625
-0.0463768 0.38094974 -0.12810162 0.1376728 0.03889273 0.034976386 -0.015796436 -0.30199847
-0.31649917 0.2624602 0.18018438 -0.038824365 -0.22759067 0.022459814 0.081436075 -0.20767483
0.011082114 0.027941646 -0.14078052 0.18097766 -0.26153362 0.112897575 0.0403082 0.06764946
0.011621668 -0.07557696 0.38948977 -0.2949412 0.13221407 0.040749535 -0.3747516 -0.014418928
0.032564424 -0.086710416 -0.29835802 0.09103377 -0.24759473 0.2128318 0.04674811 -0.012945197
0.12524456 -0.0740495 0.12337861 0.43254498 -0.13629255 -0.024256773 0.19052802 0.12722637

relation_pred.bias f4 [11]
00000000: 5f05 b6bd 6cff eb3d 07c0 883d 3636 8e3c
00000010: 1a92 1c3e 2033 633e 9b6f c53d 9e57 ef3d
00000020: b288 34be 85f9 cbba b23d ae3e
-0.08887743 0.11523327 0.06677251 0.017359834 0.15290108 0.22187471 0.09640428 0.116866335
-0.1763027 -0.0015562034 0.34031445
