ShadowWeave/Feature Encoding/ShadowWeave(without_features).pth (torch, 34059 bytes, 12 tensors)

node_type_embedding.weight f4 [11, 128]
00000000: f47f 3ab6 745a 0e40 0786 edbd c714 45af
00000010: 12ce f032 fca3 063c c0e6 f43f bb91 b8bf
00000020: cc2a 622b ee4a 103f c348 143f ceaa 823f
00000030: 71a6 45b8 a7a6 612c 2038 c9b8 7eb8 eebc
00000040: 1892 2c3f bf23 c43e eec7 222e 08f4 efaa
00000050: 456e dbbe d0b8 02bf f6a3 d13e e562 eabe
00000060: b03d c23d f2bc 213f f332 0bbf ace4 ef3d
00000070: ecc0 833a 9680 803e 1e29 823d 65ae c3bf
00000080: 8d7a 283e 2ebe 91be 9504 473f 04e8 cf3e
00000090: 8eb3 3abf f4fd cbbd c8ae 303e 90db 0b3d
000000a0: 17b4 833d 96d5 23b3 8623 ffbd 37a7 a9bf
000000b0: 2e99 edbe fc91 59bc 36eb 933e 187e 94bf
000000c0: 2ad8 a1be a1fb c8be 8be4 0fad ba0c 403e
000000d0: 4b5a 6e3f 9e6c d53e 9341 14be eba0 c5bf
000000e0: 9c96 3d3c 20d4 d93f 9590 2fbf c8da da3c
000000f0: 3f29 c0bb 3d99 9037 d861 11c0 fd42 9a3f
00000100: 36d8 0fbe 80f9 0a3f 6927 5fbf c9f2 efbb
00000110: 31e5 7bbe e3a1 57bf ce6a adbd f492 32be
00000120: f7e0 87be 7e58 0cbf 1452 9e3f 7891 cf3d
00000130: 8967 d8af 8537 61bf 9296 23bd 1d27 323f
00000140: 8142 1f3f 7bcf b3bf 43a4 0e3d 43ce 233f
00000150: 5460 c5bd aaab 6038 d054 f236 e55a 87bf
00000160: 9dcd 853e 0873 bbbe 5f0f 5c2e a11a bd3d
00000170: aea3 4cbf 5434 923d 9b12 533f b843 aab0
00000180: c819 fc3e 372f 26be 20c0 fbbb ce9f 13bf
00000190: 8f10 5a3f 28c7 e1bd 256b e23d f783 b62f
000001a0: dee4 693f 1463 b0b4 3c5e 3b3f a687 813e
000001b0: 039d 1f3e c008 ab3e 56c9 0dbf 261b 88be
000001c0: a66f 2abe fdaf 71be de03 4b3f 98b3 0dbe
000001d0: ca8b 8a3e 47c3 1e3f a23f a5bf 6239 da3f
000001e0: dcda 4ebe 2a6c a63e a6bd 453a 5e34 73bf
000001f0: 10f6 89be 2090 01be 6cda 9fb1 39b5 133e
00000200: 573f 8b3f ffc5 ed3e 04f3 063f 6421 273e
00000210: 5b8f 8abc 869f 8e3e 8eac 393f 7eb3 1d40
00000220: 2fb2 e3bf d5bf cf3e 1e89 183f 18e8 27bf
00000230: 0ffb 19bf bb0c 82bf 7a70 bebd 7ebe 423f
00000240: b1ee a4bf 1bd1 88be 7d62 fbbd 4285 793e
00000250: 2aec 02bd b881 2d3e 0079 363f 7cc4 1bbf
00000260: 7fe5 13c0 a935 14bf 11bc 1bbf 9dd0 babf
00000270: f5e1 0ebf 4df3 0f40 79aa 283f bf5b d9bd
00000280: 4d3b 33bf 275a a13e e4b0 673f aa3b 593e
00000290: 5f07 2b3f 1801 43bf 2a96 bd3e 5c1d c03f
000002a0: 2fd6 973f ff17 3e3f 04e3 bc3f 8186 85bf
000002b0: 803f 24c0 bc86 1640 0a32 8bbf b212 ccbf
000002c0: 0a3c 1140 a192 3fbf 2766 94bf 4969 f33c
000002d0: 023b d73f 8e7b c93f 1e20 9ebf 155f d1bc
000002e0: 9dc5 1cbf 21ce 3abf a225 a83f cb9b 683d
000002f0: 2889 b43f 446f b23f 7d27 8dbf d21e 243f
00000300: d2a8 70bf 7020 7d3e 5212 9ebe c7cc 78bf
00000310: 0075 3ebf 5ded 1c3e 8e44 81bf 998d 3b3f
00000320: 9fe2 a63e e926 f8bf 5ef4 0cbf 25f8 af3f
00000330: a2ea 6a3f 3042 38bf 0308 b23e 6ddc 08bf
00000340: 3bf0 01be f23b adbf 0142 f83f cbd0 cdbf
00000350: 467b c2be d83c bb3e bb62 203f ae21 31bf
00000360: 0ed7 0640 8b8f 97bf c5bd dbbf 07d4 a7bf
00000370: 581b 26bf 8b24 323e 7122 b9be 1388 b83c
00000380: f07e 40bf b969 a6bf 0b09 033f db82 f13e
00000390: ce36 1a3f b6a3 733f 8d1e 8f3e 0bb7 793f
000003a0: afc9 8c3f 0e4b 7fbd af4c efbf dff2 9bbf
000003b0: 1ac1 8fbf 50a9 0c40 8739 41c0 79ff 07bf
000003c0: 97c3 763f d5b6 dabf 9c29 c6be 2dbf 18be
000003d0: 6e39 1940 92ee d9bd 04b2 eb3d abdb 7dbf
000003e0: d1ec 0abf 5b04 11c0 0cff e6bf d2ae 6f3f
000003f0: 2e35 213e 030a 593f d42e 2cc0 a6b7 963f
-2.7790638e-06 2.2242708 -0.11597829 -1.7924427e-10 2.8033387e-08 0.008217808 1.9132919 -1.4419473
8.035072e-13 0.56364334 0.57923526 1.0208375 -4.712347e-05 3.2066934e-12 -9.594881e-05 -0.029140707
0.6741042 0.38308522 3.701211e-11 -4.262426e-13 -0.42857566 -0.5106325 0.40945405 -0.45778576
0.09484422 0.6317893 -0.5437462 0.117135376 0.0010052002 0.25098103 0.06355499 -1.5287596
0.16453 -0.28465408 0.77741367 0.406067 -0.7293023 -0.09960547 0.17254174 0.034144938
0.06430834 -3.814565e-08 -0.124579474 -1.3254155 -0.4640593 -0.013279434 0.2889039 -1.1600981
-0.31610233 -0.39254478 -8.179356e-12 0.18754855 0.93106526 0.4168443 -0.1447814 -1.5439733
0.011571553 1.701786 -0.6857999 0.026715651 -0.005864292 1.7237495e-05 -2.271597 1.2051693
-0.14047322 0.54286957 -0.8716951 -0.0073226434 -0.24599148 -0.84231395 -0.08467637 -0.1743887
-0.26538822 -0.5482253 1.2368798 0.10135168 -3.9363737e-10 -0.8797534 -0.039938517 0.6959093
0.6221085 -1.4047693 0.03482462 0.63986605 -0.09637514 5.3565636e-05 7.2220355e-06 -1.0574614
0.26133433 -0.366112 5.003586e-11 0.09233595 -0.79937255 0.07138887 0.82450265 -1.2388375e-09
0.4923842 -0.16228949 -0.007682815 -0.5766572 0.85181516 -0.11024314 0.110555924 3.3199374e-10
0.9136485 -3.2854643e-07 0.73190665 0.25298804 0.15587239 0.33405113 -0.5538534 -0.26583213
-0.16644153 -0.2360229 0.79302776 -0.13838041 0.27059776 0.6201672 -1.2910044 1.7048762
-0.20200676 0.32504398 0.00075432134 -0.9500178 -0.26945543 -0.12652636 -4.6523407e-09 0.144246
1.0878705 0.46440122 0.5271456 0.16321331 -0.01691406 0.27856082 0.7252892 2.4640803
-1.7788752 0.40576044 0.59584224 -0.6558852 -0.6014871 -1.0160135 -0.09298797 0.7607192
-1.2885343 -0.26722035 -0.122746445 0.2436724 -0.031963505 0.16944015 0.7127838 -0.60846686
-2.3108823 -0.5789438 -0.6083384 -1.4594914 -0.55813533 2.249225 0.6588512 -0.10613202
-0.7001236 0.31514093 0.9050429 0.21214166 0.6680812 -0.76173544 0.3702863 1.500896
1.1862239 0.74255365 1.475678 -1.0431672 -2.5663757 2.3519735 -1.0874646 -1.5943205
2.2692895 -0.7483311 -1.1593674 0.02971329 1.6814883 1.5740831 -1.2353551 -0.025558034
-0.61239034 -0.7297078 1.3136485 0.0567892 1.4104357 1.3940206 -1.1027676 0.6410953
-0.940076 0.24719405 -0.30873352 -0.97187465 -0.7439728 0.15324922 -1.0099046 0.73262936
0.32594773 -1.9386874 -0.55060375 1.3747603 0.9176427 -0.71975994 0.34771737 -0.53461343
-0.12689297 -1.3533919 1.9395143 -1.6079344 -0.37984675 0.36569858 0.6265065 -0.69192016
2.106876 -1.1840681 -1.7167288 -1.3111581 -0.64885473 0.17396753 -0.3615909 0.022525823
-0.7519369 -1.3001014 0.51185673 0.47170147 0.60239875 0.9517168 0.27952996 0.97544926
1.0999049 -0.062327437 -1.8695277 -1.2183493 -1.1230805 2.197834 -3.0191362 -0.53124195
0.96392196 -1.7087046 -0.3870362 -0.14916678 2.3941302 -0.10641207 0.11508563 -0.9916331
-0.54267603 -2.2658908 -1.8046584 0.9362613 0.15742943 0.847809 -2.6903582 1.1774795

conv1.convs.<node___to___node>.lin_l.weight f4 [16, 128]
00000000: 847c 1f3d 9eb4 2a3d dfc1 cb3d 4f5d 93bd
00000010: b31a b13d 917d 5e3c 884e 8abb 5812 8e3d
00000020: 3267 453c 852d 5b3d 5dc6 34bd 39c6 c6bd
00000030: 7819 be3d ed94 8c3c 3069 c03d ca49 febd
00000040: 020d 07bc 3c3d 963b 5716 8cbd e62c 0bbe
00000050: 9fe8 c13d d337 ea3d b6bd 353d 821a d23d
00000060: 2643 84bd f1ae 7abd 8b88 0abc f73e 7c3d
00000070: f7c1 d23c 5494 103e 4d3c 1e3d 70e1 8fbc
00000080: b9d6 95bc a6ac c1bb 572f f1bd 78c7 c3bd
00000090: 6ff6 a2bd 12f2 eebd 886f b63d b885 f23d
000000a0: 4ddf c43d bcef a63d c9a6 703b 3ea8 3e3d
000000b0: 98e8 da3c bb66 e63d 72f7 37bd 307c 823d
000000c0: d1cb 9c3d cf7e 39bc 7923 a5bd 6fef 7a3d
000000d0: 2e0d d4bc 6b56 0e3e 5202 d6bd 1377 02bd
000000e0: 9fce 1f3d feb6 3dbd ba00 e33c 8905 d9bd
000000f0: 6141 77ba e17b f43d d531 c5bd 4f44 bc3d
00000100: ea78 a0bd ec75 e4bd f7db 233d 0416 cebd
00000110: 0f12 9a3b 814a 6f3d dddd b8bd 3ba0 94bd
00000120: 0911 bc3d f4ea e5bd 68a6 b8bd 7e33 ee3d
00000130: 7c23 e93d f8dd 70bd 62e2 cebc de50 d5bd
00000140: 8336 a83d ac6f ca3d 825f 2e3d 8aba dcbd
00000150: e87e 01be 4a30 7bbc 1b6c 563b a17c 7c3c
00000160: 2be6 ac3c 0c95 1b3a efb0 d2bc 201e 78bd
00000170: 37be 0d3d 8a8f 08bc 4649 b0bc b122 92ba
00000180: c249 e7bd 7d4f 83bd 7b1e 99bd 5e7c 1b3d
00000190: b450 d0bc 52fc 0c3d 705f b03d 4111 f63c
000001a0: 9458 0dbb d1f0 c0bd a9e4 003d 65dd 43bd
000001b0: ef34 94bd 068d 0a3d 23f8 33bd 3b66 f5bc
000001c0: 57e3 9ebd 06c8 9abd 9625 febc 0c22 b13c
000001d0: 7ea0 c43b da1a 0b3e d231 053e e2b9 913d
000001e0: 9b1f 8a3d 30c8 19bd ea83 0dbe 89df 903c
000001f0: 7dad 123d a5b8 ea3c 6b16 9e3c 47ac 47bd
00000200: 6c8f dbbd bb08 09bc bc86 173d fbbe 17bd
00000210: 489d 123e ef61 6c3d 28f4 f6bc d0ae 783d
00000220: df09 b53d ef0c 9139 5763 c53d 6ce3 db3c
00000230: 36c0 1f3d 694a 05bd f2c8 c33d 7dde 083c
00000240: 1d86 24bc 81e8 843d eb9e 2cbd 24a4 1abc
00000250: 61b3 903b 76ec 0c3c 1f76 b73d af4d 323e
00000260: d75b 4d3c d9bc cdbd 3956 8d3d dd46 683d
00000270: 636f e63c 0fb2 99bc 8a3e 013c 4491 7b3d
00000280: d979 5cbd 269f a3bd 63b5 84bc acb3 94bd
00000290: 22ec eabd ce19 ddbc c9d9 cb3d 64cc 2e3d
000002a0: b038 a9bd 03c1 3a3d cd65 4f3d 6f73 08bb
000002b0: 1c96 0e3e 8f84 3f3d 08fc 443d b51c 8cbd
000002c0: f1a9 88bd 18e8 cebc 7917 fb3d 099a f8bd
000002d0: b65c 273d 1bc2 d63b 4de7 9c3d 8b10 10bd
000002e0: 6c06 7b3d edb4 6b3d 0a1c 343d 7a4b 0a3b
000002f0: 615a 6b3c 8874 c8bd 49a3 32bd 0439 afbd
00000300: d5e6 27bd bfb6 2dbe 49d4 d2bd 8f0d 0cbb
00000310: 0266 2e3d 887f 513d c285 80bb 69d5 88bd
00000320: 3cc1 84bc bdbe 83bd 9e03 00be c7ae 2ebd
00000330: 1316 313d 4f76 f1bc 9250 f1bd b721 39bd
00000340: b4b7 b03c f115 ed3c 8728 823d 4044 eb3b
00000350: 494c d2bd bd1c c73c 1acb 20be 22c3 7fbd
00000360: 20e0 9a3d 385b e2bc 560e ab3d 3007 efbd
00000370: 1132 463d 2f83 c93d 5d68 0f3d 6aca 4e3d
00000380: f767 8abd 11c9 5fbd 8755 a4bd 4906 e4bc
00000390: e7c7 a6bc 07dd 48b8 d0e8 67bc cc34 b2bc
000003a0: ea15 66bd 7f4c 8bbd 0900 333d 5f0b 063d
000003b0: 9cdd 61bd 2be2 32bd ab68 34bb a24f 7d3d
000003c0: 7cb4 f1bd 5781 0cbd ed8f ab3d ddb3 6f3d
000003d0: fef0 90bb bffe bf3d 3b5d 083e c1c1 483d
000003e0: 6cc0 d83d f7b1 fd3c 688b 30bc be2e b93d
000003f0: 6231 f4bd 14d1 33bc 5371 8e3d 6787 f1bd
0.038937107 0.041676156 0.09949087 -0.071955316 0.086476706 0.013579742 -0.0042207874 0.069370925
0.012048529 0.053510208 -0.044134486 -0.09705777 0.092822015 0.017160857 0.09395063 -0.12416418
-0.008242847 0.0045849364 -0.068401985 -0.13591346 0.09468197 0.11436429 0.044370376 0.10258962
-0.0645812 -0.061201993 -0.008455406 0.061583485 0.025727255 0.14119083 0.038631726 -0.017563552
-0.018290864 -0.005910474 -0.117766075 -0.0955953 -0.0795716 -0.11667265 0.08907992 0.11841911
0.09612904 0.081511945 0.0036720505 0.046547167 0.026722237 0.11250063 -0.044913717 0.06371343
0.076560624 -0.011321737 -0.080634065 0.061263498 -0.02588519 0.13900153 -0.10449661 -0.03185184
0.03901541 -0.046317093 0.027710307 -0.10596759 -0.00094320445 0.119376905 -0.09628645 0.09192716
-0.078355625 -0.11155304 0.040004697 -0.10062793 0.00470186 0.05842066 -0.09026692 -0.07257124
0.09182937 -0.112264544 -0.090161145 0.11630915 0.11383721 -0.058805436 -0.025254432 -0.10415815
0.08213522 0.09884581 0.042571552 -0.10777767 -0.12646067 -0.015331337 0.0032718244 0.015410573
0.021105846 0.00059349905 -0.025719134 -0.060575604 0.03460523 -0.008335004 -0.021519314 -0.0011149255
-0.11293365 -0.064116456 -0.07476517 0.037960403 -0.025429107 0.03442032 0.08611953 0.030037524
-0.002156769 -0.09420932 0.031468067 -0.04781856 -0.07236659 0.033825897 -0.043937813 -0.029955974
-0.077582054 -0.07557683 -0.031023782 0.02162268 0.0060005775 0.13584462 0.13007286 0.071155325
0.067443095 -0.03754443 -0.13819852 0.017684715 0.035809983 0.028652498 0.0192978 -0.04874828
-0.10720715 -0.008363898 0.036993727 -0.037047368 0.1431781 0.057710584 -0.03014572 0.06071359
0.088397734 0.0002766619 0.09638088 0.026841842 0.039001666 -0.032541666 0.09559812 0.008353827
-0.010041741 0.06489659 -0.042143743 -0.009438548 0.004415915 0.008601299 0.08958077 0.17412446
0.012534103 -0.100457855 0.06901211 0.056708205 0.028129285 -0.018761663 0.007888446 0.061417833
-0.05382714 -0.079893395 -0.016199773 -0.07260832 -0.1147082 -0.026989844 0.099536486 0.04267539
-0.082627654 0.045594227 0.050634194 -0.0020820757 0.1392445 0.046757277 0.04809192 -0.06841413
-0.06673039 -0.025257155 0.122603364 -0.12138755 0.0408599 0.006553901 0.076613046 -0.035172027
0.06128542 0.05754559 0.043972053 0.0021102116 0.01436481 -0.097878516 -0.043612752 -0.08555797
-0.040991623 -0.16964243 -0.102943964 -0.0021370386 0.04257775 0.051147014 -0.003922195 -0.0668133
-0.016205423 -0.06432865 -0.1250138 -0.04264715 0.043233942 -0.02947536 -0.11782946 -0.04519817
0.021571971 0.028941127 0.06355386 0.007179767 -0.102684565 0.024305696 -0.15702477 -0.062441953
0.0756228 -0.027631387 0.08352344 -0.11671293 0.04838759 0.098394744 0.035011638 0.050486006
-0.06758111 -0.05463511 -0.080241255 -0.027835028 -0.020358993 -4.7889564e-05 -0.014154628 -0.021753691
-0.056173243 -0.068017 0.043701205 0.032725688 -0.055142984 -0.04367272 -0.0027528207 0.061843522
-0.11802003 -0.034303036 0.08377061 0.05852114 -0.0044232598 0.09374761 0.13316815 0.049012903
0.105835766 0.03096865 -0.010775425 0.090421185 -0.119234815 -0.010975141 0.06955209 -0.11793404

conv1.convs.<node___to___node>.lin_l.bias f4 [16]
00000000: 277b 7e3d 9a41 4b3d 4243 f03d 2a38 083e
00000010: d76b 9f3d 7137 a93d 8615 a3bc 2e59 fd3d
00000020: 185c 943d b971 8e3d fa4c 883b 0015 323e
00000030: c07d c13d aa52 ba3d 777d ef3d aeb1 e13d
0.062129166 0.04962311 0.117315784 0.13302675 0.07784241 0.08262528 -0.019907724 0.12370525
0.07244128 0.069552846 0.004159567 0.17390823 0.09447813 0.09097798 0.116938524 0.11020218

conv1.convs.<node___to___node>.lin_r.weight f4 [16, 128]
00000000: 7cc6 853a 9ebe db3d 99b2 5d3d 402a 35be
00000010: 30ee 2d3e ee89 633e 3bff 663d 2a56 28be
00000020: e0ac 133e e33a 1cbe 65a8 1bbe 0e1d 9abd
00000030: 6b22 143e 8329 873d 57ac 093e 96e3 6dbe
00000040: 6ccf 3bbe 266a 2c3d 9bb3 5dbe bd07 a7bd
00000050: ae86 d63d c29a 853d 660e 1fbd a1e5 1d3d
00000060: 2bee 693c 8842 9e3d 0407 1c3e d79e 38bd
00000070: 93c5 a1bd b141 6cbd 882e 03be 8a03 2c3e
00000080: b182 eabb 4a5d fcbc a3c0 2cbe ef48 c5bd
00000090: 33e0 bbbd 3724 9bbb f704 d93d 22f2 323e
000000a0: 172a 29be a5c3 fc3d 0261 233e df64 123e
000000b0: f54b 393e f311 6d3c a470 0d3e 281e 273e
000000c0: 74eb 88bd 2c1c 093c a12f 2aba 8152 263d
000000d0: f7f4 a3bd 0f56 8f3c f647 283e 9e32 81bd
000000e0: 2a13 a0bd ab93 36be d511 dcba 3c77 68be
000000f0: b438 11be 8ff5 ebbd 1bee 383d 3736 a93c
00000100: dd9f e2bd 57c1 31be 7a90 033d d72d 84bd
00000110: 07f6 1dbe 9f17 673d 95e5 8bbd ab7b 8fbd
00000120: 0b27 093e cc8f dc3c 245d 14be b54f 39be
00000130: df02 71bd ca01 36be ca11 ccbd 61ce 0bbe
00000140: 880b 4b3d 8e52 33bd 1ef6 c13d f3a8 f43d
00000150: 73ff 5dbe 490f 4cbe 1590 36be 669b 503e
00000160: 7959 1b3e a513 38be 3bf6 2f3e f50c aabc
00000170: 5204 723e 3e0e 593e 8927 b8bd 3b71 84bd
00000180: 0135 98bd 9833 08bd f706 47be fc05 23be
00000190: 9bfd e93c a801 e63d 2230 2d3e c0c6 2abd
000001a0: 2348 e53d 844f 02be ddf5 453e 77ae 12bd
000001b0: 34b4 b33d e547 283d 5cd6 da3c 031b d9bd
000001c0: e168 4fbe d8ea 4f3e 61b0 8a3d c7ed 31be
000001d0: ef49 aabd 5311 083e f0de 2d3e 5124 cb3d
000001e0: 30f2 0d3d 5305 1ebd 5635 d4b9 f366 2b3e
000001f0: 9120 ab3d fa92 58be 104b 5d3e 44f8 2dbd
00000200: 0b1e 8d3c f072 503e cb60 1e3e 008b 423d
00000210: 8213 43be 784d 76be 23db 1b3d cd5a c83d
00000220: ef9a 0f3e ab27 f23c 5357 d9bd 8fc0 85bd
00000230: 9c1a 1c3e dcd3 81bd 91d3 1fbe f829 fbbd
00000240: a712 c43d d932 2b3d cfb7 9f3d 9b30 bc3c
00000250: ad7d af3d ce0a 29be 7386 4fbd 9c0d 383d
00000260: d214 d5bc b4fe 4d3e 6d5e 29bc 9554 363d
00000270: c52e 023e bb32 aa3d 41cd 32be ae8a b1bd
00000280: 45fd b33d e58d a13d aa24 cbbd aa45 323d
00000290: e60f bfbd afea ce3d cb0d 4ebe 99e5 7cbd
000002a0: 3321 9dbd 7fe5 cbbd 9936 553e 693f 623d
000002b0: 2fda 823d addd 17bd 30da 573e 1f96 3d3d
000002c0: a19b 06be 7bf4 5cbe 504b e0bd 0d79 c9bd
000002d0: 0431 f9bc 1313 51be 0951 c23d 5576 743d
000002e0: 8294 763e f11e b7bc f17d 5bbc 0f24 d53c
000002f0: 433f 55bd ec94 13bd 4e79 8a3d 4c7c 253d
00000300: 6f55 573e f6e0 8dbd 6ce1 9fbd 1431 4c3c
00000310: 0942 1b3e 1c71 113e 0085 00bc d625 aebb
00000320: c160 3abd 6256 8e3d fb19 383e cdbf a23d
00000330: ccf4 403d a906 b5bd 5007 09be f9d7 613e
00000340: 2e5c a33d 8594 f63d eebe 57be 021e dbbd
00000350: cba3 293e e795 c73d 95fb 28be 1fc6 31bd
00000360: b65a 8abd a1c4 413d 7d70 cabd 8171 5c3d
00000370: ffeb 153c 99b6 52bd d695 cf3d c3aa e8bb
00000380: 4eb8 96bd 73ba 863d 818c d83d c068 d53d
00000390: 2fd5 98bd 92b8 2fbe 1110 113e 16ef 1c3e
000003a0: 91d9 03bc 132b 3c3d 7b67 d43d 12d4 253e
000003b0: 5855 1bbc a525 4fbd 2a08 14bd 0d7f 093e
000003c0: cbda 0bbe 3be8 113e 6a98 67be 6059 813d
000003d0: 95b8 3fbe 0a58 503d ed7d 013e e5d8 af3d
000003e0: 0caa d33b 3652 13be 5bcc f83c 7e35 3ebe
000003f0: 1ef8 87bd 42fd e23d 9a96 b2bc 9f6c aebd
0.0010206248 0.10729717 0.054125402 -0.17691898 0.16985393 0.22220585 0.05639575 -0.16439119
0.14421415 -0.15256839 -0.15200956 -0.07525073 0.14466254 0.065997146 0.13444649 -0.23231348
-0.18340844 0.04209342 -0.21650545 -0.08155773 0.10474907 0.06523658 -0.03883209 0.03854907
0.014277975 0.077275336 0.15237051 -0.045073356 -0.078990124 -0.057679836 -0.12810719 0.16798225
-0.007156693 -0.030806202 -0.1687036 -0.096330516 -0.09173622 -0.0047345418 0.1059665 0.17475179
-0.16519962 0.12342004 0.15954974 0.14296292 0.18095382 0.014469611 0.138125 0.16320097
-0.06685534 0.008368533 -0.00064920826 0.040606026 -0.08005708 0.01749709 0.16433701 -0.063084826
-0.07816155 -0.17829768 -0.0016789982 -0.22701734 -0.14181787 -0.11521446 0.04514895 0.020655734
-0.11065648 -0.1735891 0.032120205 -0.06454056 -0.15425883 0.05641901 -0.06830899 -0.0700601
0.133938 0.026924036 -0.14488655 -0.18096812 -0.05884063 -0.1777412 -0.099643305 -0.13652946
0.049571544 -0.043779902 0.09470771 0.11946287 -0.21679477 -0.19927706 -0.178284 0.2037178
0.1517085 -0.17976244 0.17183773 -0.020758132 0.2363446 0.21196839 -0.08991916 -0.064669095
-0.07431985 -0.03325233 -0.1943625 -0.15920252 0.028563311 0.11230785 0.16912892 -0.04169345
0.111953996 -0.12725645 0.1933207 -0.035810914 0.087746054 0.04108419 0.026713543 -0.10600855
-0.20254852 0.2030443 0.06771923 -0.17375861 -0.08314883 0.13287859 0.16979575 0.09919036
0.034654796 -0.038579296 -0.0004047553 0.16738491 0.08355821 -0.21149817 0.21610665 -0.042473093
0.01722624 0.20356345 0.15466611 0.047495842 -0.1905041 -0.2405299 0.038050782 0.09782944
0.14023946 0.02955993 -0.10612359 -0.06530868 0.15244526 -0.06339237 -0.1560805 -0.12263864
0.0957387 0.04179654 0.077987306 0.022972396 0.08568893 -0.16508028 -0.05066533 0.044934854
-0.026010904 0.20116693 -0.010337454 0.044514257 0.12713154 0.08310457 -0.1746111 -0.08669029
0.08788542 0.07888392 -0.099191025 0.043523468 -0.09329204 0.10103356 -0.20122449 -0.0617424
-0.07672348 -0.09955882 0.20821609 0.055236254 0.063892715 -0.03707664 0.21079326 0.046285745
-0.13145305 -0.21577637 -0.10951865 -0.09837542 -0.03041888 -0.20417432 0.094881125 0.059683163
0.24080089 -0.022353621 -0.013396726 0.02601817 -0.052062284 -0.036030695 0.06761418 0.04040174
0.21028684 -0.069276735 -0.07806668 0.012462873 0.15161909 0.14203304 -0.00784421 -0.005314569
-0.045502428 0.0695007 0.17978661 0.07946739 0.047108456 -0.08839161 -0.13381696 0.22055043
0.07976566 0.120400466 -0.21068928 -0.10699083 0.16566388 0.097453885 -0.16502221 -0.043401834
-0.06755583 0.04730666 -0.09884737 0.053819183 0.009150504 -0.05144367 0.10136001 -0.0071004345
-0.07359372 0.06578531 0.10573674 0.1042037 -0.074625365 -0.17160252 0.14166285 0.15325579
-0.008047477 0.045939516 0.103713 0.1619418 -0.009480797 -0.05057301 -0.0361406 0.13427372
-0.13657682 0.14248745 -0.22616735 0.06315875 -0.18722756 0.05086521 0.12645693 0.08586291
0.00645948 -0.1438683 0.030370882 -0.18575093 -0.066391215 0.11083461 -0.021800328 -0.085168116

conv2.convs.<node___to___node>.lin_l.weight f4 [16, 16]
00000000: 597e 87be 3402 a3bd 2352 49bd b6b3 bdbe
00000010: 32b7 9cbe e070 3c3e d837 a4bd 903d 4abe
00000020: 1630 98be b214 a13e aaa5 29bb 9581 223e
00000030: 8e87 94bd 220e 1e3e 3432 f43d 8723 33bd
00000040: 6466 52be ce2e b73c d29c 91be d469 8abd
00000050: 583f 643d 5ec0 92be 966f bcbe 387c 71bd
00000060: c98a 95be 8d2c f5be a8d2 0fbe c19a da3c
00000070: 81bc b3be 471f 0dbc 8912 4bbe 6c11 99bd
00000080: 0f75 8d3c 3aee 9c3e 0c72 063e c1e8 563c
00000090: 4dd4 8e3d 0f7e 613d 919e 733e 8cc2 443e
000000a0: 5122 b23e b43e 2abe 274e 953e 6313 b93d
000000b0: 5210 3b3d 7c67 ab3c 8182 77be d694 04be
000000c0: ec22 083e 1ac4 47be 0348 c2bd bfdb 133e
000000d0: 5a33 d53c 8ea7 e13c af1a 523e 1246 c43d
000000e0: cf49 9e3d 35ab 5c3d 04cb 243e 454d 2d3d
000000f0: 7012 613e be91 823e 38e0 65be 22ae 5c3d
00000100: 48eb f7bd b61b 9a3d cfdb 413e ce33 3abe
00000110: 3aef 74bd 8dbb 61bd 0e8e 113e 7a52 653e
00000120: 25ec 07be 63ec 0c3e 0aeb 8e3e 65a3 043d
00000130: 4534 d0bd bdd4 80bc 60b3 7ebe 6b44 553d
00000140: a80b 113c 2bd8 893d 2028 de3d 01b6 3f3e
00000150: 7f93 853b 49f4 303d 8bde 89be 1f7e 74bd
00000160: 46d1 25bd f4e0 96be cecd 25be a44f 433d
00000170: d4af 4fbe 77c2 353e 180c c3be d3a5 683e
00000180: b04e cf3c 2f5d 52bc 33ee 5cbd 1d99 2b3e
00000190: 5989 753d c880 f13d 63f9 5dbc 60ce 823c
000001a0: 7baa 8abe 1278 95be b9aa 90be acd6 583e
000001b0: 30ac 14be 8e99 cebd f61e d7bd 132c c43d
000001c0: 1c02 6c3d fa82 0c3a 9eef ad3d b22f c63c
000001d0: 0b34 683c b337 b5be 7960 2bbe 463f 233e
000001e0: 39b0 313e fccd 9cbe 6ec6 ccbc 8873 2dbd
000001f0: e417 233e 711d 1c3c a645 6abe 9614 e83d
00000200: e14a 993d 4853 07be 629a 1c3e 6465 a23d
00000210: c243 233c 6229 883e 6013 3b3e b184 7dbe
00000220: 6d65 d23d 7ed3 453e c4e3 383d 78cf 6e3d
00000230: b9e5 6ebe 5835 da3d 6961 a93d 8eaf 0e3e
00000240: e985 943d 522e 6a3e b3ec 963d 986f 7c3d
00000250: 64eb 113e 2820 a43d f427 083e 015b 493d
00000260: 122f 5b3e f502 bfbd 2548 563e c1c2 273e
00000270: 7970 ce3d 1306 39bd 6aaf c43d e364 d3bd
00000280: 57ea 3dbe e363 a03c e549 3cbd c275 8e3d
00000290: 65e1 04bd 3ea5 933e 9392 ab3d 0005 e43d
000002a0: 65aa b7bd 7731 4d3e 96be 27bd 6376 413d
000002b0: 6874 773d 3ad6 073e 588a 33be dc7e 1c3b
000002c0: 6b37 003e adbf 123d 75db dcbc 0f2d 05be
000002d0: 1492 b13d 484b 78bd 8c18 5f3c e100 bb3d
000002e0: 4045 efbd cb1f 9cbe 6e11 e8be 2126 ffbd
000002f0: 0325 febd dfa3 2b3e f537 53be ef25 783e
00000300: 289d 31be b420 98bd 118f 553c d419 8cbe
00000310: d6aa c73d 67af a83d 5758 a3be c383 95bc
00000320: 37f4 c8be 8c1c 6f3e 6702 98be 4539 c13c
00000330: ccf6 eebd 3c9c 9fbe e45f bebd 603c 213c
00000340: bdc5 073e 1974 8fbe 34a4 0ebe 0be1 92bd
00000350: 9445 8ebe 313f b93e cf07 a73c 2e82 f53d
00000360: a80b 92be 33a6 a4ba e9c6 84be fd08 43bb
00000370: e385 7fbe 0a12 56be 6301 47be 45f4 a1be
00000380: 8577 263e 528e d73d 5cef 553d c90d 5f3e
00000390: 9acf 263e 3ffb f3bd 0aea bb3d 0f55 a23d
000003a0: f257 763c 0fc3 dd3c a98c 253e 1774 223e
000003b0: 7ea6 cabd 6205 dc3d 5280 263e 50ec 583d
000003c0: 66f0 d2bd 1deb 7abe 61a3 9bbe 748d 2b3e
000003d0: 5316 893e 829f 40be 1c4f 023e cd4e f1bd
000003e0: ec48 b33e e520 bf3e 814f e43e a61f adbd
000003f0: 6dd8 23be ed9c 1a3e 4075 13be 3ad4 043d
-0.26463583 -0.079594046 -0.049150597 -0.3705117 -0.30608517 0.18402433 -0.08018464 -0.19750047
-0.29724187 0.31461102 -0.0025886097 0.15869744 -0.072524175 0.15435079 0.11923638 -0.043735053
-0.20546871 0.022361185 -0.28439957 -0.06758466 0.05572447 -0.2866239 -0.36803883 -0.058956355
-0.29207447 -0.47885552 -0.14045203 0.02668512 -0.35104755 -0.008613414 -0.1983129 -0.07474026
0.017267732 0.30650502 0.13129443 0.013117016 0.06974087 0.05505186 0.23790957 0.19214839
0.34791806 -0.16625482 0.29161188 0.09036901 0.04566986 0.020923369 -0.24170877 -0.12947401
0.13294572 -0.195084 -0.094863914 0.14439295 0.026025463 0.027545717 0.20517991 0.09583677
0.077289216 0.053874213 0.1609307 0.042310018 0.2197969 0.25501817 -0.22448814 0.053877003
-0.12105423 0.07524817 0.18931507 -0.18183824 -0.059798457 -0.055110503 0.14214346 0.22394744
-0.13273676 0.1376205 0.27913696 0.032382388 -0.101662196 -0.015726442 -0.24873114 0.0520672
0.008852877 0.06730684 0.10847497 0.18721773 0.004076421 0.04320172 -0.269276 -0.05969059
-0.04048278 -0.294685 -0.1619179 0.047683373 -0.20281917 0.17749964 -0.38095164 0.22719507
0.025306076 -0.0128395995 -0.053938102 0.16757627 0.059945438 0.11792141 -0.013548228 0.015967548
-0.2708319 -0.2919317 -0.2825525 0.21175641 -0.1451881 -0.10087882 -0.10503952 0.09578719
0.0576192 0.0005360093 0.08492969 0.024192665 0.014172564 -0.35394058 -0.1673602 0.15942106
0.1735238 -0.30625904 -0.024996962 -0.042346507 0.15927082 0.009528504 -0.22878131 0.113320515
0.07484985 -0.13215363 0.15293267 0.07929495 0.009964885 0.26594073 0.1826911 -0.24757649
0.10273252 0.19318959 0.04513909 0.058303326 -0.2332982 0.10654706 0.08270533 0.13934156
0.07252104 0.22869232 0.073693655 0.06162986 0.1424995 0.08013946 0.13296491 0.049159054
0.21404675 -0.09326736 0.20925958 0.16382886 0.10080046 -0.04517181 0.0960377 -0.10321977
-0.18546425 0.01957888 -0.04596891 0.06956054 -0.032441515 0.28837007 0.08377566 0.11133766
-0.08968047 0.200384 -0.04095324 0.047232043 0.060413748 0.13265315 -0.17533243 0.0023879325
0.1252114 0.035827328 -0.026960114 -0.1300547 0.0867044 -0.06061867 0.013616692 0.09131027
-0.1168313 -0.30493006 -0.45325798 -0.124584444 -0.12409403 0.1676173 -0.20626815 0.2423322
-0.17345107 -0.074281126 0.013034598 -0.27363455 0.09749381 0.0823658 -0.31903335 -0.018251305
-0.3924882 0.23350734 -0.29689333 0.023586879 -0.116681665 -0.31173885 -0.092956334 0.009841055
0.13259025 -0.28018263 -0.13929826 -0.0717183 -0.2778746 0.36181024 0.020389466 0.119877204
-0.28524518 -0.0012561738 -0.25933006 -0.0029759996 -0.24953417 -0.20905319 -0.19434123 -0.31631675
0.1625653 0.10525192 0.052230224 0.21782602 0.16290131 -0.11913156 0.09175499 0.0792638
0.015035616 0.02707055 0.16166939 0.15864597 -0.09895037 0.10743214 0.16259888 0.05295974
-0.102997586 -0.24503751 -0.30398086 0.16753179 0.26774845 -0.18810847 0.1272549 -0.11782608
0.35016572 0.37329784 0.44591907 -0.08453302 -0.16000529 0.15098925 -0.14400196 0.032428958

conv2.convs.<node___to___node>.lin_l.bias f4 [16]
00000000: ce3d 133d f7a9 1cbe 79e7 ae3c e0c5 c6bd
00000010: bffc 53be 8a25 613e 3264 02be 456b 003e
00000020: 0467 643e 335e 1b3e 6899 8f3e ac6a 11be
00000030: 69a6 5abd 89c3 af3e b56a 5d3e b1f1 a2bd
0.035947613 -0.15299211 0.02135061 -0.097057104 -0.20701884 0.21986976 -0.12733534 0.1254092
0.22304922 0.15172653 0.28046727 -0.14200848 -0.053381357 0.3432887 0.21622737 -0.07956255

conv2.convs.<node___to___node>.lin_r.weight f4 [16, 16]
00000000: 23c6 613e 26ed 37be cf94 81be 5a44 d83e
00000010: 84dc e5bd c6c9 953e 98aa 85be d97a d03d
00000020: 045c b3bd 791e 54bc 8b21 51be 9fed 683c
00000030: eaa9 9f3e 55f3 3d3e 7392 2dbe f6a9 203d
00000040: 7b0d a5bb ddb4 9cbe f4be a03c 068b 9c3e
00000050: d938 213e ff09 f1be 19c8 493e e342 b93d
00000060: 5df0 ef3c 46b5 bd3e c4cb cf3d 6e84 4abe
00000070: 6f79 693e cabd bc3d 7a24 84be 2836 b8be
00000080: f68c 07bd c8cd be3e 9238 be3c 1e53 c0bd
00000090: 77c9 65be 9c1f b73e aab0 3d3e f9c3 74be
000000a0: 1051 933e 0b64 14be 245a b63c 3f7b 903d
000000b0: c3d5 50bd 053e 7e3e 2338 23be 5fa2 60be
000000c0: bc78 4abe 6998 abbe 74a9 3cbe 85f4 033c
000000d0: 7c99 283e 8ab8 9cbe 80a8 4c3e 2fbe 3a3d
000000e0: 71be a83e 4bc6 a0bd 1379 833e 6808 8e3c
000000f0: a6d2 eabd e1c9 ac3d 3924 5f3d a2c4 7f3e
00000100: f919 f5be 36fc 903e 1b80 d63d c404 4d3d
00000110: 9c52 7ebe 72cb de3e cc06 963e 735c 21be
00000120: 9db4 613e a1f4 d9bd 893f ccbc 7990 fabd
00000130: 6b45 04bf 4566 003e 0f06 f43d d17e 9ebc
00000140: c0f0 d6bd ba7b 713d cf98 433d b573 87be
00000150: 8b57 62be 685b c63e 38e0 353d 725d 17bd
00000160: b280 963e 9fa1 143e 7a9b b83e 74fd 22be
00000170: 13fe 31be 94e3 61be 687f aa3e 7d2e 2f3e
00000180: 70b7 a63e 3e0c 6c3e 5ee8 7c3d 180c 0f3d
00000190: 43ab 97bd 0247 903c c389 763e 2da9 ec3d
000001a0: 1c6f d7bd baa3 5f3c 65b5 dfbd 4b18 c03e
000001b0: b2de ce3e e796 0fbe 4e11 2cbe e562 16be
000001c0: 09db c7be c1b4 573e a3fc a33e e244 1ebe
000001d0: 2ddf 463e b06e 923e 80ed 8dbc ee27 183e
000001e0: 41dd 12be 59a1 4fbd 153d 66be 4f11 0abe
000001f0: 885e bdbe ece9 8ebe a64a 07be bdd1 a63e
00000200: e618 bf3e c891 c63d 2bf0 af3e 8926 f93d
00000210: f5f6 bcbe a4fc 563e 5189 32be 3c98 403e
00000220: 54da d5be 5927 b7be ebf3 b0be 4a1e 9a3e
00000230: 123c af3e cd30 303e fdf3 a4bd c24d 3bbe
00000240: 2f96 4fbc 8955 b1bb badc 50be 7e76 1b3e
00000250: 4cce f13d 3bfb b13d d60f debd 6a59 c73e
00000260: 9b7b df3d e8ad c9be 388f 73be ef1c 34be
00000270: c88e 4c3d fba7 afbe b0bf 253d 19b9 213e
00000280: 344c 7cbd 97fd b73e 0707 313e 640f 2f3e
00000290: 3185 afbe 6534 a3be 650e 96be 69e9 92be
000002a0: 4b89 7c3e 27b1 30bd ce21 9d3e e145 e23e
000002b0: dacd 5dbe 787f 853e b698 80be 3ac1 093b
000002c0: c005 fabc ef4b a3be 8bf9 3abe 41fb 143b
000002d0: eb32 603e e3f1 5fbd 01a3 fe3d 9bcd 16bd
000002e0: 8293 5d3c ea18 953e ae7d 90ba dc6a 2cbe
000002f0: f35e 6e3d bdee a0bd 0b06 ad3e fc7a dc3c
00000300: 4422 87bd 12ef 563e 3023 2c3e f35f 9e3e
00000310: 4fcc adbc 70ca 353e 9320 a93e ce21 a03e
00000320: d1d7 28be c65b 373c fb9a 073e 78e4 80bd
00000330: 1fed 123e 13f0 b2be b543 8abd 1d9a 743e
00000340: 5ba5 203e 80dc 1bbe 2e49 78be e889 763e
00000350: 6a9b aabd e486 a93e 0c60 09bd ef9a b53d
00000360: 190a 26be e891 a53d d3c1 78be 9fda 51be
00000370: 5b6b 543b e49a 503e cfd8 e53d 75d8 b0bd
00000380: 587b f4bd 933d 91be 93fe b8be d1ed 5f3e
00000390: f7d4 763e 7b51 45be ecad 37be 44b6 b13e
000003a0: 0ce5 1c3e 6f5b 573e f04f 14be b748 d6bd
000003b0: 3316 833e f5f6 cbbe 7bd9 69be 1876 313e
000003c0: 1e58 2abe 2ff5 27be ff9f 1fbe 72da 813e
000003d0: f6ff a23e 9927 b7be 78d8 9d3e 2f6d 3abc
000003e0: 35fc 58bd def2 693e ddde 223e 9b2e 7cbe
000003f0: 7bb2 f0bd 8409 d03d 1712 54be a349 e5be
0.2204824 -0.17961559 -0.25308844 0.42239648 -0.11223701 0.29255503 -0.26106715 0.10179681
-0.08757785 -0.012946718 -0.20422952 0.0142168095 0.31184322 0.18549855 -0.16950397 0.039224587
-0.0050370074 -0.30606738 0.019622304 0.30574816 0.15744342 -0.4707794 0.19705237 0.09045961
0.029289419 0.37052363 0.10146287 -0.1977708 0.2280023 0.09215887 -0.2580908 -0.35978818
-0.033093415 0.37266374 0.023220334 -0.09390853 -0.22440134 0.35766304 0.18524423 -0.23902883
0.28772783 -0.14491288 0.02225978 0.07054757 -0.05098511 0.24828346 -0.15939383 -0.2193694
-0.19772619 -0.33514717 -0.18424016 0.0080539035 0.164648 -0.30609542 0.19986153 0.04559153
0.32957795 -0.078503214 0.2567831 0.017337993 -0.11465959 0.08436943 0.054477904 0.24977353
-0.47871378 0.28317422 0.10473653 0.050053373 -0.248362 0.4351459 0.2930206 -0.15757923
0.22041555 -0.106423624 -0.02493264 -0.12234587 -0.51668423 0.12539013 0.11915218 -0.01934758
-0.10495138 0.058955885 0.04775315 -0.26455465 -0.22103707 0.38741612 0.044403285 -0.03695435
0.29395062 0.14514779 0.3605612 -0.15916997 -0.17382078 -0.2205947 0.33300328 0.17107578
0.32561827 0.23051545 0.06174504 0.034923643 -0.074057125 0.017611984 0.2407599 0.11555705
-0.10519239 0.013649875 -0.1092327 0.37518534 0.40404278 -0.14022408 -0.16803476 -0.14686163
-0.39034298 0.21065046 0.32028684 -0.15455964 0.19421072 0.28600073 -0.017325163 0.14858982
-0.14342214 -0.050690982 -0.22484238 -0.13483165 -0.36986184 -0.27912843 -0.1321207 0.32581893
0.37323684 0.09695774 0.3436292 0.12165553 -0.36907163 0.20994812 -0.17435195 0.18808073
-0.41768134 -0.35772207 -0.34561095 0.30101234 0.34225518 0.17206116 -0.080543496 -0.18291381
-0.012670084 -0.005411808 -0.203967 0.1518192 0.11806926 0.086904965 -0.10842864 0.38935405
0.10912248 -0.39390492 -0.23785102 -0.17589162 0.049940854 -0.34307846 0.04046601 0.15793265
-0.06159611 0.3593566 0.17287837 0.17095715 -0.34281304 -0.3187591 -0.29307857 -0.28693703
0.24661748 -0.043137696 0.30689853 0.44193938 -0.21660557 0.26073813 -0.2511651 0.0021019713
-0.03052032 -0.3189387 -0.18259256 0.0022732767 0.21894424 -0.05467404 0.12433434 -0.036817174
0.013523938 0.2912057 -0.0011023784 -0.16837639 0.05819602 -0.07858036 0.33793673 0.026914112
-0.065983325 0.20989636 0.16810298 0.30932578 -0.021215586 0.17753005 0.33032665 0.3127579
-0.16488577 0.011191314 0.13242714 -0.06293577 0.14348267 -0.34948787 -0.06751195 0.23886915
0.15688078 -0.15220833 -0.24246666 0.24076045 -0.08330424 0.33110726 -0.033538863 0.08867442
-0.1621479 0.0808447 -0.24292688 -0.20493554 0.0032412622 0.20371586 0.112229936 -0.08635036
-0.119375885 -0.2836729 -0.36131725 0.21868064 0.24104677 -0.19269364 -0.1793744 0.3470937
0.1532175 0.21030973 -0.14483619 -0.10463088 0.25602874 -0.3983685 -0.22836868 0.17330205
-0.16635177 -0.16402124 -0.15588377 0.25361973 0.31835908 -0.35772398 0.30829215 -0.01137857
-0.0529749 0.22846553 0.15905328 -0.24627154 -0.117527924 0.10158065 -0.20710026 -0.44782743

conv3.convs.<node___to___node>.lin_l.weight f4 [16, 16]
00000000: 359b 8ebd 6b06 3d3e 8ace f4bd 71f0 2abe
00000010: 05d5 9f3e df1c b43c 189b 0dbe 45c8 f4bd
00000020: 1782 ebbd aeb0 efbd 95aa 08be 2044 163e
00000030: 12dd 803d 3300 ae3d c17c 9fbe affa 333d
00000040: 0753 093e ccc7 46be 737d 7dbe f600 763e
00000050: c384 18be 3e8f 8c3d daf0 d0bc 80f0 373e
00000060: 5006 3d3b c138 2d3d 2012 dabd 9995 cfbd
00000070: 8c2d 56be 5f82 3a3b 6156 603e eebc 3fb7
00000080: ea1a 893e 4b42 b23e 0982 96bc a78c 02be
00000090: ee82 4cbc 6ddb 39be 21aa 263e d7d2 063e
000000a0: 2e25 89bc 379a b93d e4a4 85be 3d0c 1abe
000000b0: fd8c 963e 0c8d 193e b558 bbbd e449 833e
000000c0: 9d12 a03e b2f7 9f3e df6c c53c 1e4d 0bbe
000000d0: 22a1 ae3e 3531 173d f257 cbbc 4fae 05bd
000000e0: 96c0 3abe 7ef3 63bc 97cd 613c 69ce e2bd
000000f0: 91fd 8dbe fa8f 953d f0dd 52bd 8a2f 5f3d
00000100: 0121 8f3e d51b a73d bc75 383e 5db4 15be
00000110: d31e 8abe 6edf fcbd 2470 10bd 9427 e63d
00000120: 1adb 913c 18b2 853e 8a50 75bd df16 8abe
00000130: 4490 dabd 02c5 8ebd 7679 013e ffb1 23bd
00000140: d946 d0bd a049 b23d feaf 563e 98e1 d5bd
00000150: 11b2 eabd c381 c43d 27ec 49be fe80 513e
00000160: 2aab 2b3e ac56 723d 00e7 653c 2640 0c3e
00000170: adcf acbe b4a1 b73d e017 fdbc e778 f33d
00000180: d023 4ebe 0d32 ddbb 10ca b93e bcde cd3d
00000190: 68f3 5bbb 7778 893e a181 463e cecc 133d
000001a0: aef3 833b 4069 34be c586 3c3e 1672 c63d
000001b0: 2383 7e3e 0a2e fb3d 20b7 683e ea3f db3d
000001c0: d973 73be b3a0 3b3e 2ab0 f53d d385 28bd
000001d0: a790 1e39 96e5 0ebd 2eb3 ffbd 107f 9dbd
000001e0: efe1 33be ee63 4fbe dfbd e5bd 51a3 0ebe
000001f0: 90b4 10be 5ac0 25bd 7ac6 8dbd bd89 0f3d
00000200: 63c0 0fbd e0d1 88bd e94b eb3c e1b8 b83e
00000210: 17a0 40be 0cdb 89bd d22b 37bd 3959 3e3e
00000220: c2fa 91be 37ba a73e afab 5c3d a1a6 9f3e
00000230: b3b6 3fbe 2ea8 333e c94d ff3d 5bef 813e
00000240: 87df 99be 3e1d 063e c189 a93c 68d0 97be
00000250: a4f2 9f3d 5b55 93bd 62b2 20be f60e 90be
00000260: b407 9b3c 4298 2bbc 9895 5fbe 0905 21bd
00000270: f6bf e53d f5ba 7abd 7102 b2be b86a d5bd
00000280: 585b 3cbd e51c b8be 60d3 7bbd 6f4b bb3d
00000290: f41d 12be afcf 98be a329 98be 9534 133e
000002a0: 018b a9be 68df 9a3c e275 be3d f890 95bd
000002b0: e961 0abe 5a6a 5ebe 6942 09bc 6b38 953e
000002c0: 62fd ae3e cb04 40bd 08dc 7dbe 263b 83be
000002d0: 3ad7 54bd 9654 71be c625 453e 633e bf3d
000002e0: 1cfe 8a3e 5e66 5dbe 9ea9 22be 504a 483d
000002f0: f689 333d 27fc 463e fe3f d4bc d239 a93d
00000300: cef3 02be 4859 bdbd e6b0 04be 2afc 043e
00000310: 35fa 203e 9e21 4e3e 0a13 8a3b f6bb 43bc
00000320: 4867 22be 1d66 053d c7cc 843c bc05 a43e
00000330: 8253 963e d2ec bc3d eb7a e33d d2e3 b83e
00000340: be8d 2a3e 1155 833e 925c e2bc 7927 8abe
00000350: 4b4c 023e 663e 10be 085c 46be bada 80be
00000360: f0ab a5bd cbdd 4fbe 2ae5 65be 16ff 493e
00000370: 7943 4cbe ec2a f2bd 8e03 08be d2a5 38bb
00000380: 978f 983e 0d09 ea3e 57f3 3b3d 2e4e ea3c
00000390: b7ec 6f3e 84ea cb3d ee0a 323e 548a ff3d
000003a0: 4f4e 013e 5727 6e3d cda8 bbbd 0587 b9bd
000003b0: 96d4 6e3e c0a4 b73e db5e ad3d f2a8 fc3d
000003c0: 3d2b 21be cc90 3b3e 15e5 9abc 1463 7e3e
000003d0: 164d 05be 9495 373d 3deb dd3d babd 2f3e
000003e0: b699 2cbe 1b56 873d 159f c0be 95c9 58be
000003f0: 4a4e 4fbd aa8c 95be d4fa 1a3e eb4f 2d3e
-0.06963197 0.1845948 -0.11953457 -0.16693284 0.31217209 0.021986423 -0.13828695 -0.11952261
-0.11499422 -0.11703621 -0.13346322 0.14674425 0.06292166 0.08496132 -0.31149867 0.043940242
0.13410579 -0.19412154 -0.24754886 0.24023804 -0.14894395 0.06863259 -0.025505472 0.17962837
0.0028842874 0.042290453 -0.10647988 -0.10135955 -0.20915812 0.0028459055 0.21907951 -1.1428476e-05
0.26778346 0.34816203 -0.018372552 -0.12748967 -0.012482388 -0.1815011 0.16275837 0.13166367
-0.016741361 0.09062617 -0.26102364 -0.15043731 0.2940444 0.14995211 -0.09147779 0.25642312
0.312642 0.31243664 0.024099765 -0.13603637 0.3410731 0.03691216 -0.024822209 -0.032636937
-0.18237528 -0.0139130335 0.013781927 -0.11074526 -0.27732518 0.07302852 -0.051481187 0.054488696
0.27954867 0.081596054 0.18013662 -0.14619584 -0.26976642 -0.12347303 -0.035263196 0.11238018
0.017804671 0.26112437 -0.05989126 -0.26970574 -0.10672048 -0.0697117 0.1264399 -0.039964672
-0.10169763 0.08705449 0.20965573 -0.10443419 -0.11459745 0.095950626 -0.19718991 0.20459363
0.16764513 0.059164688 0.0140321255 0.13696346 -0.33752194 0.08966389 -0.030895174 0.11888295
-0.20130849 -0.0067503513 0.36286974 0.10052249 -0.003356183 0.2684972 0.19385387 0.03608399
0.0040268516 -0.17618275 0.18410785 0.09689729 0.24854712 0.12264641 0.22726107 0.1070555
-0.23774661 0.1832302 0.11996491 -0.04114325 0.00015121941 -0.03488692 -0.12485348 -0.07690251
-0.17566656 -0.20252964 -0.11217856 -0.13929488 -0.14131379 -0.040466644 -0.06922622 0.035043467
-0.035095584 -0.066806555 0.02872272 0.3607855 -0.1881107 -0.06731233 -0.044719525 0.18588723
-0.28511626 0.32759258 0.053874668 0.31181815 -0.18722038 0.17544624 0.12466008 0.25377926
-0.3005335 0.13097093 0.020695569 -0.2965119 0.07809952 -0.07194015 -0.15693048 -0.28136414
0.018924572 -0.010473313 -0.21834409 -0.039311443 0.11218254 -0.061213452 -0.34767488 -0.104207456
-0.04598555 -0.35959545 -0.06148088 0.09145247 -0.14269239 -0.2984595 -0.29719266 0.14375527
-0.33113864 0.018905357 0.09299828 -0.07303041 -0.13513912 -0.21720257 -0.00837765 0.29144606
0.3417769 -0.04687957 -0.24790967 -0.25631064 -0.05196307 -0.23567423 0.1925269 0.09338071
0.27146995 -0.21621081 -0.15885016 0.048898995 0.04383274 0.19432126 -0.02590942 0.082629815
-0.12788317 -0.09245545 -0.12958106 0.12986818 0.15720446 0.20130011 0.0042136954 -0.011946669
-0.15859711 0.032568086 0.016210927 0.32035625 0.29360586 0.092248574 0.11107429 0.36111313
0.16655633 0.25650838 -0.027632032 -0.2698324 0.12724416 -0.14086303 -0.19371045 -0.25166875
-0.08089435 -0.20299451 -0.224507 0.19726214 -0.19947614 -0.11824593 -0.13282606 -0.0028175008
0.2979705 0.4571003 0.045886364 0.028601732 0.23430143 0.0995684 0.17386982 0.12477556
0.12627529 0.058142986 -0.091630556 -0.09058956 0.23323283 0.35867882 0.08465358 0.12336911
-0.1573915 0.18316954 -0.018908063 0.24842483 -0.13017687 0.044820383 0.10835884 0.17162219
-0.16855511 0.0660822 -0.3762137 -0.21170647 -0.05061177 -0.2920888 0.15134746 0.16925018

conv3.convs.<node___to___node>.lin_l.bias f4 [16]
00000000: a63e b8bc 1601 debd fc5c e43d f70f 853d
00000010: 6448 4a3e 3187 853d b402 4a3e 3247 3d39
00000020: e2e7 14be f433 e43d 9f9e 313d a23c c5b9
00000030: 3918 a5be c61a e73d 1f65 73bd 6caf 743d
-0.02249081 -0.10840051 0.11150548 0.06497186 0.19754177 0.06519926 0.19727594 0.00018050967
-0.14541581 0.11142722 0.043364163 -0.00037619943 -0.32245043 0.112844035 -0.05942261 0.059737608

conv3.convs.<node___to___node>.lin_r.weight f4 [16, 16]
00000000: 13fa be3e 1ac1 92bd ab6b 64be 465f 2c3d
00000010: 59d3 66be 1b58 6abe ee60 823d 45ee 81bd
00000020: 8f5c 503d 2ed3 753e ee3d 50be 7efc 7ebe
00000030: 1607 8d3e f230 253e 0d23 b93d 73e9 4f3e
00000040: 2935 a43e a16a 53be 6c6e 2ebd 5d47 68be
00000050: 38b8 adb9 1070 80be 23d5 5a3e 5276 0f3e
00000060: 39c6 b33e 0248 5e3d f81f c5bd 507b 63be
00000070: 3efe cd3d 16f5 6e3e cad9 2b3d 666c 903d
00000080: 32b3 6abe b334 473e 7e2f 283e 6573 8d3e
00000090: fa3a 643e dc01 c63b 3c89 dcbc f69e a93d
000000a0: 7809 a5bd bd6b 9abe 11f5 a43e 5661 9a3e
000000b0: bff5 a2bd ee39 a0be 752e 1dbe d06c 8b3e
000000c0: 1328 d93e fad1 4e3c 944d d0be 780b ebbd
000000d0: 0cbc e2bd 354c 473e d4d1 b7bd 0729 23be
000000e0: 5882 c53b f473 553b 1b82 d2bd 65bc 813e
000000f0: 2878 0b3d 65cf d43e 72bb a53e f429 903e
00000100: c70f 99be 046b bbbe 646b dc3c 2b68 233d
00000110: adf9 11bd 42cb 0a3e 967e 7bbe 402d 9d3e
00000120: 6815 54bd 9500 063e c868 443e c286 403e
00000130: bd39 8ebe 5aac 1cbd 7787 dd3c 0429 f5bd
00000140: 00c4 743e 6e06 993e 2663 eabd 8f2e 103c
00000150: cfe4 ccbe 32b4 8abe 2e9c 9b3e c6d7 29be
00000160: 9859 803e 9d8c 0bbe 3dc0 833d 96ae 123e
00000170: d7ce edbd dcaf 373e 6ec5 24be ad0a 4abe
00000180: f455 96bd f127 6a3c 896c b93e c66f d13d
00000190: 5055 483d fb51 3cbe e6d9 a13d a05a c2be
000001a0: 8392 363d fdde a13c 41b5 d33e bd09 5cbe
000001b0: 17ac d83d c17d a1be 9e13 433e fc8c 0b3e
000001c0: 0ac8 2bbe 05df 53be 6fab b93e efbe 7cbd
000001d0: f34a c33e 1fe7 3e3e 29dd 01be 81c5 3bbe
000001e0: 1345 983d 0dbd ddbe d09c f63b 2cb6 a3bd
000001f0: d43d 44be 0cce b63e 8c06 efbb 45a1 fa3b
00000200: 9f5b fdbc 53c1 853e c523 2d3e 20b3 33be
00000210: 2e1b fd3d 71a3 fbbd ee55 db3e f078 7c3d
00000220: 5ddc bc3e c03f 42be 8a0a adbd f299 3fbe
00000230: bde4 0e3e f0b9 923e 4aa8 acbe cf60 223e
00000240: 6d7d 40bd b1fd 603d a377 1dbe b77d 653e
00000250: 1059 99be 265f f4bc 72c1 7fbe 2ffc 5dbe
00000260: 5ab8 ffbd effd 033e 1fdd c3be f4cd 713e
00000270: e769 93be e593 563e c4fe 273e 3c76 363e
00000280: 4aa3 f6bc ce0a 863e 01c0 debe 7444 1b3d
00000290: c5e6 5f3e e9a2 c23e 8795 31be b638 943d
000002a0: 8f97 b7be 3285 c6bd 684c 66be 0698 5b3e
000002b0: f960 8b3e cc80 973e a971 d53d ff05 873e
000002c0: e536 c6be d811 c4bc 359c 6cbe 42c6 9a3e
000002d0: ef5a 43be 450d 6dbc da06 03be 1bb6 0b3e
000002e0: ca29 37bd d694 723e 2718 90be d017 0a3e
000002f0: 0e43 ec3d a14f 41be 7b28 3b3e 818b 3c3e
00000300: c2b6 893e 6330 b63b c87a 87bd b9fe b93d
00000310: d66d 903e e867 6cbe 9f31 18bd 3fd2 2b3e
00000320: 2f5e 0d3d 46de 3c3e b751 563e ab58 8d3e
00000330: 3f32 583e d897 64be c150 a63d 357e 5d3d
00000340: 271c 773e 5644 42be abb5 30be 3efc 83bd
00000350: 7ab7 26be 0572 7dbc 2990 0ebe 54bc ecbd
00000360: c94b 4e3d a729 81be b713 873e c200 14be
00000370: 9029 52be 1cf6 d23e 0249 62bd 2c30 0dbe
00000380: e3a6 e4bd 24fd 913e e6e5 6f3e 263f 2c3e
00000390: a5cf 91bc 7161 a5bd 9048 0a3d fb5e f23d
000003a0: ad63 963b 8bbf b53d 3e62 c8bd 4984 b4bd
000003b0: 4236 923e 7bdc e2be 7a27 9f3e ee9f b13e
000003c0: c577 8f3d f195 f63c 0a8c dbbd a95c d33e
000003d0: eb96 14be f5c1 01be 6b6b a43d f1e4 5bbe
000003e0: 60e6 0fbe 95c8 98bd b2a2 4b3e c7c6 91bd
000003f0: 8049 a1be 53f1 93be a843 5d3e 964c bd3e
0.37300166 -0.071657375 -0.22306697 0.042083047 -0.2254156 -0.22885172 0.06366144 -0.063442744
0.05086952 0.2400634 -0.20336124 -0.24901006 0.2754447 0.16131952 0.090398885 0.20303898
0.32071808 -0.20646144 -0.042585775 -0.22683473 -0.00033134385 -0.25085497 0.21370368 0.1400998
0.3511217 0.05426789 -0.09625238 -0.22215009 0.100582585 0.2333568 0.041955747 0.07051925
-0.2291992 0.19453697 0.16424367 0.27627102 0.22288123 0.006042702 -0.026920907 0.082822725
-0.08058447 -0.30160323 0.3221822 0.30152386 -0.079570286 -0.31294197 -0.15349753 0.27231455
0.42413387 0.0126233045 -0.40684187 -0.11476797 -0.11071023 0.19462664 -0.089755684 -0.1593362
0.006027501 0.0032570334 -0.10278722 0.25339046 0.034050137 0.4156448 0.32369572 0.28157008
-0.2989485 -0.36605084 0.026906677 0.039894264 -0.0356385 0.13554099 -0.24560007 0.30698586
-0.051778227 0.1308616 0.19180596 0.18801406 -0.27778426 -0.038250305 0.027042134 -0.11970714
0.23902893 0.29887718 -0.11444692 0.008800163 -0.40018317 -0.27090603 0.30392593 -0.16586217
0.25068355 -0.13627858 0.06433151 0.14324412 -0.11611717 0.17938179 -0.16090938 -0.19730635
-0.07340613 0.014291749 0.36215618 0.10226397 0.048909485 -0.18390648 0.07902889 -0.37959766
0.04457332 0.01975965 0.41349223 -0.2148809 0.105796985 -0.31541255 0.19050452 0.13628
-0.16775528 -0.20690544 0.36263606 -0.061705526 0.3814312 0.18642853 -0.12682022 -0.1833706
0.0743505 -0.43308297 0.0075260177 -0.07993731 -0.1916421 0.35704076 -0.0072944816 0.0076486194
-0.030927477 0.26124057 0.16908176 -0.175488 0.123587 -0.12287033 0.42838997 0.061638772
0.36886874 -0.18969631 -0.08449276 -0.18711069 0.13954444 0.28657484 -0.33722144 0.15857242
-0.046994615 0.05492944 -0.15377669 0.22411238 -0.29950762 -0.029830527 -0.24976137 -0.21678232
-0.12486334 0.12889837 -0.3825464 0.23613721 -0.28791735 0.20954855 0.16405779 0.1781854
-0.03010716 0.26180118 -0.43505862 0.03790708 0.21865375 0.38014916 -0.17342196 0.07237379
-0.35857818 -0.09693374 -0.22490084 0.21444711 0.27222422 0.29590452 0.104220696 0.26371762
-0.38713756 -0.02393429 -0.23106463 0.30229384 -0.19077657 -0.014468496 -0.12795582 0.13643686
-0.044717588 0.23689589 -0.28143427 0.13485646 0.11536227 -0.18878032 0.18277161 0.18412592
0.26897246 0.0055599674 -0.066152155 0.090817876 0.28208798 -0.23086512 -0.037156697 0.16779421
0.03451365 0.18444166 0.20929609 0.2760671 0.21112917 -0.22323549 0.08120871 0.05407544
0.24131833 -0.1897138 -0.17256801 -0.06444596 -0.16280928 -0.015469079 -0.1392218 -0.11559358
0.050365243 -0.2522709 0.2638223 -0.14453414 -0.20523667 0.41203392 -0.055245407 -0.13787907
-0.111646436 0.28513443 0.23427543 0.16820964 -0.017799208 -0.08075226 0.033760607 0.11834522
0.004589519 0.088744245 -0.09784363 -0.08814294 0.2855702 -0.44308838 0.31084806 0.3469233
0.07005266 0.030100795 -0.1072007 0.41281632 -0.14510696 -0.12671645 0.08028301 -0.21474053
-0.14052725 -0.07460133 0.19886282 -0.07117992 -0.3150139 -0.28895053 0.2160784 0.36972493
