ShadowWeave/Long-Tail Optimization/ShadowWeave(2.0).pth (torch, 63329 bytes, 12 tensors)

node_type_embedding.weight f4 [11, 128]
0	0xbf700631	-0.9375945
1	0xbead7141	-0.33875468
2	0xbf6891cd	-0.90847474
3	0xbcf8af9b	-0.030357173
4	0xbfaff4aa	-1.374654
5	0x3fb36874	1.4016252
6	0xbce0f336	-0.027459722
7	0xbf65b26c	-0.89725375
8	0x3f13ff7e	0.57811725
9	0x3f8fe794	1.1242547
10	0x3e52a924	0.20572335
11	0xbdf8b660	-0.1214416
12	0x3d874501	0.06604958
13	0x3f5b3fdb	0.8564431
14	0xbe6071e1	-0.21918441
15	0xbfc84eac	-1.5649009
16	0x3e5b260b	0.21401231
17	0xbe0d6be9	-0.13810696
18	0x3dfd0d00	0.12355995
19	0x3f60f74e	0.87877357
20	0xbbea4e31	-0.0071504344
21	0x3f2a8e24	0.6662314
22	0xbe3fe8d2	-0.18741158
23	0x3ee7a63a	0.45244008
24	0xbf3b06be	-0.7305716
25	0x3de38b80	0.11110592
26	0xbe9714a2	-0.2950793
27	0xbe9692cb	-0.2940887
28	0x3f545f49	0.82957894
29	0xbf85dd5c	-1.0458179
30	0x3da724a1	0.08161283
31	0x3f52af24	0.82298493
32	0x3e7e1c60	0.24815512
33	0xbf741470	-0.95343685
34	0x3f3d6f91	0.7399836
35	0x3f1933f3	0.59844893
36	0xbee3e1ee	-0.44508308
37	0xbfc9d56b	-1.5768255
38	0x3fb5aaf8	1.41928
39	0x3f8b0eb1	1.0863858
40	0xbdad8c08	-0.084739745
41	0xbc78ba95	-0.015181203
42	0xbfd56c41	-1.6673661
43	0x403a9f32	2.9159665
44	0x3f3c7a9e	0.736246
45	0xbf11184a	-0.5667769
46	0xbec4e63e	-0.3845691
47	0xbfa4877d	-1.2853848
48	0xbe06cdba	-0.13164416
49	0xbe74f147	-0.23920165
50	0xbfee209f	-1.8603705
51	0xbf7a3302	-0.9773408
52	0xc0413aff	-3.0192258
53	0xbf7340de	-0.95020854
54	0xbf9a5b62	-1.2059138
55	0x3fa15424	1.2603803
56	0xbecbb448	-0.3978598
57	0x400e015a	2.2188325
58	0x3f65862e	0.89657867
59	0xbf604dee	-0.8761891
60	0xbf7f2c5c	-0.9967706
61	0xbf7d0a9d	-0.9884432
62	0x3f321c2e	0.6957425
63	0x40011dd9	2.0174468
64	0x3e7f2c79	0.24919309
65	0xbed4da06	-0.4157259
66	0xbebece1b	-0.3726662
67	0x3fad4b92	1.3538687
68	0xbcc11e8a	-0.023574132
69	0xbe566173	-0.20935611
70	0x3eada840	0.33917427
71	0xbf6bc859	-0.9210258
72	0xbf8e38ff	-1.1111144
73	0x3f3b6fe0	0.7321758
74	0x3fcb5abf	1.5887069
75	0xbf442026	-0.76611555
76	0x3faf1e61	1.3681146
77	0xbed5a4a4	-0.41727173
78	0x3f341fd8	0.7036109
79	0x3e868f43	0.26281175
80	0xbfde2f4d	-1.7358185
81	0xbff41519	-1.9068938
82	0x3f997c5f	1.199108
83	0x3e614f4c	0.22002906
84	0xbefae741	-0.49004558
85	0x3fcf363d	1.6188427
86	0x3f11d0c7	0.56959194
87	0x3e7a8b9c	0.24467319
88	0xbeff4bf5	-0.49862638
89	0xbcb7dc01	-0.022443773
90	0x3ee343d6	0.44387692
91	0x3fa7e961	1.3118097
92	0x3da17c24	0.07885006
93	0xbe0091c8	-0.12555611
94	0x3f256c83	0.646187
95	0x3ed86676	0.42265671
96	0xbeb380fa	-0.3505934
97	0xbeedff5b	-0.46483883
98	0x3fd3a801	1.6535646
99	0x3e1a3cd1	0.15062262
100	0x3f605b8d	0.87639695
101	0xbe86255e	-0.26200384
102	0x3e12a306	0.14320001
103	0x3f22af01	0.63548285
104	0xbf462074	-0.7739327
105	0xbf002163	-0.50050944
106	0x3f529687	0.82260936
107	0xbf9c2d13	-1.2201256
108	0x3fb1e93e	1.3899305
109	0xbee9a099	-0.4563034
110	0xbf3ea019	-0.7446304
111	0xbf989053	-1.1919044
112	0xc0056b95	-2.0846913
113	0xbe4825de	-0.19545695
114	0xbfa0feea	-1.2577794
115	0xbf84e556	-1.0382488
116	0xbfa50363	-1.2891659
117	0xbec04ff7	-0.37561008
118	0xbdaa39f6	-0.083118364
119	0x3ea27949	0.31733158
120	0x3e812bac	0.25228631
121	0x3d58ecd7	0.052960243
122	0x3fc50177	1.5391072
123	0xbfa5d2c2	-1.2954943
124	0xbf3d1327	-0.7385735
125	0x3ed85769	0.4225419
126	0xbdaacd80	-0.08339977
127	0xbf48d80a	-0.7845465
128	0xbeb0d7d3	-0.3453966
129	0x3f5bad31	0.85811144
130	0xbf8bb419	-1.0914336
131	0xbf5a7c32	-0.85345757
132	0xbeafbb83	-0.34322748
133	0xbfb05c73	-1.3778213
134	0x3eb4b4c3	0.3529416
135	0xbff162c3	-1.8858265
136	0xbf065f15	-0.52488834
137	0xbea8847a	-0.32913572
138	0x3f9ec7b3	1.2404693
139	0x3f67f574	0.90608907
140	0xbf0fcbfe	-0.5617064
141	0x3f168d1e	0.5880908
142	0xbeecb5f7	-0.46232578
143	0xbf438d6f	-0.76387686
144	0x3ecab1b4	0.39588702
145	0x3e80e0d0	0.25171518
146	0x3fcac972	1.5842726
147	0xbead2ef1	-0.33824876
148	0x3eed6501	0.46366122
149	0x3ebe429d	0.37160197
150	0x3e9ac14e	0.30225605
151	0x3f85f519	1.0465423
152	0x3f6477fe	0.89245594
153	0x3f0090b1	0.5022078
154	0xbff89131	-1.9419309
155	0x3f8eaabd	1.1145855
156	0xbedaa4a0	-0.42703724
157	0xbfbb966b	-1.4655279
158	0xbc5d4f3a	-0.013507659
159	0xbf728956	-0.9474081
160	0x3f49a4e7	0.78767246
161	0xbdb44bfd	-0.08803556
162	0x3f4351b1	0.76296526
163	0xbf841c2a	-1.0321095
164	0x3f00b1de	0.50271404
165	0xbf805a66	-1.0027587
166	0xbf855812	-1.0417502
167	0xbf351461	-0.7073422
168	0x3fbc76f7	1.4723805
169	0xbfe913f5	-1.8209215
170	0x3ed3841b	0.41311726
171	0x3f5e6f9e	0.86889064
172	0x402e7992	2.72617
173	0x3f22e5f8	0.63632154
174	0x3f5e9aac	0.8695476
175	0xbf9c942a	-1.2232716
176	0xbf02a07b	-0.51026124
177	0xbf2207e6	-0.632933
178	0xbf355251	-0.7082873
179	0x3f21a8e5	0.6314834
180	0x3d153e0b	0.036436122
181	0x3e5cedd5	0.215751
182	0x3f89b1e4	1.0757413
183	0xbe972dc0	-0.29527092
184	0x3f6d1d71	0.9262305
185	0x3e02452e	0.12721702
186	0xbf7a3eb1	-0.9775191
187	0x3ee8f3a6	0.4549839
188	0x3fa873e3	1.3160366
189	0x3e90fce3	0.28317937
190	0x3fc0569d	1.5026432
191	0x3f9d0417	1.2266873
192	0x3f1f9155	0.62331134
193	0x3f0801e3	0.5312788
194	0xbf8dae8b	-1.1068891
195	0x3f39c834	0.7257111
196	0x3f4ffbe1	0.8124371
197	0x400b1d4d	2.1736634
198	0x3ec5b470	0.38614225
199	0x3f6b6aa1	0.9195958
200	0x40076d0e	2.1160312
201	0xbf92c36d	-1.1465889
202	0xbf76a77a	-0.963493
203	0xbf0374cb	-0.51350087
204	0x3ed262de	0.41091055
205	0xbf6ea70a	-0.9322363
206	0x3fdc0072	1.7187636
207	0x40280747	2.6254442
208	0xbe11a483	-0.14222912
209	0xbc6f6661	-0.014611811
210	0x4012dd44	2.294755
211	0xbf9821cc	-1.1885314
212	0x3fc5793c	1.5427623
213	0x3e4dcb6d	0.20097132
214	0xbf3a4aa4	-0.7277014
215	0xbf358350	-0.7090349
216	0x3eee0ab7	0.4649255
217	0x3f186a83	0.59537524
218	0x3f9d1327	1.227147
219	0xbf36c3ff	-0.71392816
220	0xbf495a65	-0.78653556
221	0x3e17f76c	0.14840478
222	0x3ef6d113	0.48206386
223	0xbe77a768	-0.24184954
224	0x3fa4540d	1.283815
225	0x3e2a54b7	0.16633879
226	0xbf89b51a	-1.0758393
227	0x3f0b76c6	0.5447811
228	0x3f65c88c	0.89759135
229	0x402642fd	2.5978386
230	0x3ff36179	1.9014121
231	0xbebcbdc5	-0.36863533
232	0xbfc249ff	-1.5178832
233	0xbf9685e7	-1.1759614
234	0xbd1484df	-0.03625953
235	0x3f5800f8	0.8437648
236	0xbf0a39b1	-0.5399428
237	0x3ebe974b	0.37224802
238	0x3e991c20	0.2990427
239	0xbfaa5f01	-1.3310243
240	0x3ec440d4	0.3833071
241	0x3ee5cd35	0.44883123
242	0xc0088923	-2.1333702
243	0x3f1b60ad	0.6069439
244	0xbf3c06bd	-0.7344778
245	0x3ec3dedd	0.3825597
246	0xbf3107ba	-0.69152415
247	0x3f6fe169	0.93703324
248	0x3eb279e7	0.3485863
249	0xbf678bf0	-0.904479
250	0x3d19c6c0	0.03754306
251	0x3ebd2062	0.3693877
252	0x3f9b1ea1	1.2118722
253	0x3c34544d	0.011006427
254	0xbfb664fe	-1.424957
255	0xbe4c4153	-0.19946794

conv1.convs.<node___to___node>.lin_l.weight f4 [16, 360]
0	0xbcc69a65	-0.024243543
1	0x3d06c131	0.032899085
2	0x3d411ff2	0.047149606
3	0xbae6c3de	-0.001760598
4	0xbca5e17d	-0.020249123
5	0x3d466c41	0.048443083
6	0x3d5cd847	0.053917196
7	0xbcf2a1b4	-0.029618122
8	0x3cf3b1f2	0.029747937
9	0x3a81dcfe	0.000990778
10	0x3d54d3c4	0.051959768
11	0xbc5a56da	-0.013326371
12	0xbc765373	-0.015034544
13	0x3bb75054	0.0055942927
14	0xbcad98e5	-0.02119107
15	0x38c5775f	9.4159266e-05
16	0x3d1e7210	0.038682997
17	0xbcc76d25	-0.024344036
18	0xbc81d84f	-0.015850214
19	0x3c436b09	0.011927375
20	0xbbc4dfe5	-0.0060081356
21	0x3d1a3657	0.03764948
22	0x3cbe2f40	0.02321589
23	0x3d598712	0.05310733
24	0x3d4a1a6a	0.049341597
25	0x3cdca50e	0.026934173
26	0xbcc2a911	-0.023762258
27	0x3d21166b	0.03932802
28	0xbcfc1ed0	-0.030776411
29	0xbd3e1a9a	-0.046412088
30	0x3d44cd90	0.048047602
31	0x3d42f90e	0.0476008
32	0xbc923035	-0.017845253
33	0xbd0849bf	-0.033273455
34	0x3d0e7dfe	0.034788124
35	0xbcd97f84	-0.026550062
36	0xbc53ad30	-0.012919709
37	0xbc8c1f2f	-0.017104713
38	0xbbf7db58	-0.0075639896
39	0x3d5b53ed	0.053546835
40	0x3c133ca9	0.0089866305
41	0x39758857	0.00023415811
42	0x3d052bea	0.032512583
43	0x3bb91c1c	0.005649103
44	0xbceeeb0e	-0.029164817
45	0xbbdc5481	-0.006723941
46	0x3cfaccd8	0.030615255
47	0x3cb9e4f3	0.02269218
48	0x3d389f9e	0.045074098
49	0xbcee8898	-0.029117867
50	0xbd34679f	-0.044044133
51	0xbc90b74c	-0.017665528
52	0xbd08ec32	-0.03342838
53	0xbc947eb8	-0.01812683
54	0xbd09e3a4	-0.03366436
55	0x3d380110	0.04492289
56	0xbb9341e3	-0.0044939383
57	0x3c31b701	0.010846854
58	0xbcfcbaa2	-0.030850712
59	0x3c7b55f9	0.015340322
60	0xbc8f6007	-0.017501844
61	0x3bdc582c	0.006724378
62	0xbcb3e8b8	-0.021961555
63	0x3d15e1dc	0.03659235
64	0xbd2c6205	-0.042085666
65	0xbce71877	-0.028209908
66	0xbc152627	-0.0091033345
67	0xbc5dd2fe	-0.013539074
68	0xbd57183e	-0.052513354
69	0x3d0e5d76	0.0347571
70	0x3d3e335d	0.046435703
71	0x3b473b9c	0.003040052
72	0x3baaf06d	0.0052166493
73	0xbd5fe3aa	-0.054660477
74	0x3c97c6e2	0.018527452
75	0x3ca240d7	0.019806309
76	0xbb898277	-0.004196461
77	0xbc9247a5	-0.017856428
78	0x3c3e0ed5	0.011600216
79	0xbd2921a9	-0.041291866
80	0x3c97b679	0.018519627
81	0xbcbaede3	-0.022818511
82	0xbb8e73a5	-0.004347282
83	0x3b924ab3	0.0044644712
84	0xbd5b96d5	-0.05361064
85	0xbbd18cc9	-0.0063949567
86	0x3d1c7615	0.03819855
87	0xbd0df168	-0.03465405
88	0x3d2b0fe9	0.04176322
89	0x3b3c12fa	0.0028697834
90	0x3d03cdfb	0.03217886
91	0x3d28277e	0.041053288
92	0x3d51fc4b	0.051265996
93	0x3c9c2f23	0.019065445
94	0x3bfd3eda	0.0077284398
95	0x3c8c3afd	0.017117972
96	0x3cfc9b03	0.030835634
97	0xbd01677b	-0.031592827
98	0xbd27f666	-0.04100647
99	0x3d233ec9	0.0398548
100	0x3cb2c303	0.021821504
101	0x3c838790	0.016055852
102	0x3c5a1fb4	0.013313223
103	0x3b3b9697	0.0028623694
104	0x3d60bb19	0.05486593
105	0x3d5f29cb	0.054483216
106	0x3ca3faea	0.020017106
107	0x3d3cac7f	0.046062943
108	0xbce3b4ae	-0.027796116
109	0xbd03a849	-0.03214291
110	0x3c503763	0.012708518
111	0x3a1d5531	0.0006001769
112	0x3c3e713c	0.011623677
113	0xbd64dcc6	-0.05587461
114	0x3c61cdb9	0.013781958
115	0xbc85edd5	-0.016348759
116	0xbd0d5e06	-0.034513496
117	0xbb616b00	-0.0034396052
118	0x3d32330e	0.04350572
119	0xbcf78c9b	-0.030218413
120	0x3caf47e7	0.02139659
121	0xbd0221d5	-0.031770546
122	0x3c0e9a65	0.008703803
123	0xbd218d20	-0.039441228
124	0xbcab25a2	-0.020891968
125	0x3cfb9161	0.03070897
126	0x3cc7d960	0.024395645
127	0xbcfe85a5	-0.031069586
128	0x3cb55376	0.022134524
129	0x3ce10976	0.027470332
130	0xbac76764	-0.0015213308
131	0xbc872a9d	-0.016499812
132	0x3cefe9e9	0.029286342
133	0x3d19f61b	0.03758822
134	0xbc12dee7	-0.008964277
135	0x3d3c128a	0.045916118
136	0x3cec0b31	0.02881393
137	0x3cbdd4b0	0.023172706
138	0x3cb793db	0.02240937
139	0x3d249821	0.040184144
140	0xbcfc93c5	-0.03083218
141	0x3d2af32b	0.04173581
142	0x3bc295f2	0.005938285
143	0x3c2219bd	0.009893832
144	0xbc374109	-0.011184939
145	0x3d607c73	0.054806184
146	0x3ca25850	0.019817501
147	0xbc38a689	-0.011270174
148	0x3d5c8c0c	0.053844497
149	0x3d02fff7	0.03198239
150	0xbd5e4eb2	-0.05427427
151	0x396f9991	0.00022850024
152	0xbd040a70	-0.032236516
153	0xbd3dc02c	-0.046325848
154	0xbc3fad89	-0.011699089
155	0xbcf570d0	-0.02996102
156	0xbc41e4d4	-0.011834342
157	0x3d1ffdb8	0.039060324
158	0x3d60d132	0.054887004
159	0xbd41c33e	-0.047305338
160	0xbd38793c	-0.045037493
161	0x3d2e7896	0.04259547
162	0xbc9323db	-0.017961433
163	0x3d629b33	0.05532379
164	0x3d24e4eb	0.040257376
165	0x3b941e39	0.0045202044
166	0x3d5de813	0.0541764
167	0xbc98e2c3	-0.018662816
168	0x3d35b201	0.04435921
169	0x3d15e762	0.036597617
170	0xbcb8e368	-0.022569373
171	0x3c538426	0.012909925
172	0xbc3e3328	-0.011608876
173	0x3ba9a05e	0.005176588
174	0xbd314b7b	-0.043284874
175	0x3ced5b72	0.028974269
176	0xbd0fc1ff	-0.03509712
177	0x3caca7ba	0.021076072
178	0x3bee6efe	0.007276415
179	0xbcc5950b	-0.02411892
180	0xbc3b2031	-0.011421249
181	0x3cc908c6	0.024540316
182	0x3d39a778	0.045325726
183	0x3c864e80	0.016394854
184	0xb82d8931	-4.1374184e-05
185	0x3d29a0b4	0.041413024
186	0x3d2e183b	0.042503577
187	0xbce8704d	-0.028373862
188	0x3d22170f	0.03957277
189	0x3cba6828	0.022754744
190	0x3c71d22a	0.01475958
191	0xbd1f1d44	-0.03884627
192	0x3d27e394	0.04098852
193	0x3d24c092	0.04022271
194	0xbc9d60d6	-0.019211214
195	0x3d49d1e7	0.049272444
196	0xbc8dbdeb	-0.017302474
197	0x3cea768a	0.028620977
198	0xbc33d3f0	-0.010975823
199	0x3cfac8e1	0.030613365
200	0x3bfa1fef	0.0076332013
201	0xbd2fbae8	-0.042902857
202	0xbd444f52	-0.04792721
203	0xbd346391	-0.044040266
204	0xbc470194	-0.012146372
205	0x3c84ee11	0.0162268
206	0xbd56db82	-0.052455433
207	0xbd0e5e65	-0.03475799
208	0x3c1342f2	0.008988129
209	0x3c4dacd6	0.012553414
210	0xbd024189	-0.03180078
211	0xbb353b16	-0.0027653626
212	0x3c8b0456	0.016969841
213	0xbd511b49	-0.05105141
214	0x3d2bfb00	0.04198742
215	0xbd41e329	-0.047335777
216	0xbd4662e4	-0.048434153
217	0x3b7aa0b5	0.0038242762
218	0xbcfc7952	-0.030819569
219	0x3cf080ff	0.029358385
220	0xbc5a2b01	-0.013315917
221	0xbcdfe442	-0.027330521
222	0x3d39d968	0.04537335
223	0xbc7f7950	-0.015592888
224	0xbd2b7db6	-0.041867934
225	0x3d131389	0.035907302
226	0x3d4b6ba4	0.0496632
227	0x3cd63c5e	0.026151832
228	0xbc73d8c3	-0.014883223
229	0xbd0ae351	-0.033908192
230	0xbd154b2b	-0.03644864
231	0x3c1258c1	0.008932293
232	0x3d59368d	0.05303054
233	0x3d1b1e7d	0.037870873
234	0x3ba86b69	0.0051397574
235	0xbd0994a7	-0.03358903
236	0x3c84092a	0.016117651
237	0x3d4192e7	0.047259238
238	0xbcc4f0fd	-0.024040693
239	0xbd04ca23	-0.032419335
240	0x3c23991c	0.009985235
241	0xbd025b62	-0.03182543
242	0xbca67b25	-0.020322392
243	0xbd4c1b11	-0.0498305
244	0xbc9c4533	-0.019075966
245	0xbc6ad28a	-0.014332423
246	0x3d44f0d7	0.048081245
247	0x3cbc99b1	0.023022505
248	0x3c9b4b5e	0.018956836
249	0xbd29fafc	-0.041499123
250	0xbc2a429b	-0.010391857
251	0xbccfb2c3	-0.025353795
252	0xbb2ee35c	-0.002668581
253	0x3cebf7f0	0.02880475
254	0x3ca4fed9	0.020141052
255	0xbac07be5	-0.0014685361

conv1.convs.<node___to___node>.lin_l.bias f4 [16]
0	0xbd47cc5d	-0.04877888
1	0x3d4482dd	0.047976363
2	0xbd02be31	-0.031919662
3	0x3d0ec903	0.03485967
4	0x3d294c57	0.04133257
5	0xbca3c670	-0.019992083
6	0xbc9e420c	-0.019318603
7	0x3d381054	0.044937447
8	0xbcdba39e	-0.026811417
9	0x3cf26078	0.029587016
10	0xbd61526b	-0.05501024
11	0x3b3e8723	0.0029072247
12	0x3c905941	0.017620685
13	0xbcf6ccea	-0.030127008
14	0xbcb36839	-0.021900283
15	0x3c5451f7	0.012958995

conv1.convs.<node___to___node>.lin_r.weight f4 [16, 360]
0	0xbca4994f	-0.020092634
1	0xbd0cf5fd	-0.03441428
2	0x3ca776c7	0.02044238
3	0x3d4f21af	0.050569233
4	0x3b950d68	0.0045487173
5	0x3d5ee607	0.05441859
6	0x3d3c7046	0.04600551
7	0xbd465370	-0.048419416
8	0x3ca499d4	0.020092882
9	0xbd3454f6	-0.044026338
10	0xbc8855b5	-0.01664243
11	0xbd32d52a	-0.04366032
12	0x3c54785f	0.012968152
13	0x3cea5bd7	0.028608246
14	0xbcabd40c	-0.020975135
15	0x3c34a9fc	0.011026856
16	0xbd54e45c	-0.051975593
17	0x3cc4893e	0.023991223
18	0x3baec467	0.0053334716
19	0xbd3c6b63	-0.04600085
20	0x3d596f87	0.053084876
21	0xbcf8f7a7	-0.030391527
22	0x3c2bc0ea	0.010483006
23	0xbd01399e	-0.03154909
24	0xbceda523	-0.029009407
25	0xbc4e60c4	-0.012596313
26	0x3d190a78	0.0373635
27	0xbba897e3	-0.0051450594
28	0x3c3755a3	0.011189851
29	0xbbe225f3	-0.0069014966
30	0xbcf65b51	-0.03007284
31	0x3b2ea08d	0.0026645989
32	0xbbbe3e8c	-0.005805796
33	0x3d149bee	0.03628152
34	0xbd1ab116	-0.03776654
35	0x3ce207d1	0.027591618
36	0x3d3f084b	0.04663877
37	0x3d26c7bc	0.040717825
38	0x3ccddaab	0.025128683
39	0xbd33306f	-0.04374736
40	0x3c16f77d	0.009214279
41	0x3b37a690	0.0028022863
42	0x3d0556d8	0.032553524
43	0xbd394a4e	-0.045236878
44	0x3d282cc8	0.04105833
45	0xbd2182bf	-0.03943133
46	0xbc9fbd97	-0.019499583
47	0x3d5374a6	0.051624916
48	0xbc6f93fa	-0.014622683
49	0x3c9310c8	0.017952338
50	0x3cf692ed	0.030099357
51	0x3d2c1c8b	0.04201941
52	0xbcd44851	-0.02591339
53	0x3d59dddf	0.05319011
54	0x3c89db50	0.01682821
55	0x3cf6484b	0.030063769
56	0x3c9b6c15	0.018972436
57	0xbc4012b4	-0.011723209
58	0x3c592eef	0.013255819
59	0x3b86f547	0.004118595
60	0xbcb492cb	-0.022042653
61	0x3cfb1553	0.030649817
62	0x3cc4a50f	0.024004487
63	0xbb8eebe1	-0.004361615
64	0xbd05bf7c	-0.032653317
65	0xbd207d58	-0.039182037
66	0x3c470dcf	0.012149288
67	0x3ca92a26	0.02064998
68	0x3b8ec727	0.004357237
69	0x3d1765f2	0.036962457
70	0xbc66edc4	-0.014094774
71	0x3d0aa183	0.033845436
72	0x3d3aa242	0.045564897
73	0x3d232cf8	0.039837807
74	0x3c0ef14f	0.008724525
75	0xbb728d68	-0.0037010554
76	0xbd58b578	-0.052907437
77	0xbd2742fb	-0.040835362
78	0xbc05de73	-0.008170712
79	0xbd205403	-0.03914262
80	0x3c771201	0.015079976
81	0xbcb052a6	-0.021523785
82	0xbd23d5d5	-0.039998848
83	0xbd0ae323	-0.03390802
84	0xbc118a7d	-0.008883116
85	0x3d54298c	0.051797435
86	0xbd459952	-0.04824192
87	0xbca48990	-0.020085126
88	0xbcff0731	-0.031131359
89	0xbba8b01e	-0.005147948
90	0xbd33c00c	-0.043884322
91	0x3c9d7c9e	0.019224461
92	0x3a45d03d	0.00075459835
93	0xbd2b0ae9	-0.04175845
94	0x3cfcfa70	0.030881137
95	0xbc97192b	-0.018444618
96	0xbc287f2a	-0.0102842245
97	0x3be8929b	0.007097555
98	0xbd552274	-0.05203481
99	0xbd35f199	-0.04441986
100	0x3b59fa0a	0.0033260607
101	0x3ca9feab	0.020751318
102	0x3d63b59c	0.055593118
103	0xbc891d58	-0.016737625
104	0xbbe98399	-0.0071262834
105	0x3d403f13	0.046935152
106	0x3c162b1e	0.009165553
107	0xbbf58e15	-0.007493744
108	0xbb9010e5	-0.0043965452
109	0xbc07b809	-0.0082836235
110	0xbb360214	-0.0027772235
111	0xbd59490c	-0.05304818
112	0x3d1487de	0.036262386
113	0x3d0473af	0.032336887
114	0xbd44afe6	-0.048019312
115	0x39ece862	0.00045186566
116	0x3bcc8c51	0.006242313
117	0x3c96690b	0.018360635
118	0x3c5979d5	0.013273676
119	0xbd0fd0dc	-0.035111293
120	0xbd35a6ba	-0.044348456
121	0x3ac4a196	0.001500177
122	0x3c945456	0.01810662
123	0x3d14c543	0.036320936
124	0x3b91e5fe	0.004452466
125	0xbb26b071	-0.0025434757
126	0x3cb3b64b	0.02193751
127	0xbc2995e3	-0.010350677
128	0x3d30673d	0.043067206
129	0x3d36ed71	0.044660036
130	0xbd042517	-0.032261934
131	0xbd011d03	-0.03152181
132	0xbc8d719c	-0.017266087
133	0xbd3f9358	-0.046771377
134	0xbc8cb071	-0.017173978
135	0xbd21b5ea	-0.039480127
136	0x3cb7fb3f	0.02245867
137	0xbbca466a	-0.006172945
138	0x3c21cfc8	0.009876199
139	0xbd1a2ffc	-0.037643418
140	0x3c1de7c6	0.009637779
141	0xbc52b4b8	-0.0128604695
142	0x3d34a3ac	0.044101402
143	0xbd49017d	-0.049073685
144	0xbbf24aff	-0.007394194
145	0x3d12f833	0.035881232
146	0x3c5ca024	0.013465915
147	0x3c0ceb53	0.008601028
148	0xbd22fb37	-0.03979036
149	0x3bffe7d7	0.00780962
150	0xbc93edd8	-0.018057749
151	0xbc4eb826	-0.012617147
152	0xbd0d973c	-0.034568056
153	0xbd2c9f3a	-0.042144038
154	0x3d21c5b4	0.039495185
155	0x3b31375b	0.002704105
156	0x3cd3e2f2	0.025865052
157	0x3cddb6ae	0.027064648
158	0xbcdf08f0	-0.027225941
159	0x3cbe84fa	0.023256768
160	0xbd2057ee	-0.039146356
161	0xbd4b25e5	-0.049596686
162	0xbd3e7022	-0.046493657
163	0xbcb1c51f	-0.02170044
164	0x3cb9f39d	0.022699172
165	0x3ae6d92f	0.0017612333
166	0x3d5b080f	0.053474482
167	0x3d48d66d	0.049032617
168	0xbd48f666	-0.04906311
169	0xbc523233	-0.012829351
170	0x3c2826cc	0.010263156
171	0xbd16a701	-0.03678036
172	0xbd0e1f72	-0.034697957
173	0xbd035c45	-0.032070417
174	0xbca9b0eb	-0.020714244
175	0x3d148089	0.036255393
176	0xbcfadc03	-0.030622488
177	0x3d237a82	0.039911754
178	0x3c79e065	0.015251254
179	0xbd0a015f	-0.033692714
180	0xbc828502	-0.015932564
181	0xbc808e9a	-0.015692998
182	0x3c8cddd0	0.017195612
183	0x3cd72360	0.026261985
184	0xbc065ce5	-0.008200859
185	0xbc2755e3	-0.010213348
186	0x3c89a5ec	0.01680275
187	0xbc851074	-0.016243197
188	0xbca66753	-0.02031294
189	0x3b4371d8	0.0029822495
190	0x3c4cdec8	0.012504287
191	0x3ca1196e	0.019665446
192	0xbd1a6823	-0.03769697
193	0x3d432306	0.047640823
194	0x3b3fc7fc	0.0029263487
195	0xbd2bf33e	-0.04198002
196	0xbd29b675	-0.04143377
197	0xbd3c92ee	-0.04603856
198	0x3d3720e1	0.04470909
199	0x3d427d2a	0.047482647
200	0xbc0785e0	-0.008271664
201	0x3c552ec1	0.013011635
202	0xbd09d658	-0.03365168
203	0xbc1f1c46	-0.009711331
204	0x3d1b9c07	0.037990596
205	0xbd485f93	-0.04891927
206	0x3ce5e1e4	0.028061815
207	0x3b8687a6	0.004105526
208	0x3bc694c6	0.0060602156
209	0x3d0876de	0.033316486
210	0x3d396bfb	0.045268994
211	0xbd0bd1cc	-0.034135625
212	0xbc2b7e7c	-0.010467168
213	0x3cd06395	0.02543811
214	0xbbc0170e	-0.0058621233
215	0xbca53b0a	-0.020169754
216	0x3bc8957d	0.006121336
217	0xbba65dee	-0.0050771153
218	0x3d1b8ebb	0.037977915
219	0xbd2d32c4	-0.042284742
220	0x3d1f25b2	0.03885431
221	0x3cba1f1e	0.022719916
222	0xbd2a2f09	-0.041548762
223	0xbc797d16	-0.015227577
224	0xbc25b4a4	-0.010113869
225	0x3d2991d9	0.041398857
226	0x3c057f5d	0.008148042
227	0xbbe0434f	-0.0068439613
228	0x3d3cc187	0.046083
229	0x3cafdd8b	0.021467945
230	0x3c433a70	0.011915788
231	0x3c91fe6d	0.017821515
232	0x3c55e83b	0.013055856
233	0xbc56c94c	-0.013109516
234	0x3d297dc8	0.04137972
235	0x3c9197e9	0.017772632
236	0x3d18e824	0.03733076
237	0xbc85c663	-0.01632995
238	0x3cfd5beb	0.030927619
239	0xbb92fae1	-0.0044854735
240	0xbc02278a	-0.007943997
241	0xbb32caa6	-0.0027281432
242	0x3a8179b0	0.0009878185
243	0xbd355ebc	-0.0442798
244	0x3d090d03	0.033459675
245	0x3d3eb84f	0.04656249
246	0x3cb16deb	0.021658858
247	0xbcd49e44	-0.025954373
248	0x3ceb01b6	0.02868734
249	0x3b631464	0.0034649605
250	0xbd403075	-0.046921212
251	0x3c8b5bfc	0.017011635
252	0x3d029090	0.031876147
253	0xbc0d4ca2	-0.008624228
254	0xbbccc0a7	-0.006248552
255	0x3c1685ec	0.009187203

conv2.convs.<node___to___node>.lin_l.weight f4 [16, 16]
0	0x3e5cd899	0.21567
1	0x3de32c45	0.11092428
2	0x3be97385	0.0071243667
3	0xbe3ec4b7	-0.18629728
4	0xbd4c581f	-0.049888726
5	0xbe6ec19c	-0.23316044
6	0xbe326763	-0.17422251
7	0xbd532f07	-0.05155852
8	0x3e161d0d	0.1465952
9	0xbe4860a0	-0.1956811
10	0x3e43ff27	0.19140302
11	0x3e69fb08	0.22849667
12	0x3cc6a47c	0.024248354
13	0xbe2e5e37	-0.17028128
14	0xbdeb65e9	-0.11494047
15	0xbc6fc505	-0.014634375
16	0x3df57fa6	0.11987238
17	0x3c53e5ab	0.012933175
18	0x3e62a8ad	0.22134657
19	0x3c29b42a	0.010357896
20	0x3e675db0	0.22594333
21	0xbdcea57c	-0.100901574
22	0xbd76627d	-0.06015252
23	0xbd9a76e0	-0.07542205
24	0xbe560a2a	-0.20902315
25	0x3dcbb510	0.09946644
26	0x3d6af930	0.05736655
27	0x3c51d946	0.01280815
28	0x3d249934	0.04018517
29	0x3d9e7c40	0.077385426
30	0x3e248c4b	0.16069143
31	0x3e806d25	0.2508327
32	0xbe0d0ac0	-0.13773632
33	0xbe6373a2	-0.22212079
34	0xbd5005a5	-0.050786633
35	0xbe1bb165	-0.1520439
36	0x3e689bc8	0.22715676
37	0xbe15a3eb	-0.14613311
38	0xbc7bd84f	-0.015371396
39	0x3e6dd792	0.23226765
40	0x3d362dfa	0.04447744
41	0x3e4bbee9	0.19897045
42	0xbdb4a09d	-0.08819697
43	0x3e04bd5a	0.12962857
44	0x3ba74de4	0.005105721
45	0x3b126909	0.0022340438
46	0x3dba15d1	0.090861924
47	0xbe132ad7	-0.14371811
48	0x3d1bdde0	0.038053393
49	0x3e53bab0	0.20676684
50	0x3e3c7545	0.1840411
51	0xbcc5090f	-0.024052171
52	0x3bb34f7c	0.0054721218
53	0xbdbd39db	-0.09239551
54	0x3e10016e	0.14063045
55	0x3e330c55	0.17485173
56	0x3e794824	0.24343926
57	0x3cab9880	0.020946741
58	0x3bcd4765	0.0062646144
59	0x3e017a0d	0.12644215
60	0xbde0449c	-0.10950586
61	0xbd694141	-0.056946997
62	0xbde60f2a	-0.11233361
63	0xbc0078af	-0.007841273
64	0x3d0536cb	0.032522958
65	0xbdb6c216	-0.08923738
66	0xbd952b65	-0.072836675
67	0x3e1a2378	0.15052593
68	0x3c785c1f	0.015158682
69	0x3e5d32e0	0.21601439
70	0x3de2eb40	0.110800266
71	0xbda06f38	-0.07833713
72	0xbcee2b05	-0.029073248
73	0x3e5f7c3d	0.21824737
74	0x3df228b5	0.118241705
75	0xbd726e41	-0.059187178
76	0x3de9cbbc	0.114158124
77	0xbd8c50fb	-0.06851383
78	0x3d7dd22a	0.061968006
79	0xbde292d0	-0.110631585
80	0x3dd40907	0.10353284
81	0xbb6f86a5	-0.003654876
82	0xbd0dfa27	-0.034662392
83	0x3d2ee82e	0.042701893
84	0xbe134e66	-0.14385375
85	0xbdd8bff0	-0.10583484
86	0xbe4061ce	-0.1878731
87	0x3e06cf12	0.13164929
88	0xbd4b2b54	-0.049601868
89	0x3d27d7da	0.040977336
90	0xbde62e3d	-0.11239288
91	0x3e68cdb4	0.2273472
92	0x3e67b2d0	0.22626805
93	0xbdc0dbee	-0.09416948
94	0xbe63b9b8	-0.22238815
95	0xbdcff02a	-0.101532295
96	0x3dd015a0	0.10160375
97	0x3e6c35b0	0.23067355
98	0xbd2fb384	-0.04289581
99	0xbd4bc3c4	-0.049747244
100	0x3dd8350a	0.105569914
101	0xbde17b84	-0.11009887
102	0x3e51d75b	0.20492308
103	0x3dc4431f	0.09583115
104	0x3e81f75a	0.25384027
105	0xbcabd7da	-0.02097695
106	0xbe7a1329	-0.24421372
107	0xbdd01029	-0.10159332
108	0xbd41d36c	-0.04732077
109	0xbe09e189	-0.13464941
110	0x3e41feaa	0.18944803
111	0x3e5b9a11	0.2144549
112	0x3e7ddf4f	0.24792217
113	0xbe0a420d	-0.13501759
114	0xbe314430	-0.17311168
115	0x3e5dff20	0.21679354
116	0xbac16896	-0.00147559
117	0x3da02042	0.07818653
118	0x3e06e826	0.13174495
119	0xbb99faa1	-0.0046990667
120	0x3e1e5059	0.15460338
121	0x3daeae16	0.08529298
122	0x3e7d369d	0.24727865
123	0x3db6beca	0.08923109
124	0xbd5e6d34	-0.054303363
125	0x3cbe0c9e	0.023199376
126	0xbe730577	-0.23732553
127	0x3dd94248	0.10608345
128	0x3cba2577	0.022722943
129	0x3e1b4923	0.15164618
130	0xbe2d52b5	-0.16926081
131	0xbe36d7ee	-0.17855808
132	0x3e3267b8	0.17422378
133	0xbe0a8e04	-0.13530737
134	0x3e1b1333	0.15144043
135	0x3e4b7941	0.19870473
136	0xbe3c8f83	-0.1841412
137	0xbcf8f846	-0.030391824
138	0xbe50848c	-0.20363063
139	0x3e3f1136	0.18658909
140	0xbb9e39e9	-0.004828681
141	0x3d846f80	0.064665794
142	0x3d912af0	0.07088268
143	0x3e4eabff	0.20182799
144	0x3d0bacc2	0.0341003
145	0x3d9c7999	0.076403804
146	0x3e0fc557	0.14040123
147	0xbe1480ce	-0.1450226
148	0xbe76e2af	-0.2410991
149	0xbd128426	-0.035770558
150	0xbddd1381	-0.10794736
151	0x3d9ca56c	0.07648739
152	0xbe3c6086	-0.18396196
153	0x3e180383	0.1484509
154	0xbe80786e	-0.2509188
155	0x3de73e90	0.1129123
156	0x3df12c96	0.11776082
157	0xbdcc64e7	-0.09980183
158	0x3dd4fb84	0.10399535
159	0xbe22fc84	-0.1591664
160	0x3e480380	0.19532585
161	0x3d1fc14c	0.0390027
162	0x3de48a04	0.11159137
163	0x3e4016fd	0.1875877
164	0xbe734477	-0.23756586
165	0xbe4a27ca	-0.19741741
166	0x3d886349	0.06659562
167	0xbd43c920	-0.04779923
168	0x3dc366d1	0.09541095
169	0xbc991810	-0.018688232
170	0xbdace543	-0.08442166
171	0xbdc8c0aa	-0.09802373
172	0xbdec2503	-0.11530497
173	0xbd87dc05	-0.06633762
174	0xbdb75f91	-0.08953775
175	0xbe00ef9b	-0.12591402
176	0x3e565def	0.2093427
177	0x3e4034db	0.18770163
178	0xbe2c6de5	-0.16838796
179	0x3e384715	0.17995866
180	0x3e65640d	0.22401448
181	0x3e7da40a	0.24769607
182	0x3dfd304f	0.1236273
183	0xbe5b6580	-0.21425438
184	0x3e296caa	0.16545358
185	0x3e60460f	0.21901725
186	0xbca84d00	-0.020544529
187	0xbda86464	-0.08222273
188	0xbc10daed	-0.0088412585
189	0x3e25d712	0.16195324
190	0xbcc4f58e	-0.02404287
191	0xbe68c86c	-0.22732705
192	0x3e2bddb9	0.16783799
193	0x3b8842b6	0.004158343
194	0xbcb78114	-0.022400416
195	0xbca192ef	-0.019723384
196	0x3e5a53d3	0.21321039
197	0xbe0a3738	-0.13497627
198	0x3d15fa91	0.036615912
199	0x3df0d8da	0.11760111
200	0x3cb8a720	0.022540629
201	0x3d9be5f5	0.0761222
202	0x3da9fab0	0.08299768
203	0x3e45d5a6	0.19319782
204	0xbdaa0e01	-0.08303452
205	0x3d7922a6	0.06082406
206	0x3e1c9db9	0.15294541
207	0xbd2be004	-0.041961685
208	0xbe4ac027	-0.19799863
209	0x3c48fff8	0.012268059
210	0xbe3e3226	-0.18573818
211	0xbe4c0adb	-0.19926016
212	0xbe610680	-0.21975136
213	0x3e3d4d65	0.18486555
214	0xbe777779	-0.24166669
215	0x3e690f27	0.22759686
216	0xbde46260	-0.11151576
217	0x3c09430a	0.0083778
218	0xbe24111d	-0.16022153
219	0xbe3323a4	-0.17494065
220	0xbe78bae6	-0.24290046
221	0x3e033b94	0.12815696
222	0x3dd0f5c4	0.10203126
223	0x3d007690	0.03136307
224	0x3db28444	0.08716634
225	0xbe3eb350	-0.1862309
226	0xbe67be8e	-0.22631285
227	0xbe770cf9	-0.24126042
228	0x3e709bb5	0.23496898
229	0x3da23703	0.07920649
230	0xbde530a2	-0.111909166
231	0xbe0befa1	-0.1366563
232	0x3e81a44e	0.25320667
233	0x3e47bcba	0.19505587
234	0xbe4e37c4	-0.2013846
235	0x3e654e48	0.22393143
236	0xbd8c17bf	-0.06840467
237	0xbdedcf58	-0.11611813
238	0xbd141696	-0.036154352
239	0xbdf35b1e	-0.118826136
240	0xbdcb5e51	-0.09930099
241	0xbe2f6150	-0.17126966
242	0xbd3ebb4d	-0.046565343
243	0x3b21a02b	0.0024662118
244	0x3df3c2d8	0.11902398
245	0x3d1f3a20	0.03887379
246	0xbe292d4a	-0.16521183
247	0xbe068b40	-0.13139057
248	0x3e358505	0.17726524
249	0x3e6aa41f	0.2291417
250	0xbe3e4ff6	-0.1858519
251	0x3e554205	0.20825966
252	0x3e015754	0.1263097
253	0xbe203f25	-0.15649088
254	0xbe4b3d8a	-0.19847694
255	0xbb84a787	-0.004048291

conv2.convs.<node___to___node>.lin_l.bias f4 [16]
0	0x3cb9d0c7	0.02268256
1	0x3dfc1cce	0.123101816
2	0xbe53aed2	-0.20672157
3	0xbe589138	-0.21149147
4	0x3df61012	0.12014784
5	0x3d142edb	0.036177497
6	0xbe0765f0	-0.1322248
7	0xbe3e9d20	-0.18614626
8	0xbe60fd73	-0.21971683
9	0x3def5093	0.1168529
10	0x3e2f6486	0.1712819
11	0xbe5879a5	-0.21140154
12	0xb98802f7	-0.0002594215
13	0x3e664ef2	0.22491053
14	0x3c5e0b70	0.013552532
15	0xbe3ade62	-0.18248895

conv2.convs.<node___to___node>.lin_r.weight f4 [16, 16]
0	0xbdd3cd9a	-0.1034195
1	0xbe714fd0	-0.23565602
2	0xbe72fd75	-0.23729499
3	0xbda8fd0c	-0.0825139
4	0xbdced666	-0.10099487
5	0xbd1a15bb	-0.03761838
6	0xbb983dfc	-0.004646061
7	0x3daf949d	0.085732676
8	0xbe667e8b	-0.2250921
9	0x3dd63f87	0.10461336
10	0x3e4739bd	0.19455619
11	0xbe5c8e07	-0.21538554
12	0xbda920ec	-0.082582325
13	0x3e3dc27a	0.18531218
14	0xbb0c866c	-0.0021442426
15	0x3d9d67dc	0.07685825
16	0x3d13be9b	0.036070447
17	0xbe2821b9	-0.16419114
18	0x3e7c2efe	0.24627301
19	0x3d31c215	0.04339798
20	0xbc3c73e3	-0.011502239
21	0xbde42779	-0.11140341
22	0x3d6e6a38	0.058206767
23	0xbe7b6053	-0.24548464
24	0x3cf88786	0.03033806
25	0x3e307315	0.172314
26	0x3e2ebbc3	0.17063813
27	0x3e75eac9	0.24015345
28	0xbe4296ca	-0.19002834
29	0x3e3f7396	0.18696436
30	0xbcee186a	-0.029064376
31	0x3e7c37e0	0.2463069
32	0xbe15a2b7	-0.14612852
33	0x3e3651c3	0.17804627
34	0x3e7e73e3	0.24848895
35	0x3da2e396	0.07953565
36	0x3da4a1f3	0.08038702
37	0x3d88cb6e	0.06679426
38	0x3e2b14ce	0.16707155
39	0x3d8cdc01	0.068779
40	0x3e388520	0.18019533
41	0xbe2ea578	-0.17055309
42	0xbc39ec7e	-0.011347888
43	0xbe23cb2e	-0.15995476
44	0xbdc74b0c	-0.09731111
45	0x3dc6ab1c	0.09700605
46	0xbe08ceee	-0.13360187
47	0xbe79eb0f	-0.24406074
48	0x3e2ba6cb	0.16762845
49	0x3d9439e3	0.072376035
50	0x3daa4239	0.08313412
51	0x3e141888	0.14462483
52	0xbda4e9c0	-0.08052397
53	0xbdf368ca	-0.11885221
54	0x3d92aa47	0.07161384
55	0x3ddcb2a5	0.10776261
56	0x3e06d085	0.13165481
57	0x3e71cbd6	0.23612913
58	0x3e52ad43	0.20573907
59	0xbd2eca34	-0.042673305
60	0xbd6a067a	-0.057135083
61	0x3e62dbdd	0.22154184
62	0xbe4b720f	-0.19867729
63	0x3d04046e	0.032230787
64	0xbdc42e26	-0.095791146
65	0xbe08152f	-0.13289331
66	0xbdd3b186	-0.10336594
67	0xbc5f2b22	-0.0136211235
68	0xbd541d33	-0.05178566
69	0x3e72aa65	0.23697813
70	0x3e71dfeb	0.23620574
71	0xbda265f7	-0.079296045
72	0xbe5a1d6c	-0.21300286
73	0x3e7ce0d7	0.24695145
74	0x3e133003	0.14373784
75	0xbe246219	-0.16053046
76	0xbe443431	-0.19160534
77	0xbd48432b	-0.04889218
78	0x3dbcda30	0.092213035
79	0xbda780c1	-0.08178855
80	0xbd951727	-0.072798066
81	0xbd5962bc	-0.053072676
82	0x3bb2dd6c	0.0054585245
83	0xbe2a0404	-0.16603094
84	0x3e2d1ec3	0.16906266
85	0xbe1bbf7e	-0.15209767
86	0x3e4909a7	0.19632588
87	0x3e699786	0.22811708
88	0x3e59b768	0.2126137
89	0x3e316044	0.17321879
90	0x3ca20846	0.019779336
91	0xbe3c7ec0	-0.18407726
92	0xbd422f4f	-0.0474084
93	0x3e1bc512	0.15211895
94	0xbd8b83cd	-0.068122484
95	0x3e457ed0	0.19286656
96	0x3e28fb02	0.16502002
97	0xbdf5973b	-0.119917355
98	0xbe61b9c9	-0.22043528
99	0xbd8e1fdd	-0.06939671
100	0xbe33cde2	-0.17559007
101	0x3d840f9c	0.0644829
102	0xbbba546f	-0.005686335
103	0x3e6729e3	0.22574572
104	0x3e68999b	0.22714846
105	0xbdd3694d	-0.10322819
106	0xbe0274a5	-0.12739809
107	0x3e48fa95	0.1962684
108	0xbe35c7b7	-0.17751966
109	0x3e54d42c	0.20784062
110	0x3e77c551	0.24196364
111	0xbdf3d612	-0.11906065
112	0xbe4ee670	-0.20205092
113	0xba3fd6cb	-0.00073180784
114	0xbe63a415	-0.22230561
115	0x3dbb4f10	0.09145939
116	0x3cfb5234	0.030678846
117	0x3e4dc87f	0.20096014
118	0x3dca38d3	0.098741196
119	0x3e81de43	0.25364885
120	0xbd3f3b11	-0.04668719
121	0x3e3fe5e5	0.18740042
122	0xbe509a46	-0.2037135
123	0xbd1fc611	-0.03900725
124	0x3e383e4c	0.17992514
125	0x3e817c03	0.25289926
126	0xbe60546b	-0.21907203
127	0xbd78aa98	-0.060709566
128	0x3d775941	0.060387854
129	0xbe00526a	-0.12531438
130	0x3d8c8bdb	0.06862613
131	0xbe6cbb36	-0.2311829
132	0xbddbb767	-0.107283406
133	0xbda3ddf4	-0.080013186
134	0x3e1df0b8	0.15423858
135	0x3e17bbfe	0.14817807
136	0x3e49f5cb	0.19722669
137	0xbdc95027	-0.09829741
138	0x3dfcc700	0.12342644
139	0x3d91d74d	0.071211435
140	0xbd685e09	-0.056730304
141	0xbcc75afe	-0.02433538
142	0xbddc7723	-0.10764911
143	0x3e373ce5	0.17894323
144	0xbe3a268c	-0.18178767
145	0xbc59bbc9	-0.0132894
146	0xbd97cbff	-0.07411956
147	0xbe62a129	-0.2213179
148	0xbe4304ac	-0.19044751
149	0x3e430d24	0.19047982
150	0x3dc82bce	0.0977398
151	0xbcda0aaf	-0.026616422
152	0xbe686a1a	-0.22696725
153	0x3c1bd587	0.009511358
154	0x3e7896be	0.24276254
155	0x3e378f39	0.17925729
156	0xbe393e27	-0.18090115
157	0xbe0ce548	-0.13759339
158	0x3e3cc353	0.18433885
159	0xbe54eafe	-0.20792767
160	0xbd3b33aa	-0.045703568
161	0x3e333dae	0.17503998
162	0xbbe4779f	-0.0069722678
163	0xbbf1eda6	-0.007383066
164	0x3cde9e74	0.027175166
165	0xbe2cc5ba	-0.16872302
166	0xbe26a7e3	-0.16274981
167	0xbe6fa975	-0.23404486
168	0xbe776d8d	-0.24162884
169	0xbe68c712	-0.2273219
170	0xbd34682f	-0.04404467
171	0xbe13454a	-0.143819
172	0x3d661d33	0.05618019
173	0xbe5de229	-0.21668305
174	0x3e38009a	0.1796898
175	0x3dd4f9c4	0.103992015
176	0x3d2a033a	0.041506983
177	0x3ceb7a07	0.02874471
178	0xbc6d59dd	-0.014486757
179	0xbe450e15	-0.19243653
180	0x3df70c98	0.12062949
181	0x3e761419	0.24031104
182	0xbda6a50c	-0.08136949
183	0x3e61ae26	0.22039089
184	0xbe5bf59a	-0.21480408
185	0xbdf6dd17	-0.12053888
186	0xbe0880e9	-0.13330425
187	0x3e6255fd	0.22103114
188	0xbcb449a3	-0.022007769
189	0xbe47d86d	-0.19516154
190	0xbdff6db3	-0.12472095
191	0x3d2db580	0.04240942
192	0xbe283c1b	-0.16429178
193	0xbc906385	-0.01762558
194	0xbd890283	-0.06689932
195	0x3ce50a3f	0.027958987
196	0xbd8ca9c1	-0.068683155
197	0x3d9c72d2	0.07639088
198	0x3e405445	0.18782146
199	0xbe0f5e11	-0.14000727
200	0x3e820355	0.25393167
201	0x3e5c6e4f	0.21526454
202	0xbd2f4c61	-0.04279745
203	0xbdf9a64a	-0.1218992
204	0x3e2b5505	0.16731651
205	0xbc0c209f	-0.008552699
206	0x3d94383e	0.0723729
207	0x3e0022f9	0.12513341
208	0xbce70108	-0.028198734
209	0xbde4b117	-0.1116659
210	0x3e2de0f8	0.1698035
211	0xbc9e8a8f	-0.01935318
212	0xbe1e99fe	-0.15488431
213	0xbe473939	-0.19455422
214	0x3e341f16	0.17589983
215	0x3ddb481c	0.10707113
216	0x3de2aa5e	0.11067651
217	0xbe688593	-0.22707205
218	0x3c0c23c1	0.008553446
219	0xbde8c20a	-0.11365135
220	0x3e7237aa	0.23654047
221	0x3c27f997	0.010252378
222	0xbdc8f33c	-0.09812018
223	0x3e6a9413	0.22908048
224	0xbd75eaf3	-0.06003852
225	0xbe424f58	-0.1897558
226	0xbe16282f	-0.14663766
227	0x3d0d6c9c	0.034527406
228	0x3db3c869	0.087784596
229	0xbe5832dd	-0.21113153
230	0x3e4c785f	0.19967793
231	0xbe146004	-0.14489752
232	0x3e7bd1b8	0.2459172
233	0xbddefb31	-0.10887755
234	0xbe3c3339	-0.18378915
235	0xbe29102a	-0.16510072
236	0x3e722ebb	0.23650639
237	0x3e290f37	0.1650971
238	0x3e35f0a5	0.1776758
239	0x3e1970f2	0.14984491
240	0x3e383e3c	0.1799249
241	0xbd598dbb	-0.05311368
242	0x3e521930	0.20517421
243	0x3e472e82	0.19451335
244	0xbe722b98	-0.23649442
245	0xbd8f7e88	-0.07006556
246	0xbd45ba3e	-0.048273318
247	0xbd5d38aa	-0.054009117
248	0x3e26fe41	0.16307928
249	0x3d1e9ebe	0.038725607
250	0x3e5627ab	0.2091357
251	0xbe1e92c0	-0.15485668
252	0x3e3fdf26	0.18737468
253	0xbe65cdd9	-0.22441806
254	0xbe51b8a8	-0.20480597
255	0x3e26b59d	0.16280217

conv3.convs.<node___to___node>.lin_l.weight f4 [16, 16]
0	0xbe3404a2	-0.17579892
1	0xbd9c62f6	-0.07636063
2	0x3e7031d4	0.23456508
3	0xbdf9515e	-0.12173723
4	0x3e08d760	0.13363409
5	0x3d87e9b2	0.06636371
6	0xbdccfb41	-0.100088604
7	0xbe13ecab	-0.1444575
8	0x3e61a993	0.22037344
9	0x3dc88a64	0.09792021
10	0x3d094295	0.033510763
11	0xbdaa68c0	-0.08320761
12	0x3e058504	0.13039023
13	0x3df18bc3	0.117942356
14	0xbe209a3b	-0.15683834
15	0xbd214ffa	-0.039382912
16	0x3c9285f3	0.017886138
17	0x3cc098fa	0.023510445
18	0xbdf33cec	-0.11876854
19	0xbcc49a67	-0.023999406
20	0xbe7f90f4	-0.24957639
21	0xbd8f78d5	-0.07005469
22	0xbd4d6ea6	-0.05015435
23	0xbdf3d71c	-0.11906263
24	0xbdb6f1d8	-0.08932847
25	0x3e4956a9	0.19661964
26	0x3e2c0fff	0.16802977
27	0xbe160b69	-0.1465279
28	0x3cc244d5	0.023714462
29	0xbc6cfc33	-0.014464426
30	0x3e617e8a	0.22020927
31	0xbdb33e8e	-0.08752166
32	0xbe46a35f	-0.19398259
33	0x3dd14a92	0.10219301
34	0xbe0ebea5	-0.13939913
35	0x3ddb09ca	0.106952265
36	0x3e2292e1	0.15876342
37	0x3db80663	0.08985593
38	0xbe6ac0ea	-0.22925153
39	0xbe6f19c8	-0.23349679
40	0xbe764368	-0.24049151
41	0xbe596e1e	-0.21233413
42	0xbdad7470	-0.08469474
43	0x3dce7504	0.10080913
44	0x3d296df8	0.04136464
45	0x3deb4286	0.11487298
46	0x3e11513c	0.14191145
47	0x3e1d97b9	0.15389909
48	0xbe73e1c5	-0.23816593
49	0xbe2b6cf7	-0.16740786
50	0x3e2f8e4f	0.1714413
51	0xbd07e19a	-0.033174135
52	0xbe227548	-0.15865052
53	0xbe266831	-0.16250683
54	0xbe4eb998	-0.20187986
55	0x3db70bd8	0.08937806
56	0x3d1f0f3d	0.03883289
57	0x3dc5e9af	0.09663712
58	0x3de86b25	0.11348561
59	0xbe051d7a	-0.12999526
60	0x3e606166	0.21912155
61	0x3e3cb5f6	0.18428788
62	0xbd37928b	-0.04481749
63	0xbe3b9688	-0.18319142
64	0x3e6cfac7	0.23142539
65	0xbe6f11ea	-0.23346677
66	0x3dbc3ecd	0.09191666
67	0xbc0399e7	-0.008032299
68	0x3e46910c	0.19391268
69	0xbd5f4fff	-0.05451965
70	0x3d87052b	0.065927826
71	0xbd965e1e	-0.0734217
72	0xbe6ced82	-0.23137477
73	0xbd8c66f8	-0.06855577
74	0xbd6d94ce	-0.05800324
75	0x3b105336	0.0022022254
76	0x3d2730cb	0.040818017
77	0xbe77fc6a	-0.24217382
78	0xbe721d78	-0.23644054
79	0x3e570aa3	0.21000151
80	0xbdc2c5f6	-0.09510414
81	0xbd92b9df	-0.07164358
82	0xbc0587ee	-0.008150084
83	0xbe2e1a83	-0.17002301
84	0xbe00da43	-0.1258326
85	0xbe2c0716	-0.16799578
86	0x3b8054e7	0.003916371
87	0xbdc6430a	-0.096807554
88	0xbbc799e9	-0.0060913456
89	0x3e4271ce	0.18988726
90	0x3e26bd41	0.16283132
91	0x3dc4554d	0.09586582
92	0x3e531a22	0.20615438
93	0x3dcb725e	0.09933923
94	0x3da310ca	0.07962187
95	0x3da91a20	0.08256936
96	0x3e25e348	0.16199982
97	0xbe24582e	-0.16049263
98	0xbe77be79	-0.24193753
99	0xbe2eaa47	-0.17057143
100	0x3dddc426	0.10828428
101	0x3e357228	0.17719328
102	0xbe6f2d16	-0.23357043
103	0xbe0b3044	-0.1359263
104	0xbdac0a3d	-0.0840039
105	0x3dd6a991	0.10481561
106	0x3e166bb4	0.14689523
107	0xbd5d5ada	-0.05404172
108	0xbdd0e106	-0.1019917
109	0x3d88caea	0.06679328
110	0xbd4f51cb	-0.050615113
111	0xbe816283	-0.2527047
112	0x3e656a32	0.22403792
113	0x3e3bae79	0.18328275
114	0x3ba61724	0.0050686765
115	0xbb518f91	-0.0031976441
116	0xbdde6db3	-0.10860767
117	0xbe6a4eba	-0.22881594
118	0xbe0b76a9	-0.13619484
119	0x3e61b857	0.22042976
120	0xbe3fd5d2	-0.1873391
121	0x3e07d750	0.13265729
122	0x3e708515	0.23488267
123	0x3e41c3a1	0.18922283
124	0xbe4430a5	-0.19159181
125	0x3e2eaed9	0.17058887
126	0xbe34d8da	-0.17660847
127	0x3da88b0c	0.08229646
128	0x3d8abe63	0.06774595
129	0x3d8e5362	0.06949498
130	0xbdd8a35e	-0.10578035
131	0x3e61a436	0.22035298
132	0x3cc9beac	0.024627052
133	0xbd07c6c8	-0.033148557
134	0x3d687a35	0.05675717
135	0xbe751f0e	-0.23937628
136	0xbdafe1f6	-0.085880205
137	0x3e55325f	0.20819996
138	0xbe5effcb	-0.21777265
139	0x3c48f645	0.0122657465
140	0x3d4a23e8	0.04935065
141	0xbe10ab24	-0.14127785
142	0x3d2d01c6	0.04223802
143	0x3ddb5188	0.1070891
144	0x3d981fe7	0.0742796
145	0x3e61183b	0.219819
146	0x3e4a40b3	0.19751243
147	0xbe6417cc	-0.22274703
148	0xbe32e27c	-0.1746921
149	0x3c26f4da	0.010190213
150	0x3e6fe0fa	0.23425665
151	0xbd63b2df	-0.055590507
152	0x3df9b3e8	0.121925175
153	0x3e45c568	0.19313586
154	0xbe201dea	-0.15636411
155	0xbe359359	-0.1773199
156	0xbdc04374	-0.09387866
157	0x3c1c8b8a	0.009554753
158	0x3b231ed8	0.002489021
159	0x3e435342	0.19074729
160	0xbd284d9d	-0.041089643
161	0xbe52a147	-0.20569335
162	0x3e10865f	0.14113759
163	0xbe413901	-0.18869402
164	0x3c6463f7	0.013939849
165	0xbe566df6	-0.20940384
166	0xbe6d88b7	-0.23196684
167	0x3e782214	0.2423175
168	0x3c57a19e	0.013161091
169	0x3e620091	0.22070529
170	0xb9dc55e0	-0.00042025652
171	0xbdc52149	-0.09625489
172	0xbe487dbe	-0.19579217
173	0x3dbea22d	0.09308276
174	0x3e10ad7d	0.1412868
175	0x3e5659da	0.20932713
176	0x3d995a8c	0.074879736
177	0xbda5a5f5	-0.080882944
178	0xbe59dfbf	-0.21276759
179	0x39deb514	0.00042478053
180	0xbc6d6b9f	-0.014490991
181	0x3db528f9	0.088457055
182	0xbe4ddd41	-0.20103933
183	0x3e5fa85d	0.21841569
184	0xbd616358	-0.055026382
185	0x3c34c6c9	0.011033722
186	0x3e5c6625	0.2152334
187	0x3e6fcc2e	0.23417732
188	0xbe2ad2be	-0.16681954
189	0x3d8ad6f4	0.0677928
190	0xbe1552ef	-0.14582418
191	0x3dae58d3	0.085130356
192	0xbddb1365	-0.106970586
193	0xbe4479ab	-0.19187038
194	0x3de5fe5a	0.11230154
195	0xbddc7ae0	-0.10765624
196	0x3c9daeca	0.019248385
197	0xbe633982	-0.22189906
198	0xbe2cc974	-0.16873723
199	0x3e0aa16b	0.13538139
200	0x3da2bec0	0.07946539
201	0x3d190600	0.037359238
202	0x3d51cf50	0.0512231
203	0xbca0392e	-0.019558515
204	0xbd9d4820	-0.076797724
205	0x3d9120f2	0.07086362
206	0xbcb99a27	-0.022656513
207	0x3e77e58e	0.24208662
208	0x3dc79fc3	0.09747269
209	0x3e6b376a	0.22970358
210	0xbdfac1f2	-0.122440234
211	0xbe3b6548	-0.18300354
212	0xbc22a639	-0.009927326
213	0x3bcf8d5b	0.0063339896
214	0x3e41b1e3	0.18915515
215	0x3cb8e6f7	0.02257107
216	0x3b22d5d1	0.0024846683
217	0x3e65f9f8	0.22458637
218	0xbd8580cd	-0.065187074
219	0xbe0ce0a5	-0.1375757
220	0x3d7bcb7e	0.061473362
221	0x3cfa08af	0.030521719
222	0x3dc2c35d	0.09509919
223	0xbcc37172	-0.023857806
224	0x3e385ef4	0.18004972
225	0x3e19c6f3	0.150173
226	0x3e3a4dce	0.18193743
227	0xbe616649	-0.22011675
228	0xbe44509e	-0.19171378
229	0x3e506c18	0.20353734
230	0xbe157577	-0.1459559
231	0x3dcdc090	0.10046494
232	0xbe211a79	-0.15732755
233	0x3e5cec0f	0.21574424
234	0xbd5f423b	-0.05450652
235	0x3d29fef9	0.041502926
236	0x3d1fe29c	0.03903447
237	0x3e7052d3	0.23469095
238	0x3c4a1fef	0.012336715
239	0x3d45d9c6	0.048303388
240	0xbc97f224	-0.018548079
241	0xbe3342e5	-0.17505987
242	0xbe458511	-0.19289042
243	0xbe15b2b6	-0.14618954
244	0xbe0da210	-0.13831353
245	0x3e58d1e4	0.21173817
246	0x3e3e9aa2	0.18613675
247	0x3d9794fa	0.07401462
248	0x3e2e0785	0.16995056
249	0xbdbe7c31	-0.093010314
250	0x3e05c00e	0.13061544
251	0x3d3f8167	0.046754267
252	0xbe2bbe52	-0.1677182
253	0x3e685e37	0.2269219
254	0x3e7866a7	0.24257909
255	0xbd9e4626	-0.077282235

conv3.convs.<node___to___node>.lin_l.bias f4 [16]
0	0xbe1ada61	-0.15122367
1	0xbe4a4fa2	-0.1975694
2	0x3e5b1b5f	0.2139716
3	0xbe5d9bb1	-0.21641423
4	0x3dae0d75	0.084986605
5	0x3dc1b6d6	0.09458701
6	0x3e4dfed6	0.20116743
7	0xbe1dd6a0	-0.15413904
8	0xbe1880ff	-0.14892958
9	0x3ddf0401	0.108894356
10	0xbe3721b8	-0.17883956
11	0x3bd95d64	0.0066334475
12	0x3e766586	0.24062166
13	0xbc494e39	-0.012286716
14	0x3e2982d8	0.16553819
15	0xbd58ed6b	-0.052960794

conv3.convs.<node___to___node>.lin_r.weight f4 [16, 16]
0	0xbdd4d1a2	-0.10391547
1	0xbe776be4	-0.24162251
2	0x3db9db57	0.09075039
3	0xbcfd298b	-0.030903598
4	0x3e56856c	0.20949334
5	0x3d1c8aba	0.038218237
6	0xbdeea9ae	-0.116534576
7	0x3db2c79a	0.08729477
8	0xbe6ceb79	-0.231367
9	0x3e79b4db	0.24385397
10	0x3c911d62	0.017714206
11	0x3e0f7f2a	0.14013353
12	0x3e0c79b0	0.13718295
13	0xbd867858	-0.065659225
14	0x3e61a1c1	0.2203436
15	0x3d96838b	0.073493086
16	0xbdeb1ec9	-0.11480481
17	0xbe69ced6	-0.22832808
18	0x3d05a743	0.032630216
19	0x3df36733	0.11884918
20	0xbe1c97fb	-0.15292351
21	0xbe5d5703	-0.21615224
22	0xbe5325a8	-0.20619833
23	0x3e2c4cd5	0.16826184
24	0xbd0ad2d4	-0.033892468
25	0x3bd82279	0.0065959063
26	0xbe4b5667	-0.19857179
27	0x3e744934	0.2385605
28	0xbdc926ea	-0.098218754
29	0xbe28dbfe	-0.1649017
30	0x3791d0a6	1.7382506e-05
31	0x3e1fd264	0.15607601
32	0x3e3ec915	0.18631394
33	0xbe5d0e45	-0.21587475
34	0xbdfc7cae	-0.12328468
35	0xbe1e7a97	-0.15476452
36	0xbe746bcf	-0.2386925
37	0xbe23e425	-0.16004999
38	0x3ca2c2cb	0.019868275
39	0xbdd11456	-0.10208957
40	0xbdda061c	-0.106456965
41	0x3e004cbf	0.12529276
42	0xbde55705	-0.11198238
43	0x3cd6c54e	0.02621713
44	0x3dbc7162	0.092013136
45	0xbd9ecd19	-0.07753963
46	0x3e018f4a	0.12652317
47	0x3d7dccad	0.061962772
48	0xbd8dd9c9	-0.06926305
49	0x3aae1b16	0.0013283219
50	0xbdab7419	-0.08371753
51	0x3e25cde2	0.1619182
52	0x3cfae650	0.0306274
53	0x3e3702b4	0.17872125
54	0x3d4ca9b1	0.049966518
55	0x3dae04c9	0.084970064
56	0x3dd4c4f3	0.103891276
57	0xbd95ac03	-0.07308199
58	0xbe4beec7	-0.19915305
59	0xbd8cc550	-0.06873572
60	0x3e30c9b2	0.1726444
61	0x3e523012	0.2052615
62	0x3e356efb	0.17718117
63	0x3e3d94c1	0.18513776
64	0x3d63eacd	0.055643845
65	0xbe12e732	-0.14346007
66	0x3e0e27f1	0.13882424
67	0xbe3c7de1	-0.18407394
68	0xbe0adc19	-0.13560523
69	0xbdde257c	-0.10846993
70	0x3e70f2e8	0.23530161
71	0xbd5214e6	-0.05128946
72	0xbdc16bac	-0.09444365
73	0xbdbff9fe	-0.09373854
74	0xbe54f2f1	-0.207958
75	0xbe53034d	-0.20606728
76	0x3ded19c0	0.11577177
77	0xbe0147a5	-0.12624986
78	0x3de50612	0.111827984
79	0x3e5b8941	0.21439077
80	0x3cfbd612	0.030741725
81	0x3e4ee04f	0.20202754
82	0xbdbff2fe	-0.09372519
83	0xbe723342	-0.23652366
84	0x3d4dc466	0.05023613
85	0x3e2cc265	0.1687103
86	0x3e28f933	0.16501312
87	0xbdcfac1b	-0.101402484
88	0x3e5c84c9	0.21535029
89	0xbe37fd38	-0.17967689
90	0xbdb7fc91	-0.0898372
91	0xbdedcec2	-0.116117015
92	0x3df3cc53	0.11904206
93	0xbe600d08	-0.21879971
94	0x3dbc5e5c	0.09197685
95	0x3cb1ef2a	0.021720488
96	0x3decbc1c	0.115593165
97	0x3d37531a	0.044756986
98	0x3c96601a	0.018356372
99	0x3e1a76ae	0.15084335
100	0x3d0fe847	0.035133626
101	0xbdc7b6cb	-0.09751662
102	0xbe588beb	-0.21147124
103	0x3da2997f	0.07939433
104	0xbe00e629	-0.12587799
105	0x3e2497e3	0.16073565
106	0x3e49c31b	0.19703333
107	0xbe3ec8b5	-0.18631251
108	0x3e106265	0.14100035
109	0x3e42cfb5	0.19024546
110	0xbdb094ec	-0.086221546
111	0xbe65faf0	-0.22459006
112	0xbd05e8e7	-0.032692816
113	0x3e14f87b	0.14547913
114	0xbca8ca97	-0.020604415
115	0x3e408098	0.18799055
116	0xbe4c4fc7	-0.19952308
117	0xbd63f140	-0.055649996
118	0x3e2068eb	0.15665023
119	0x3e362d26	0.1779066
120	0x3d1125a7	0.0354363
121	0x3de72f24	0.11288288
122	0x3d285c82	0.041103847
123	0xbd43a249	-0.04776219
124	0x3e1d1563	0.1534019
125	0x3e4ef156	0.2020925
126	0x3b8294be	0.0039850166
127	0x3e1c8fee	0.1528928
128	0x3e5d9bda	0.21641484
129	0xbd9c5fc4	-0.07635453
130	0x3e2e7189	0.17035498
131	0xbe68e28b	-0.2274267
132	0xbe81374a	-0.25237495
133	0x3e6ed36f	0.23322843
134	0x3c5d302d	0.0135002555
135	0x3e5190ad	0.20465346
136	0x3e13d43e	0.14436433
137	0xbe7b8442	-0.24562171
138	0x3e00ddad	0.12584563
139	0x3e200954	0.15628558
140	0x3d964d4f	0.07338964
141	0x3e26c933	0.16287689
142	0xbe2ae6a0	-0.16689539
143	0xbe302fe0	-0.17205763
144	0x3e0c86e4	0.13723332
145	0x3dd8f96e	0.1059445
146	0xbe3c3b3b	-0.1838197
147	0x3e4164d2	0.18886116
148	0xbdb21f43	-0.08697369
149	0xbe65d3c3	-0.22444062
150	0x3e79a91e	0.2438092
151	0xbc32e571	-0.010918961
152	0x3e0c3493	0.1369193
153	0xbe117efc	-0.14208597
154	0x3de97f94	0.11401287
155	0x3e31776e	0.17330715
156	0x3e17c5c7	0.1482154
157	0x3e3fe070	0.1873796
158	0xbe3b4330	-0.18287349
159	0x3db377bc	0.08763072
160	0x3b1551d8	0.0022784378
161	0xbdc34cea	-0.095361546
162	0x3c99cd29	0.018774586
163	0x3e41a22b	0.18909518
164	0xbdaa4e67	-0.08315735
165	0x3e16c6d1	0.1472428
166	0xbdccb880	-0.09996128
167	0xbe709e7d	-0.23497958
168	0xbc320949	-0.010866472
169	0x3e4d3ff9	0.20043935
170	0xbda12a82	-0.07869436
171	0xbdf7e739	-0.12104649
172	0xbe6aaaac	-0.22916669
173	0x3c8cc5dc	0.01718419
174	0xbe155ce1	-0.14586212
175	0xbba4d374	-0.00503009
176	0xbdd73b12	-0.10509314
177	0x3dd80b37	0.10549014
178	0xbdab8b11	-0.08376134
179	0xbe53a983	-0.20670132
180	0xbe36084a	-0.177766
181	0xbc1425d1	-0.009042219
182	0xbe0f0490	-0.13966584
183	0xbe5b5dc2	-0.21422485
184	0x3c6b647e	0.014367221
185	0x3e29a9c1	0.16568662
186	0x3daa5f10	0.08318913
187	0x3e04ba41	0.12961675
188	0x3df8395c	0.121203154
189	0x3e64728d	0.22309323
190	0xbe631e52	-0.22179535
191	0xbd4f15dc	-0.050557956
192	0xbd9c23a7	-0.07623988
193	0xbdb58fac	-0.08865294
194	0x3e71aebd	0.23601814
195	0x3e315ab4	0.17319757
196	0x3b6c8bbf	0.0036094037
197	0xbc592c52	-0.013255196
198	0x3e0b5abd	0.13608833
199	0x3de3ab20	0.11116624
200	0xbbccc8bc	-0.0062495153
201	0xbca5b9bd	-0.020230168
202	0x3c06deb8	0.008231811
203	0xbe5bbefb	-0.21459572
204	0x3d523f4c	0.051329896
205	0xbe686025	-0.22692926
206	0xbe3b1f93	-0.18273763
207	0xbd43b991	-0.04778439
208	0xbdd3d2ea	-0.10342963
209	0xbe54131e	-0.20710418
210	0xbb6d582b	-0.0036215882
211	0xbe3c5aa0	-0.18393946
212	0xbe509c01	-0.20372011
213	0x3e3843f0	0.17994666
214	0xbe20156d	-0.15633173
215	0xbe29115c	-0.16510528
216	0xbe3742eb	-0.17896621
217	0x3d2b7f30	0.041869342
218	0xbc3f4a98	-0.011675499
219	0xbe46f5b8	-0.19429672
220	0xbd7bea0f	-0.061502513
221	0x3d0d9d9b	0.034574132
222	0xbe061d9c	-0.13097233
223	0x3e1ce879	0.15323056
224	0x3e698250	0.22803617
225	0xbe0223a5	-0.1270891
226	0xbe7afce7	-0.24510537
227	0x3de7ff68	0.11328012
228	0xbde915aa	-0.11381085
229	0xbd300038	-0.04296896
230	0x3e43f77d	0.19137378
231	0xbd2028f4	-0.039101556
232	0x3d647ba9	0.055781994
233	0x3d792039	0.060821746
234	0xbd87a9a3	-0.066241525
235	0xbe012b37	-0.12614141
236	0xbe5e25f4	-0.21694165
237	0x3e4c1715	0.1993068
238	0xbe5b56ef	-0.21419881
239	0xbdd192af	-0.10233056
240	0x3e77ba69	0.24192204
241	0xbdff67a5	-0.124709405
242	0x3e444b8f	0.19169448
243	0x3cb6742a	0.022272188
244	0xbe69e5ea	-0.22841612
245	0x3c831b2d	0.01600417
246	0x3c6fd7e4	0.014638875
247	0x3e66213b	0.22473614
248	0x3dbd7a0e	0.09251796
249	0xbe0bec2a	-0.13664308
250	0x3e65cb18	0.22440755
251	0x3d22646a	0.039646544
252	0x3e4e25bc	0.20131582
253	0x3d856e00	0.065151215
254	0xbd41dc31	-0.04732913
255	0xbc5e60fb	-0.013572927
