ShadowWeave/Long-Tail Optimization/ShadowWeave(0.5).pth (torch, 63329 bytes, 12 tensors)

node_type_embedding.weight f4 [11, 128]
-1.0718561 1.498463 0.29288924 0.18978034 0.6243405 1.2978503 1.8634732 0.40743035
0.046718407 -0.5692882 -0.05309249 -0.013360459 -0.08206395 1.6428434e-05 1.5210931 0.08826586
-0.3458067 -9.949729e-05 -0.305733 0.8847538 0.8646385 -0.50437564 -1.6143095 0.20653945
-0.00027346177 -0.61636716 1.4026332 0.043977067 0.9589026 1.3392038 1.5472327 0.3647711
0.070229776 0.28680062 -0.01900487 0.00011428835 0.509532 -1.5525037 0.064972416 -2.394096
0.7798238 0.68782943 -0.3655279 -0.7973525 0.16136265 0.84076196 -1.6982163 1.4424485
-0.38150147 0.096582934 0.90678877 -0.98308426 1.2998819 -0.5938555 -9.809914e-12 1.2631534
-1.0501646 0.40555876 0.6685106 9.454948e-10 0.91225153 0.92724943 -0.6351641 0.1572912
-0.6832586 0.15082426 -0.30121115 -0.32825863 -1.2279636 -1.0083838 -0.4161748 0.61595714
-0.19752306 -0.32415995 -0.54440975 -0.6412723 0.994782 0.49064812 0.0015680155 -0.5032637
-1.2559396 -0.2980911 -0.15846334 -0.46395332 -0.8019652 -0.08161802 2.4450574 0.9552866
-0.71676403 -1.2087927 0.4260911 -0.010997712 -0.17556491 -0.871621 -1.313949 0.35332167
0.08509392 0.33400154 0.36305144 0.14101975 -0.17815113 3.0113159e-09 0.17665434 -1.4616365
0.39742735 -0.32902682 0.30894005 -2.333969 0.26604185 0.9021309 0.14729287 -0.34680903
1.0886688 0.39568937 -0.5513451 -0.17691323 -0.58994496 0.7458379 -0.53929055 1.77807
0.050496276 0.067268625 -0.06523608 3.6265525e-13 -1.7036747 -0.59873855 -0.51697695 0.7612078
1.0807024 -1.9582117 2.3667672 1.5852588 -0.22000626 0.86945504 0.11759622 0.18650623
1.0720618 0.7372153 1.9366176 0.5965989 -0.2311452 -0.004670209 -0.34324053 1.162226
-1.4193367 -0.44858953 -1.7751161 -0.16779833 0.40658155 -0.37606797 0.64295375 0.83966917
0.08910043 -0.025012411 -0.046463028 -0.56163985 -0.4016887 1.0557314 -0.4623118 -0.9564122
0.40777338 0.8950236 -0.038545147 -0.78345734 1.2957318 0.29766217 -0.2926124 -0.7331763
0.084692575 0.005193141 -0.4261605 -0.24235985 0.45649487 -0.93849486 0.65384984 -0.63810456
-0.8773415 0.14473328 1.5896736 -0.50513655 0.95648766 -1.6096777 1.2558639 0.21297
0.2530233 2.3051596 0.033201963 0.2665155 0.25256538 -0.85850215 -1.0110178 -1.2387086
-1.0317554 0.4685464 1.8221345 0.7464019 1.2872757 0.16458583 -0.028085545 -0.6703519
1.5839863 1.282772 0.32881516 0.51741105 -0.8237697 1.5681916 0.34331307 -0.36667404
1.722103 0.5165984 1.4794431 -0.15317409 -0.3485633 -0.85499454 -1.0487996 0.23645087
-3.14183 -0.8143941 -1.0504626 0.0483388 0.961611 1.2089198 0.23479106 0.15611991
1.3397975 1.0179192 2.2540064 0.18770362 -2.4760888 -0.9618675 0.95187765 -0.03749506
-0.69848084 0.04914813 0.870652 -1.2564408 0.24682377 -0.6553096 -0.8221125 -1.3191068
1.9189165 0.077055074 0.5429779 -1.5734367 -1.4161816 -0.81342447 -0.36553043 -0.5756961
-0.5865862 2.0303159 2.2235198 -0.20966017 0.2956585 -0.43844157 1.6880741 1.1518086
00000000: 9532 89bf a3cd bf3f 94f5 953e c755 423e
00000010: c7d4 1f3f f51f a63f 4a86 ee3f b69a d03e
00000020: cd5b 3f3d dfbc 11bf 8377 59bd d4e5 5abc
00000030: 2511 a8bd cbcf 8937 2eb3 c23f bbc4 b43d
00000040: 930d b1be 33a9 d0b8 0989 9cbe 3a7f 623f
00000050: f358 5d3f c31e 01bf b2a1 cebf 147f 533e
00000060: 6b5f 8fb9 3dca 1dbf 7c89 b33f 4c21 343d
00000070: a47a 753f 086b ab3f b90b c63f 47c3 ba3e
00000080: a1d4 8f3d 88d7 923e 1ab0 9bbc 17ae ef38
00000090: b070 023f 71b8 c6bf 4210 853d de38 19c0
000000a0: 88a2 473f 9715 303f 7926 bbbe 4b1f 4cbf
000000b0: 403c 253e 2d3c 573f 275f d9bf 27a2 b83f
000000c0: 2954 c3be 46cd c53d 4f23 683f 69ab 7bbf
000000d0: 8862 a63f ea06 18bf ed93 2cad 03af a13f
000000e0: cb6b 86bf 66a5 cf3e 8323 2b3f a4f2 8130
000000f0: 5189 693f 3860 6d3f 1d9a 22bf f210 213e
00000100: 09ea 2ebf ad71 1a3e 5938 9abe 8411 a8be
00000110: e92d 9dbf b812 81bf dd14 d5be 5eaf 1d3f
00000120: 7c43 4abe 4bf8 a5be 705e 0bbf 6c2a 24bf
00000130: 08aa 7e3f 3b36 fb3e df85 cd3a e4d5 00bf
00000140: a1c2 a0bf 669f 98be 3744 22be 4a8b edbe
00000150: 974d 4dbf 5927 a7bd d27b 1c40 aa8d 743f
00000160: d97d 37bf b8b9 9abf 9d28 da3e bf2f 34bc
00000170: 4ac7 33be 8e22 5fbf 7b2f a8bf 94e6 b43e
00000180: b945 ae3d 4002 ab3e e1e1 b93e 7b67 103e
00000190: 406d 36be a1ef 4e31 e0e4 343e e816 bbbf
000001a0: 997b cb3e 3476 a8be 642d 9e3e c05f 15c0
000001b0: a336 883e 0df2 663f f1d3 163e f490 b1be
000001c0: 8059 8b3f cc97 ca3e f424 0dbf be28 35be
000001d0: a206 17bf 3cef 3e3f f20e 0abf cc97 e33f
000001e0: 2fd5 4e3d 22c4 893d 7e9a 85bd 2128 cc2a
000001f0: 0312 dabf ee46 19bf 9a58 04bf 84de 423f
00000200: 7554 8a3f aea6 fabf 1d79 1740 c3e9 ca3f
00000210: 5249 61be 9b94 5e3f 49d6 f03d 7dfb 3e3e
00000220: 5239 893f 24ba 3c3f 16e3 f73f b5ba 183f
00000230: 54b1 6cbe 8d08 99bb 39bd afbe d2c3 943f
00000240: d3ac b5bf 87ad e5be 0137 e3bf 53d3 2bbe
00000250: 752b d03e fb8b c0be 9e98 243f 8ff4 563f
00000260: 497a b63d d4e6 ccbc 0450 3ebd a1c7 0fbf
00000270: 24aa cdbe 3522 873f 22b4 ecbe 6ed7 74bf
00000280: acc7 d03e 4420 653f 84e1 1dbd a990 48bf
00000290: 8ada a53f 2d67 983e 4bd1 95be 71b1 3bbf
000002a0: 4d73 ad3d 392b aa3b b631 dabe 2e2d 78be
000002b0: b2b9 e93e 3341 70bf b462 273f d25a 23bf
000002c0: 7499 60bf f634 143e 6d7a cb3f a150 01bf
000002d0: 60dc 743f eb09 cebf 26c0 a03f cf14 5a3e
000002e0: 458c 813e bc87 1340 c8fe 073d b874 883e
000002f0: 4050 813e ccc6 5bbf 0869 81bf 018e 9ebf
00000300: 9010 84bf 50e5 ef3e b43b e93f 3214 3f3f
00000310: 73c5 a43f 3089 283e a813 e6bc 2f9c 2bbf
00000320: 10c0 ca3f df31 a43f 765a a83e 0d75 043f
00000330: 92e2 52bf 81ba c83f bbc6 af3e b3bc bbbe
00000340: df6d dc3f cb3f 043f 645e bd3f abd9 1cbe
00000350: e476 b2be ece0 5abf 113f 86bf 2d20 723e
00000360: be13 49c0 227c 50bf 8f75 86bf e8fe 453d
00000370: 232c 763f e2bd 9a3f 116d 703e e6dd 1f3e
00000380: 7c7e ab3f 2d4b 823f a441 1040 6135 403e
00000390: 3d78 1ec0 f33c 76bf 41ae 733f 6c94 19bd
000003a0: a4cf 32bf 8d4f 493d 0de3 5e3f 0dd3 a0bf
000003b0: 5fbf 7c3e 5fc2 27bf f775 52bf 7ed8 a8bf
000003c0: 0e9f f53f 0dcf 9d3d 9a00 0b3f 6066 c9bf
000003d0: 7045 b5bf 963c 50bf ce26 bbbe d260 13bf
000003e0: 832a 16bf b2f0 0140 264e 0e40 28b1 56be
000003f0: 8d60 973e 6a7b e0be d012 d83f 776e 933f

conv1.convs.<node___to___node>.lin_l.weight f4 [16, 360]
0.044391755 -0.015307157 0.061554015 -0.041468788 0.064134605 -0.021700911 0.05882368 0.046673972
-0.07048521 -0.020135129 0.0064457674 -0.022796184 -0.001990687 -0.06800386 -0.034249924 0.01793391
0.104826644 -0.029398281 -0.07495148 -0.071843065 0.02573035 -0.04663971 0.016031934 -0.052724328
-0.024738891 0.025022833 0.007237506 -0.02801677 0.00013409769 -0.022853363 0.021116516 0.04057881
0.052827246 0.02312506 0.009961968 -0.043013625 0.10841835 0.0038957987 -0.05857988 -0.02571115
-0.05373645 0.067962766 0.07305983 0.030900521 0.00010526017 -0.05493817 0.056941926 0.07873955
-0.19649014 0.07508157 -0.047386587 -0.13476396 0.06244886 0.02098866 -0.045755472 -0.10208171
-0.015931398 0.11217729 -0.053302154 0.07962704 0.058705423 -0.044437587 -0.048871834 -0.1604975
0.018921219 -0.03726875 -0.10697279 -0.019155897 -0.09848914 -0.06666834 0.0521105 0.12185487
-0.014969143 0.0069422103 0.04399817 0.09099236 -0.017993372 0.04133299 0.03628744 -0.1126692
0.0093120085 0.029796232 -0.082855724 -0.007315065 -0.061969418 0.017922428 0.044670798 0.0055136657
-0.053936582 -0.07826884 -0.06200134 0.09250924 0.08224982 0.07349571 0.0062643965 0.024384163
0.05487538 0.0048580724 -0.12858751 0.043868247 -0.07815506 -0.005963322 -0.006859786 0.05074961
-0.002943564 0.06939672 -0.03994643 0.08775393 -0.045408357 -0.07353148 -0.11780844 -0.033804193
-0.014466388 -0.0515813 -0.07916652 0.13695335 0.04924214 0.039400753 -0.074624985 -0.10384051
0.050041657 -0.0010339489 0.04402117 0.07743435 0.11063998 0.08060735 -0.11199836 0.10483079
0.037103016 0.0043267272 0.09473733 -0.04674162 0.06477547 -0.009929426 -0.017786782 0.017669093
-0.07000993 -0.14789084 0.0047129365 0.032461945 -0.12683946 -0.002871083 0.1547966 -0.06270245
0.09318493 0.12241065 0.056050315 0.043459654 0.0230388 0.003526431 -0.06189449 -0.082350016
0.10340587 0.045577325 0.05839379 0.001953984 0.011718749 -0.06751624 0.01881157 0.16209285
0.05018146 -0.024992945 -0.024642132 0.060694203 0.00312294 -0.05465562 0.04737532 0.07477573
-0.046818014 -0.09006318 -0.024459388 0.029774388 0.025192792 0.059864543 0.015656143 -0.084208116
0.09527596 0.115153454 -0.030256243 -0.07071612 0.062225003 0.026270652 0.048609477 -0.04161643
-0.0008750418 -0.11081063 0.05500649 0.077407785 -0.10096989 0.10208108 -0.09630623 -0.088325895
-0.0378459 -0.15283729 -0.07152262 0.012519427 -0.059098817 0.09529491 -0.007895736 0.109066196
-0.09828541 0.06364767 0.03547637 -0.013539887 -0.03837869 -0.13892473 -0.03219927 0.099079095
-0.036388844 -0.06771987 0.122148894 -0.06965882 0.06641892 0.027074024 -0.099291176 0.091538966
0.13585722 -0.06818091 -0.010961935 0.07619934 -0.009707317 0.073244065 -0.049080342 -0.031490404
-0.04218045 0.052421615 0.018524079 0.05776039 -0.0055299317 0.090243235 -0.12734057 0.041126534
0.028156742 0.023405677 -0.02189705 0.01789647 0.032176893 -0.040120628 0.0136130005 0.10570232
0.050020956 0.12382647 0.020411089 -0.0286984 0.0055945176 -0.04866677 0.020668548 0.056827005
-0.046886057 0.08911806 0.026010502 0.02921518 0.010637322 -2.388944e-05 -0.046389375 0.036084246
00000000: 21d4 353d dfca 7abc 1020 7c3d 2ddb 29bd
00000010: 0159 833d 1cc6 b1bc 19f1 703d 352d 3f3d
00000020: 8d5a 90bd 6df2 a4bc 0437 d33b 10bf babc
00000030: 3076 02bb 9c45 8bbd a649 0cbd 23ea 923c
00000040: 5aaf d63d aad4 f0bc 2980 99bd 7522 93bd
00000050: 74c8 d23c 4809 3fbd 6755 833c 77f5 57bd
00000060: 37a9 cabc affc cc3c 9a28 ed3b 6d83 e5bc
00000070: 939c 0c39 fa36 bbbc 8bfc ac3c f735 263d
00000080: 6261 583d c470 bd3c 8637 233c 0e2f 30bd
00000090: 710a de3d a850 7f3b 75f1 6fbd 31a0 d2bc
000000a0: c01a 5cbd 1030 8b3d 64a0 953d 1723 fd3c
000000b0: 20bf dc38 d906 61bd f03b 693d 3442 a13d
000000c0: b634 49be 5ec4 993d 7018 42bd 90ff 09be
000000d0: 60ca 7f3d 69f0 ab3c 176a 3bbd 3710 d1bd
000000e0: 9082 82bc 35bd e53d 5c53 5abd 8013 a33d
000000f0: 1975 703d 3004 36bd d52d 48bd 7559 24be
00000100: ac00 9b3c 1ea7 18bd 8d14 dbbd d4ec 9cbc
00000110: adb4 c9bd 6989 88bd d271 553d 0c8f f93d
00000120: 2341 75bc 7b7b e33b 6d37 343d 345a ba3d
00000130: d666 93bc c84c 293d 24a2 143d 1cbf e6bd
00000140: 6591 183c 3a17 f43c 43b0 a9bd 36b3 efbb
00000150: a5d3 7dbd 0ed2 923c baf8 363d fbab b43b
00000160: 9bec 5cbd 6a4b a0bd 1ef5 7dbd 7c75 bd3d
00000170: 9872 a83d eb84 963d 9145 cd3b 4cc1 c73c
00000180: 02c5 603d 7730 9f3b 72ac 03be 31af 333d
00000190: c30f a0bd f867 c3bb 0ec8 e0bb d3de 4f3d
000001a0: cfe8 40bb de1f 8e3d de9e 23bd 55b8 b33d
000001b0: 1dfe 39bd ac97 96bd 8d45 f1bd 4476 0abd
000001c0: 6e04 6dbc ea46 53bd 0e22 a2bd 803d 0c3e
000001d0: 20b2 493d af62 213d fcd4 98bd 55aa d4bd
000001e0: 7bf8 4c3d 9185 87ba 8b4f 343d e795 9e3d
000001f0: 3797 e23d 7715 a53d 655f e5bd 86b1 d63d
00000200: 55f9 173d 38c7 8d3b a505 c23d 2474 3fbd
00000210: 00a9 843d 08af 22bc 96b5 91bc c6be 903c
00000220: 5e61 8fbd b270 17be fa6e 9a3b d1f6 043d
00000230: 34e2 01be c828 3cbb 0083 1e3e 246a 80bd
00000240: bed7 be3d 6fb2 fa3d 0495 653d c002 323d
00000250: debb bc3c b21b 673b 1485 7dbd 20a7 a8bd
00000260: 75c6 d33d 4aaf 3a3d 542e 6f3d 690e 003b
00000270: ffff 3f3c f445 8abd b91a 9a3c abfb 253e
00000280: 138b 4d3d 01be ccbc 4cde c9bc 7c9a 783d
00000290: 3daa 4c3b 92de 5fbd a00c 423d 0524 993d
000002a0: 3fc4 3fbd 0b73 b8bd 0e5f c8bc 6be9 f33c
000002b0: 1d61 ce3c 8634 753d 5041 803c 4e75 acbd
000002c0: 0b20 c33d 93d5 eb3d f1db f7bc 9dd3 90bd
000002d0: a5df 7e3d 8d35 d73c bb1a 473d fd75 2abd
000002e0: 1063 65ba aff0 e2bd 7c4e 613d f987 9e3d
000002f0: 4dc9 cebd e30f d13d 333c c5bd 35e4 b4bd
00000300: 4d04 1bbd 6181 1cbe 747a 92bd 481e 4d3c
00000310: 9a11 72bd fa29 c33d 1e5d 01bc 195e df3d
00000320: dc49 c9bd b659 823d ac4f 113d 67d6 5dbc
00000330: f932 1dbd 4942 0ebe 62e3 03bd fbe9 ca3d
00000340: 780c 15bd b7b0 8abd 3329 fa3d 49a9 8ebd
00000350: a506 883d 58ca dd3c 2c59 cbbd c878 bb3d
00000360: 281e 0b3e 6fa2 8bbd b099 33bc 660e 9c3d
00000370: 700b 1fbc fc00 963d 7808 49bd 15fc 00bd
00000380: 68c5 2cbd 0cb8 563d cfbf 973c 2996 6c3d
00000390: 6e34 b5bb 72d1 b83d 9165 02be 4c74 283d
000003a0: f8a8 e63c 43bd bf3c 7161 b3bc 9e9b 923c
000003b0: ebcb 033d 8755 24bd 1009 5f3c 757a d83d
000003c0: c6e2 4c3d bb98 fd3d 2835 a73c e818 ebbc
000003d0: 3752 b73b cf56 47bd 1651 a93c 6fc3 683d
000003e0: 980b 40bd 8883 b63d fa13 d53c ac54 ef3c
000003f0: 2a48 2e3c 2f66 c8b7 c902 3ebd 13cd 133d

conv1.convs.<node___to___node>.lin_l.bias f4 [16]
0.012006785 -0.0010152978 0.11776525 0.013795052 0.07505968 0.07371864 0.06556657 0.041798383
0.027234277 0.0514422 0.03179635 0.007808515 0.08808074 0.07142295 0.10326394 0.022573598
00000000: 1bb8 443c be13 85ba e82e f13d a404 623c
00000010: e4b8 993d ccf9 963d c447 863d c834 2b3d
00000020: 6b1a df3c 0eb5 523d e43c 023d 92de ff3b
00000030: ad63 b43d 3246 923d 0b7c d33d 44ec b83c

conv1.convs.<node___to___node>.lin_r.weight f4 [16, 360]
0.020213455 -0.013372333 -0.060817283 -0.012962319 0.0028692381 0.035399437 0.036738794 -0.061874777
0.0012841584 -0.022127261 0.008763503 -0.01699416 -0.04210949 0.049038384 -0.036013864 0.012710637
0.055137157 -0.005859317 0.0864901 0.015510994 0.022845479 -0.011049427 0.043739907 0.032798547
-0.038836606 0.033391226 -0.03155019 -0.059415232 -4.9074402e-05 -0.026335167 0.017903857 -0.045343667
0.056956444 0.0228988 -0.0027954213 -0.055237137 0.022492055 -0.08530505 0.023546675 0.061361685
-0.049073275 -0.0002564514 0.04253149 0.05073433 0.037398413 0.0053852163 0.027615473 0.101124845
-0.03627582 0.033615444 0.07492508 -0.023348523 -0.025019433 0.046871994 -0.02454133 -0.06599336
0.015844867 0.050574988 0.031899765 -0.011463223 0.04972854 0.029921686 0.036551252 -0.0067355973
-0.10396549 0.079188034 -0.00413588 -0.072178714 0.0063557844 0.002481357 -0.09559874 0.08265737
-0.018654305 -0.008930204 0.012718591 -0.060160734 -0.0374293 0.030710148 0.041921724 -0.017328324
0.03179529 0.016063374 -0.07472248 0.04249879 -0.025071185 0.07643468 -0.026158614 -0.0065722764
-0.0803656 0.029538173 0.065869495 0.025702637 0.040728364 -0.097558565 -0.023861865 -0.008334249
-0.01885752 -0.08272635 0.041286636 0.03237923 0.034018718 0.011886028 0.04445942 -0.03235401
-0.004512574 0.02107542 0.06188898 0.04997917 0.021681149 -0.031574205 0.04476591 -0.028993187
-0.14015909 -0.057492815 -0.06409651 -0.010713209 0.008086992 -0.017749734 0.025044072 0.022256713
-0.0064100516 -0.071858555 0.023128217 -0.05331464 0.05875833 -0.0030094872 0.07149601 -0.084970124
0.016242655 0.036424376 -0.054250028 0.048782136 -0.02310173 -0.049439862 -0.018469565 0.08212467
-0.08481645 0.008026652 0.07557398 -0.023148645 0.022405803 -0.0021172946 -0.061231516 0.011842707
-0.02107996 0.01631243 -0.049766943 -0.078887336 0.09603091 0.09937078 -0.00057625247 -0.03244167
-0.09112289 -0.05180032 0.078045994 -0.019926466 0.029032147 -0.039511327 -0.06520895 -0.08061771
-0.038477447 -0.08680945 -0.031638306 -0.1339945 0.03671788 -0.05589903 0.008652745 0.06329709
0.07677009 -0.029664772 0.008569999 0.07184173 0.024110137 -0.018874165 0.004974827 0.025501251
0.02387755 -0.018111607 0.0012101252 0.034729417 -0.054191086 0.021589704 -0.06234267 -0.033820324
-0.05221642 -0.006073861 0.07193059 0.0036961257 -0.021536333 -0.0108197965 0.029887576 -0.047917537
0.04198984 -0.0015428482 -0.0054442612 0.018937534 -0.052846834 -0.03755533 -0.038544208 0.030351538
-0.012141807 0.023881702 0.018528951 0.015850898 0.021468138 0.04809443 -0.019031858 -0.010455817
0.009983722 0.032814544 -0.035791688 0.025208414 -0.0068512643 0.03334143 -0.0057801805 -0.030748833
-9.741148e-05 0.012476211 -0.014120414 0.032944698 -0.039113868 -0.05640816 -0.05110961 0.07353971
-0.04132218 0.0011813269 0.01530084 -0.06685035 -0.009822028 -0.03458432 0.09048719 -0.0060851877
0.14503282 0.08441241 0.05678722 -0.019618057 -0.088556856 0.15146953 0.091702156 0.007006599
0.09263634 0.040153902 0.06586507 0.011128689 0.06740854 0.10141994 0.11962512 0.038691476
0.06005479 0.046141054 -0.0156167215 -0.13870431 -0.020728312 -0.0038807914 -0.030447755 -0.009780749
00000000: b096 a53c a117 5bbc 8b1b 79bd e85f 54bc
00000010: d409 3c3b 00ff 103d 6b7b 163d 6870 7dbd
00000020: 3551 a83a 3b44 b5bc cc94 0f3c 5637 8bbc
00000030: 007b 2cbd 79dc 483d 4683 13bd 4740 503c
00000040: 80d7 613d 83ff bfbb b921 b13d d321 7e3c
00000050: 7126 bb3c a808 35bc 9e28 333d c557 063d
00000060: 2213 1fbd 3dc5 083d c63a 01bd 635d 73bd
00000070: 3dd5 4db8 d9bc d7bc 1cab 923c 48ba 39bd
00000080: 294b 693d 4496 bb3c 6333 37bb 5640 62bd
00000090: 4241 b83c 6ab4 aebd f5e4 c03c 6456 7b3d
000000a0: 0f01 49bd 5374 86b9 8035 2e3d cdce 4f3d
000000b0: 142f 193d 7876 b03b d839 e23c 8b1a cf3d
000000c0: f495 14bd 59b0 093d 5272 993d 6745 bfbc
000000d0: 8ef5 ccbc d9fc 3f3d e60a c9bc 8727 87bd
000000e0: 18cd 813c b827 4f3d 54a9 023d 3ed0 3bbc
000000f0: 27b0 4b3d 531e f53c c4b6 153d 49b6 dcbb
00000100: dceb d4bd 562d a23d 4786 87bb 6fd2 93bd
00000110: 2f44 d03b 439e 223b 46c9 c3bd 4448 a93d
00000120: ead0 98bc fe4f 12bc a361 503c 1a6b 76bd
00000130: 774f 19bd d993 fb3c 1db6 2b3d 21f4 8dbc
00000140: c73b 023d 5697 833c 1908 99bd 3613 2e3d
00000150: 1662 cdbc c989 9c3d 974a d6bc 405c d7bb
00000160: b896 a4bd 0afa f13c 96e6 863d 568e d23c
00000170: c9d2 263d c9cc c7bd f579 c3bc 608c 08bc
00000180: 167b 9abc 6f6c a9bd 2d1c 293d 15a0 043d
00000190: 3657 0b3d 9dbd 423c 151b 363d a385 04bd
000001a0: 37de 93bb 5ca6 ac3c 4d7f 7d3d f5b6 4c3d
000001b0: aa9c b13c f453 01bd 755c 373d 1f83 edbc
000001c0: dd85 0fbe 967d 6bbd 0845 83bd 7586 2fbc
000001d0: 4e7f 043c e467 91bc 3a29 cd3c b653 b63c
000001e0: 690b d2bb 942a 93bd 6377 bd3c 7460 5abd
000001f0: 93ac 703d d13a 45bb 806c 923d d104 aebd
00000200: 510f 853c ba31 153d 4735 5ebd c7cf 473d
00000210: d73f bdbc 7481 4abd 7c4d 97bc fb30 a83d
00000220: 3fb4 adbd 3882 033c 88c6 9a3d 3aa2 bdbc
00000230: 608c b73c 4fc2 0abb e6cd 7abd ea07 423c
00000240: e1af acbc a5a1 853c 6cd8 4bbd af8f a1bd
00000250: dbab c43d e882 cb3d a60f 17ba 8ee1 04bd
00000260: a39e babd 932c 54bd 94d6 9f3d d43c a3bc
00000270: d3d4 ed3c a1d6 21bd 458c 85bd e61a a5bd
00000280: 879a 1dbd 27c9 b1bd 2b97 01bd db35 09be
00000290: 7d65 163d 62f6 64bd 3ec4 0d3c e8a1 813d
000002a0: a339 9d3d 8903 f3bc 2e69 0c3c c221 933d
000002b0: 9f82 c53c fe9d 9abc e003 a33b 00e8 d03c
000002c0: da9a c33c cb5e 94bc 109d 9e3a 6f40 0e3d
000002d0: 79f7 5dbd e4dc b03c 075b 7fbd 2e87 0abd
000002e0: e3e0 55bd 3d07 c7bb 5850 933d b33a 723b
000002f0: f76c b0bc 8445 31bc cad6 f43c 2e45 44bd
00000300: 8afd 2b3d 6539 caba c665 b2bb e322 9b3c
00000310: ec75 58bd 9ed3 19bd 88e0 1dbd caa3 f83c
00000320: 6eee 46bc 8fa3 c33c 07ca 973c bed9 813c
00000330: f3dd af3c aafe 443d b3e8 9bbc e04e 2bbc
00000340: c492 233c 8b68 063d 4e9a 12bd e081 ce3c
00000350: 9280 e0bb 0691 083d ab67 bdbb fae4 fbbc
00000360: 6449 ccb8 0669 4c3c 4f59 67bc 05f1 063d
00000370: dd35 20bd 3e0c 67bd 4f58 51bd fd9b 963d
00000380: 7241 29bd c1d6 9a3a 60b0 7a3c d6e8 88bd
00000390: 92ec 20bc 4aa8 0dbd 5951 b93d 4166 c7bb
000003a0: 7c83 143e 6ae0 ac3d b799 683d 0cb6 a0bc
000003b0: 4c5d b5bd d41a 1b3e 57ce bb3d 9d97 e53b
000003c0: 1fb8 bd3d 6b78 243d 44e4 863d 1b55 363c
000003d0: 7d0d 8a3d 42b5 cf3d 04fe f43d f47a 1e3d
000003e0: 03fc 753d 67fe 3c3d 47dd 7fbc 8108 0ebe
000003f0: 6cce a9bc e054 7ebb 926d f9bc 6f3f 20bc

conv2.convs.<node___to___node>.lin_l.weight f4 [16, 16]
0.2528867 0.1121252 -0.12889521 0.1162797 0.17420763 -0.019145729 -0.1535511 0.17629692
0.09733614 -0.07732721 -0.15478812 -0.12376532 0.22650984 0.24724597 0.28571892 0.2634307
-0.25504136 0.15501899 -0.25234532 -0.0094121285 -0.017355282 -0.30660298 -0.10989278 0.084715985
0.17878135 -0.076604635 0.21442907 -0.048847564 0.22803749 0.11530094 0.057605915 -0.11968633
-0.066288024 -0.10544828 0.2101433 -0.25759584 0.24212715 0.13182843 0.08053292 -0.10538771
-0.01013282 -0.011124346 0.050031066 -0.004652097 0.0044567524 0.13623594 -0.06600703 -0.088453904
0.018552054 0.13005319 0.24619544 -0.16708286 0.034443483 -0.12169071 -0.1492347 -0.03596414
0.007875526 0.15698189 0.12008724 0.14039142 -0.23500468 0.13024926 0.120138034 0.053560667
-0.067272246 0.14950146 -0.066224486 -0.21884066 -0.046822052 -0.23756844 -0.04420812 -0.117204964
-0.21814586 -0.17530024 0.20531498 -0.14095977 -0.17899317 0.06740342 0.07570209 -0.15216236
0.11166512 0.11328521 -0.26604366 0.23919529 -0.035387997 0.13010895 -0.11838876 -0.007688788
-0.17098907 -0.12320984 0.100370266 0.21215941 0.1274994 0.055563413 -0.14332367 0.079679236
-0.15512173 -0.07490902 -0.13793844 -0.013511658 0.05992914 -0.13814813 0.122376904 -0.15941189
-0.1566888 0.13097511 -0.1649652 -0.13294321 0.10940423 -0.2312145 -0.29027054 0.11485423
-0.09629539 -0.18589045 -0.022683749 0.23464304 0.24583186 -0.16803306 0.15166984 -0.07639726
-0.22070567 0.028594509 0.12583816 -0.17704228 0.21510234 -0.16895083 -0.25208685 0.14175422
0.02918554 -0.14300333 0.059910495 -0.13598305 0.07624616 0.06600625 0.043802064 0.28061593
0.093437955 0.04473956 0.32337183 0.061587095 -0.057742342 0.13442266 -0.15129648 0.07847036
0.23282644 0.08459476 -0.12798205 -0.09378378 -0.20194085 0.18576393 -0.049078103 0.17146252
0.091222085 -0.024574727 -0.08453777 -0.018564783 -0.06794086 -0.08345383 -0.13586086 0.22722396
0.16772602 -0.13054505 -0.10137845 0.094663896 0.26116014 0.24870893 -0.08884484 -0.099090904
0.054470636 0.15498447 -0.15701573 -0.17044815 0.22184423 -0.16200761 -0.060442246 0.14057104
-0.10206154 0.035884846 0.13609995 -0.16582046 0.10765449 0.086547576 0.18791328 -0.1348007
-0.05478009 0.055966876 -0.08497811 0.061833292 0.2598531 0.018128505 -0.17896497 0.24014321
0.18183802 -0.085871845 0.066058286 -0.099480875 0.10210589 -0.23203132 0.122471415 0.002242191
-0.044829715 -0.27585557 -0.12666002 0.14574601 0.03924878 0.11338756 -0.11886979 0.04696032
-0.15535015 -0.071985066 0.11671952 -0.104517035 0.20124266 0.10312136 -0.10847763 0.22732829
-0.04532966 -0.016912593 0.15449134 0.086536735 -0.15695699 0.15372306 0.11143582 0.288337
-0.23777655 -0.013167549 -0.05496963 -0.12601176 0.27869046 -0.044022914 -0.21272376 -0.027008662
0.2350262 -0.044651516 0.07757716 0.115053095 -0.02369578 0.022238152 0.21099067 0.19538058
0.24165247 0.18436521 0.16375087 0.26412126 0.084024295 -0.061188903 0.26467565 -0.09799724
0.09995801 -0.15998945 -0.07186727 -0.02068559 -0.018461468 0.09872034 -0.01799608 0.117105104
00000000: 5e7a 813e e6a1 e53d 1bfd 03be 0d24 ee3d
00000010: 7c63 323e 81d7 9cbc 803c 1dbe 2e87 343e
00000020: 2c58 c73d ba5d 9ebd c780 1ebe ac78 fdbd
00000030: 32f2 673e 0c2e 7d3e c049 923e 64e0 863e
00000040: c894 82be 4cbd 1e3e 6833 81be 5435 1abc
00000050: aa2c 8ebc 11fb 9cbe 770f e1bd 937f ad3d
00000060: 7512 373e e4e2 9cbd 4b93 5b3e 6214 48bd
00000070: a982 693e e622 ec3d 2ef4 6b3d 1b1e f5bd
00000080: 04c2 87bd 45f5 d7bd ce2f 573e 9ae3 83be
00000090: 2ef0 773e 08fe 063e 72ee a43d 83d5 d7bd
000000a0: 2104 26bc e442 36bc 60ed 4c3d 9e70 98bb
000000b0: f309 923b 6f81 0b3e b22e 87bd 5227 b5bd
000000c0: 7afa 973c aa2c 053e a81a 7c3e c517 2bbe
000000d0: 9c14 0d3d fb38 f9bd fbd0 18be 224f 13bd
000000e0: 5a08 013c dcbf 203e 4df0 f53d c5c2 0f3e
000000f0: 11a5 70be 1060 053e ee0a f63d 6e62 5b3d
00000100: 08c6 89bd e916 193e b4a0 87bd c417 60be
00000110: 7bc8 3fbd 2445 73be 9313 35bd 2809 f0bd
00000120: a161 5fbe e881 33be 173e 523e c257 10be
00000130: fc49 37be ce0a 8a3d b309 9b3d 73d0 1bbe
00000140: afb0 e43d 1402 e83d e036 88be 9cef 743e
00000150: 01f3 10bd 483b 053e ce75 f2bd 3bf2 fbbb
00000160: c217 2fbe 7155 fcbd ed8e cd3d 5140 593e
00000170: 348f 023e 7696 633d 71c3 12be de2e a33d
00000180: 3bd8 1ebe e669 99bd bc3f 0dbe 0060 5dbc
00000190: 4278 753d b476 0dbe bea0 fa3d df3c 23be
000001a0: 0773 20be 571e 063e a3ec 28be 4422 08be
000001b0: 530f e03d 7ec3 6cbe 579e 94be b238 eb3d
000001c0: 8436 c5bd 115a 3ebe 45d3 b9bc 4446 703e
000001d0: 59bb 7b3e dc10 2cbe 574f 1b3e 2b76 9cbd
000001e0: ab00 62be 083f ea3c b8db 003e 924a 35be
000001f0: ca43 5c3e 7201 2dbe 8711 81be 0528 113e
00000200: 8316 ef3c 776f 12be b564 753d 243f 0bbe
00000210: f226 9c3d 492e 873d cb69 333d e4ac 8f3e
00000220: 665c bf3d d440 373d fe90 a53e c042 7c3d
00000230: 3c83 6cbd 18a6 093e 77ed 1abe 11b5 a03d
00000240: 0e6a 6e3e 0440 ad3d ba0d 03be b611 c0bd
00000250: 95c9 4ebe e638 3e3e 1f06 49bd df93 2f3e
00000260: a5d2 ba3d f050 c9bc 2322 adbd 2c15 98bc
00000270: 9424 8bbd d7e9 aabd 1c1f 0bbe 66ad 683e
00000280: 5fc0 2b3e 9aad 05be 819f cfbd 25df c13d
00000290: c8b6 853e 8ead 7e3e 49f4 b5bd 2cf0 cabd
000002a0: 9a1c 5f3d 40b4 1e3e bbc8 20be f689 2ebe
000002b0: 222b 633e 53e5 25be 4a92 77bd dbf1 0f3e
000002c0: a405 d1bd fdfb 123d c95d 0b3e d7cc 29be
000002d0: f579 dc3d db3f b13d 576c 403e 3209 0abe
000002e0: 1661 60bd 863d 653d 0109 aebd e844 7d3d
000002f0: 770b 853e 3b82 943c 9842 37be 1ae8 753e
00000300: bf33 3a3e 94dd afbd 9149 873d a1bc cbbd
00000310: e51c d13d 9e99 6dbe 4bd2 fa3d b9f1 123b
00000320: 5d9f 37bd f13c 8dbe 2ab3 01be 713e 153e
00000330: 54c3 203d bd37 e83d 0172 f3bd 7759 403d
00000340: 1c14 1fbe e86c 93bd a50a ef3d 070d d6bd
00000350: 8e12 4e3e 4b31 d33d 8529 debd bfc8 683e
00000360: 98ab 39bd 478c 8abc fa32 1e3e 2c3a b13d
00000370: 55b9 20be 9469 1d3e 7738 e43d e8a0 933e
00000380: b27b 73be b4bc 57bc d627 61bd 3a09 01be
00000390: 84b0 8e3e 5f51 34bd 42d4 59be 4541 ddbc
000003a0: b5aa 703e 82e4 36bd c6e0 9e3d f5a0 eb3d
000003b0: a71d c2bc c92c b63c f00d 583e d911 483e
000003c0: bf73 773e 3cca 3c3e 4fae 273e e73a 873e
000003d0: ee14 ac3d 37a1 7abd 9183 873e c7b2 c8bd
000003e0: c9b6 cc3d 46d4 23be 262f 93bd d474 a9bc
000003f0: 813c 97bc e42d ca3d 846c 93bc cdd4 ef3d

conv2.convs.<node___to___node>.lin_l.bias f4 [16]
0.15594466 0.034415416 -0.008645183 0.20458157 0.13973399 0.09230416 -0.11593087 -0.07081514
-0.026551822 0.2962342 -0.028780943 0.1847828 0.007970869 -0.20434086 -0.0026293457 0.1313047
00000000: f5af 1f3e 2ef7 0c3d 87a4 0dbc d57d 513e
00000010: 6d16 0f3e f709 bd3d 2a6d edbd 8707 91bd
00000020: 3583 d9bc 02ac 973e 03c6 ebbc b437 3d3e
00000030: 3f98 023c bb3e 51be 1a51 2cbb bd74 063e

conv2.convs.<node___to___node>.lin_r.weight f4 [16, 16]
0.1907641 -0.22711602 0.11965513 -0.14836407 -0.17554837 -0.06686231 -0.2363048 -0.25481972
-0.10702989 -0.11955394 0.17065956 -0.35430798 0.010256581 -0.0057841972 -0.21355349 -0.045446057
-0.14233217 0.1645192 0.28999707 -0.01807112 0.23749164 0.3875545 -0.067484654 0.195171
0.21894953 0.23202294 -0.23513374 -0.14677896 -0.20206176 0.017470665 -0.068446666 0.14398316
-0.24064223 -0.07095525 0.18799855 0.03140792 -0.09780911 0.1687949 -0.1218974 0.20660986
0.13192819 0.086174145 0.11670167 -0.2758399 -0.10753924 -0.00025890733 0.3565761 0.26701772
-0.020295912 -0.07253876 -0.2547679 0.2862478 0.36835748 -0.14026578 0.033103514 0.049365386
0.17823261 -0.050237443 -0.077893935 0.14571786 -0.27208066 -0.28498083 0.24103041 0.0692922
-0.1121027 0.3212558 -0.10893587 0.17599535 -0.10249923 -0.17618269 0.101931535 0.22212256
0.28238785 -0.18992795 0.29543144 0.14994995 0.1762932 0.004783869 0.1870765 0.13814765
-0.20215636 0.20729159 -0.042183354 -0.018904446 -0.0106099425 0.15894592 0.15244918 0.06099504
-0.0795186 -0.055080403 -0.07862277 -0.11235832 -0.078772485 0.21542872 0.10278102 0.11562029
-0.19244392 0.057668637 -0.11918875 -0.062113643 -0.24675162 0.12524143 -0.24695103 0.16790688
-0.053477526 -0.082578786 0.17577012 -0.0050275037 0.13559937 0.09476676 0.09728247 0.029595476
0.05798816 -0.048006747 0.1955872 -0.19892873 0.044567227 -0.10008832 -0.036491983 0.22712249
0.28483406 0.35944963 -0.13016878 -0.019665187 0.03688463 0.23609206 -0.07140962 0.20144771
-0.025569053 0.14912239 0.092501424 0.24550955 -0.32764933 -0.091762125 -0.1036914 -0.10346176
-0.122179545 -0.15155353 0.15127112 -0.18141161 -0.23518357 0.21217605 0.13672543 -0.19904883
-0.1739504 -0.03170553 0.39895913 -0.020144701 0.28852952 0.0668014 0.2908282 0.020400947
-0.22282754 -0.10504735 -0.38379374 0.14728545 -0.27737612 0.06714441 0.02414379 0.1238298
0.021076394 -0.15187888 0.07410178 0.25912827 -0.19742061 0.15874627 -0.23456769 0.17822257
0.16297759 -0.2542064 0.3402187 -0.24880707 0.011568326 0.24505393 0.28720564 0.09096244
0.14865448 -0.2008243 0.27385122 -0.10354244 0.09640009 -0.14695099 0.061277073 -0.21625917
-0.14498886 -0.3699797 -0.060189024 -0.18294579 -0.21543711 -0.052514456 -0.3812581 -0.37739128
0.11024475 0.284346 -0.013492169 0.20323287 -0.23155372 0.20492537 0.26712406 0.041726593
0.32271937 0.23523732 -0.15509841 0.1705868 0.1804249 0.011630391 0.36778647 -0.04423457
0.26950082 -0.022653751 -0.048023675 -0.39195907 0.11436568 -0.015621151 0.066298395 0.06349425
0.06072055 -0.13114539 0.00636134 0.16192487 -0.3461391 -0.33637995 -0.20918922 0.10252497
-0.015036828 0.18510447 0.22134854 -0.09738869 -0.29160234 0.22629514 -0.26146293 0.083800904
0.30747947 -0.24047454 0.33544916 -0.17288196 0.1565668 0.146521 -0.042205423 0.15667626
-0.0066696396 -0.2325691 -0.23077732 -0.3687734 0.10597053 -0.03391996 0.3306256 0.15468933
0.04589555 0.24558601 -0.09564075 0.33771455 -0.06620625 -0.005991917 -0.17870913 0.24249183
00000000: aa57 433e 1a91 68be c00d f53d c0ec 17be
00000010: f4c2 33be 1bef 88bd e3f9 71be bb77 82be
00000020: 7d32 dbbd b2d8 f4bd 61c1 2e3e db67 b5be
00000030: 380b 283c 5d89 bdbb c4ad 5abe a525 3abd
00000040: 86bf 11be b977 283e 7f7a 943e e309 94bc
00000050: 0231 733e 8b6d c63e 6535 8abd e8da 473e
00000060: 4e34 603e 6c97 6d3e e6c6 70be 394d 16be
00000070: 47e9 4ebe a41e 8f3c c42d 8cbd 5270 133e
00000080: eb6a 76be fc50 91bd b182 403e 97a5 003d
00000090: 2550 c8bd 92d8 2c3e 58a5 f9bd 8991 533e
000000a0: 2f18 073e 127c b03d 4901 ef3d e33a 8dbe
000000b0: 883d dcbd f4bd 87b9 2591 b63e 8cb6 883e
000000c0: 9d43 a6bc 348f 94bd f070 82be 128f 923e
000000d0: 5a99 bc3e d5a1 0fbe 8d97 073d 5c33 4a3d
000000e0: 9c82 363e c7c5 4dbd db86 9fbd 1037 153e
000000f0: 284e 8bbe 02e9 91be add0 763e 12e9 8d3d
00000100: 1a96 e5bd a47b a43e c519 dfbd 2038 343e
00000110: 1eeb d1bd 3c69 34be 7bc1 d03d 1974 633e
00000120: 2495 903e 797c 42be ca42 973e 7b8c 193e
00000130: 3486 343e 00c2 9c3b fb90 3f3e 9476 0d3e
00000140: 1402 4fbe 3f44 543e 74c8 2cbd 7fdd 9abc
00000150: 53d5 2dbc b8c2 223e a31b 1c3e efd5 793d
00000160: a6da a2bd fd9b 61bd fa04 a1bd 1e1c e6bd
00000170: 7853 a1bd 5999 5c3e db7e d23d 55ca ec3d
00000180: 0510 45be f335 6c3d 3b19 f4bd e06a 7ebd
00000190: 75ac 7cbe 4a3f 003e bbe0 7cbe c8ef 2b3e
000001a0: 400b 5bbd 111f a9bd 15fd 333e c2bd a4bb
000001b0: 90da 0a3e 1315 c23d 083c c73d 3672 f23c
000001c0: fe84 6d3d b9a2 44bd 0348 483e f9b3 4bbe
000001d0: 208c 363d 1bfb ccbd 9e78 15bd cc92 683e
000001e0: c5d5 913e c809 b83e f74a 05be e318 a1bc
000001f0: 5614 173d 1ec2 713e 353f 92bd 4f48 4e3e
00000200: 3176 d1bc 8ab3 183e 6371 bd3d db66 7b3e
00000210: a7c1 a7be c8ed bbbd 285c d4bd c2e3 d3bd
00000220: 4539 fabd d930 1bbe d1e6 1a3e f7c3 39be
00000230: f6d3 70be ae44 593e c001 0c3e 75d3 4bbe
00000240: 0e20 32be a8dd 01bd 5f44 cc3e 8006 a5bc
00000250: 24ba 933e 2ccf 883d 6fe7 943e e31f a73c
00000260: e72c 64be 1123 d7bd 9d80 c4be ffd1 163e
00000270: 3e04 8ebe 0283 893d 33c9 c53c 7a9a fd3d
00000280: 67a8 ac3c 2386 1bbe adc2 973d 76ac 843e
00000290: a128 4abe 628e 223e 8332 70be fa7f 363e
000002a0: 99e3 263e 5727 82be 2531 ae3e 48c7 7ebe
000002b0: 1389 3d3c 6bef 7a3e 9e0c 933e 844a ba3d
000002c0: e138 183e e3a4 4dbe 3a36 8c3e 0f0e d4bd
000002d0: 696d c53d 527a 16be abfd 7a3d 0b73 5dbe
000002e0: f677 14be fb6d bdbe c488 76bd 2456 3bbe
000002f0: 8c9b 5cbe 6619 57bd 4334 c3be 6e39 c1be
00000300: 00c8 e13d cd95 913e 420e 5dbc 471c 503e
00000310: 6b1c 6dbe f5d7 513e 7cc4 883e 81e9 2a3d
00000320: 793b a53e 0de2 703e 1ed2 1ebe 4eae 2e3e
00000330: 4ec1 383e 658d 3e3c 824e bc3e 4f2f 35bd
00000340: 03fc 893e 5c94 b9bc 79b4 44bd dcae c8be
00000350: 8e38 ea3d dbef 7fbc 74c7 873d 4609 823d
00000360: 1db6 783d fa4a 06be ca72 d03b a2cf 253e
00000370: 2539 b1be fe39 acbe b335 56be 9df8 d13d
00000380: 075d 76bc 078c 3d3e 31a9 623e b973 c7bd
00000390: e74c 95be eab9 673e 78de 85be cf9f ab3d
000003a0: f36d 9d3e f53e 76be febf ab3e f807 31be
000003b0: 0c53 203e 9a09 163e 98df 2cbd be6f 203e
000003c0: fe8c dabb 9826 6ebe e450 6cbe decf bcbe
000003d0: 1407 d93d a8ef 0abd c247 a93e e166 1e3e
000003e0: f9fc 3b3d e67a 7b3e 4cdf c3bd ece8 ac3e
000003f0: 2497 87bd d857 c4bb 87ff 36be c74f 783e

conv3.convs.<node___to___node>.lin_l.weight f4 [16, 16]
0.20756756 0.19670384 0.03688774 0.10738572 0.14049104 -0.02491554 0.13602987 -0.2453878
0.16270268 0.10156839 0.02667167 0.2827912 -0.20435767 -0.05618223 0.18970427 -0.1616144
0.023290059 -0.29955578 -0.10919395 -0.12742557 -0.116737075 -0.0009921823 -0.017504094 0.04054065
0.18422304 -0.23920542 -0.27472174 0.11927245 -0.19094062 0.10543002 -0.257424 -0.00072701
-0.20822613 0.11311051 0.111875966 0.071585916 0.1747837 -0.20690101 -0.05162736 0.14142425
-0.02128857 -0.055997167 -0.16884726 -0.27884895 -0.07994241 0.17834295 -0.3045563 0.073513545
0.06562933 0.030864105 0.07753883 0.008380101 0.12089286 -0.05368872 -0.1775314 -0.2756109
0.025728546 -0.07422186 0.2614048 -0.07195042 0.056126952 0.02933559 -0.09480099 -0.22378872
0.19797345 0.17345323 -0.0063456306 -0.052087523 -0.17913444 -0.060280763 0.17818594 0.070164904
0.15329824 0.26964864 0.029050527 0.24776047 0.16846365 0.16973943 -0.044865027 0.26817584
-0.16597697 -0.19511887 0.14094591 0.026425932 -0.09930928 -0.15130723 0.06084653 -0.08741621
-0.0059059444 -0.30182195 -0.03506358 -0.1620916 0.06654418 0.17296916 0.13495453 -0.018315809
0.17488222 -0.16665949 -0.20509788 -0.18008475 0.2968196 0.21367489 -0.16847232 -0.08616226
0.15240385 0.12392335 0.1894475 0.10047076 0.35283378 -0.09555909 -0.27461067 0.23492412
-0.0022759025 0.19324797 -0.19848026 0.07466614 0.25461793 -0.037435193 -0.16441289 -0.10724309
0.12798713 0.19660336 -0.021384638 0.03143274 -0.1702033 0.037436187 0.19239251 0.06687535
0.06834351 0.096249685 -0.06349801 -0.07620249 -0.1298985 0.05577802 0.10388009 0.10521813
-0.0928696 0.36225873 -0.10713874 0.09453634 -0.037276752 0.009631755 -0.20002668 0.14194703
0.11314604 0.10873498 0.08933632 -0.283491 -0.16710299 -0.26207054 0.080012105 -0.24919668
-0.015747178 -0.34941763 0.18965448 -0.10246692 -0.20095077 -0.053778246 -0.22956441 0.03169174
-0.14987348 -0.044009987 0.017125264 0.07696819 0.013326621 -0.21543635 -0.1299607 -0.14729351
-0.07798391 0.066616245 -0.16050352 0.2781828 0.10450567 -0.12262074 -0.25034338 0.20514339
-0.06876456 0.20160572 0.2460378 0.1627567 -0.07158645 0.20767333 -0.15751232 0.22540486
-0.03678124 0.09530644 0.17994289 0.09019571 -0.01334684 -0.14896198 -0.065496355 0.06608988
-0.18126367 -0.12330333 -0.037156787 -0.155143 -0.054341346 -0.17083615 -0.19341408 0.10281793
-0.075642586 0.26521498 -0.20486821 -0.020471485 0.12564905 -0.0931891 0.15216659 -0.060031787
-0.22182535 -0.05109532 -0.15828522 -0.023759177 -0.061257508 -0.17971936 0.2605765 -0.13697627
-0.010508968 -0.19924645 0.11075524 0.0037196341 -0.2851433 -0.18955752 0.12157384 0.020103205
0.1535968 0.12478574 -0.109197535 -0.26515886 -0.3602285 0.15842654 0.23213504 0.25527877
-0.22176026 -0.3165881 0.14795738 -0.24390125 -0.33057988 -0.09871932 0.107329056 -0.033514947
0.15864833 0.06294228 -0.22053692 0.099125445 -0.24565016 0.17375198 0.10322025 -0.20953451
-0.032667965 0.0019774945 -0.14985277 -0.19148126 -0.118530236 0.060298957 0.144922 -0.12206985
00000000: 978c 543e bb6c 493e 9917 173d 0bed db3d
00000010: e2dc 0f3e ad1b ccbc 6a4b 0b3e f046 7bbe
00000020: 889b 263e 1703 d03d 8c7e da3c 02ca 903e
00000030: 2343 51be 571f 66bd d641 423e 3f7e 25be
00000040: cbca be3c 605f 99be 14a1 dfbd d97b 02be
00000050: d913 efbd 1d0c 82ba bf64 8fbc f40d 263d
00000060: f7a4 3c3e 44f2 74be 54a8 8cbe 1d45 f43d
00000070: f085 43be b2eb d73d 14cd 83be d194 3eba
00000080: 3b39 55be 7ca6 e73d 3a1f e53d a39b 923d
00000090: 80fa 323e dcdd 53be 3677 53bd 85d1 103e
000000a0: 5e65 aebc 495d 65bd 4ce6 2cbe 4ac5 8ebe
000000b0: d9b8 a3bd 899f 363e ceee 9bbe 458e 963d
000000c0: ac68 863d b8d6 fc3c aecc 9e3d b14c 093c
000000d0: ad96 f73d b4e8 5bbd cbca 35be df1c 8dbe
000000e0: acc4 d23c a101 98bd dad6 853e be5a 93bd
000000f0: 60e5 653d 3151 f03c 0527 c2bd df28 65be
00000100: 8db9 4a3e b99d 313e 02ef cfbb ba59 55bd
00000110: 056f 37be f6e8 76bd 6076 363e 9eb2 8f3d
00000120: 37fa 1c3e 630f 8a3e 5ffb ed3c ecb4 7d3e
00000130: bc81 2c3e 2cd0 2d3e 64c4 37bd 584e 893e
00000140: def5 29be 3ecd 47be 2054 103e 327b d83c
00000150: aa62 cbbd 48f0 1abe 363a 793d 4507 b3bd
00000160: a786 c1bb 6888 9abe d49e 0fbd 57fb 25be
00000170: 5148 883d d41e 313e 8531 0a3e 090b 96bc
00000180: 5314 333e c9a8 2abe 2e05 52be 2368 38be
00000190: bdf8 973e 97cd 5a3e 0284 2cbe d775 b0bd
000001a0: c10f 1c3e 86cb fd3d 87fe 413e 9dc3 cd3d
000001b0: a1a6 b43e 7cb4 c3bd c599 8cbe f38f 703e
000001c0: 4f27 15bb cce2 453e 693e 4bbe 90ea 983d
000001d0: 485d 823e a555 19bd da5b 28be 44a2 dbbd
000001e0: 0f0f 033e 6452 493e d62e afbc 9ebf 003d
000001f0: c649 2ebe b056 193d 8b02 453e f2f5 883d
00000200: aff7 8b3d 8e1e c53d 3f0b 82bd 0d10 9cbd
00000210: 1d04 05be 7e77 643d 16bf d43d 9a7c d73d
00000220: 6b32 bebd fa79 b93e 8e6b dbbd 459c c13d
00000230: 82af 18bd 82ce 1d3c cbd3 4cbe 905a 113e
00000240: 1cb9 e73d 72b0 de3d f6f5 b63d bb25 91be
00000250: 0c1d 2bbe 1c2e 86be 63dd a33d 6a2d 7fbe
00000260: 3a00 81bc dee6 b2be c934 423e 2dda d1bd
00000270: 0ac6 4dbe 9446 5cbd ef12 6bbe 33cf 013d
00000280: 6f78 19be d143 34bd 484a 8c3c 80a1 9d3d
00000290: e657 5a3c 599b 5cbe 6b14 05be 1cd4 16be
000002a0: 07b6 9fbd 196e 883d 095b 24be fa6d 8e3e
000002b0: 1207 d63d 9520 fbbd 022d 80be 1c11 523e
000002c0: 6fd4 8cbd bb71 4e3e 55f1 7b3e b1a9 263e
000002d0: eb9b 92bd 51a8 543e e94a 21be 88d0 663e
000002e0: eda7 16bd 0630 c33d f342 383e 87b8 b83d
000002f0: b4ac 5abc 7d89 18be f422 86bd 225a 873d
00000300: 2f9d 39be 7586 fcbd b731 18bd cedd 1ebe
00000310: 0895 5ebd acef 2ebe 570e 46be 3592 d23d
00000320: 80ea 9abd 42ca 873e f9c8 51be d1b3 a7bc
00000330: 25aa 003e edd9 bebd 8fd1 1b3e e4e3 75bd
00000340: 2f26 63be 5449 51bd 8515 22be 9ba2 c2bc
00000350: 27e9 7abd 5a08 38be 486a 853e 8243 0cbe
00000360: ce2d 2cbc 4307 4cbe a5d3 e23d 1bc5 733b
00000370: 4dfe 91be 5e1b 42be b5fb f83d 7aaf a43c
00000380: 7b48 1d3e ab8f ff3d f5a2 dfbd e7c2 87be
00000390: df6f b8be 913a 223e cfb4 6d3e e6b3 823e
000003a0: 1f15 63be d617 a2be 2482 173e 40c1 79be
000003b0: c441 a9be 5b2d cabd 56cf db3d f846 09bd
000003c0: b574 223e e2e7 803d 6ed4 61be 4802 cb3d
000003d0: b78b 7bbe 0aec 313e 2365 d33d 3790 56be
000003e0: d8ce 05bd da98 013b 0173 19be aa13 44be
000003f0: fbbf f2bd 0afc 763d 6f66 143e c2ff f9bd

conv3.convs.<node___to___node>.lin_l.bias f4 [16]
-0.07443302 0.07131869 0.17269562 -0.0069221826 -0.18414354 -0.06972317 0.13673319 0.02317
-0.16651344 0.21450321 0.19826753 0.11175437 -0.010857331 0.11564669 0.2570116 -0.13260232
00000000: 5770 98bd 890f 923d 1fd7 303e 7ad3 e2bb
00000010: 2090 3cbe 05cb 8ebd c903 0c3e 03cf bd3c
00000020: 8082 2abe bba6 5b3e a506 4b3e 7adf e43d
00000030: f2e2 31bc 2cd8 ec3d 0697 833e e7c8 07be

conv3.convs.<node___to___node>.lin_r.weight f4 [16, 16]
0.25616258 0.16715908 -0.050759174 0.16880077 0.073830806 -0.15075666 0.1464503 -0.30265722
0.217272 0.089450195 -0.36515287 0.4181762 -0.21838401 -0.03595245 -0.07159866 -0.07686707
-0.28613767 -0.030151699 -0.19760297 0.27627048 -0.0077917418 -0.16541992 -0.071494296 0.15868959
-0.23599388 0.1021019 -0.14026166 0.23977564 0.02866898 0.26060143 -0.21878487 0.13484308
0.16947201 -0.14518748 -0.18536626 0.22742046 0.069468655 0.08213284 -0.1383988 -0.06705945
-0.309641 -0.20506461 -0.31975025 -0.103497565 0.12566815 0.010758137 -0.18275289 0.269916
-0.26163185 0.30435106 0.13299447 0.16230868 -0.304548 0.11179976 0.15070198 -0.12173155
-0.06832583 0.24326688 -0.18284631 0.03792676 0.11042882 -0.28279197 -0.05221827 0.24022114
-0.12186742 0.077870026 -0.06186329 -0.018174669 -0.1574867 -0.256578 -0.1592716 0.017386684
0.10450568 0.12535977 -0.16435252 0.27820134 -0.2819852 0.19001257 -0.29278016 -0.07752737
-0.12823822 0.17032394 0.44170216 0.09640506 -0.055840153 0.27584666 -0.1294118 0.022749541
0.28123176 0.21764635 0.08816193 -0.1030933 -0.2852669 -0.04826961 0.13815665 -0.20820178
0.2909549 0.27473533 -0.1727069 -0.25344545 -0.25578034 -0.20204684 -0.34474596 -0.011994429
-0.31693295 0.17875724 -0.15533772 0.354461 -0.16488682 0.14238654 -0.13199916 0.16372913
-0.06753713 0.25682315 -0.12350463 0.20206843 0.07245123 0.26542583 -0.072133526 0.12436929
-0.0820382 -0.09028731 0.10418065 -0.056662954 0.11793515 -0.30576825 0.1735357 0.111589596
-0.12818635 -0.23938262 0.06478616 0.1652808 -0.058217447 -0.031533193 -0.18792033 0.0658386
-0.013526209 0.1028815 0.12488096 -0.0060814475 -0.23759381 0.08943812 -0.013833228 -0.1415637
-0.21956447 0.00076333986 -0.23309323 -0.20718552 -0.38416886 0.16794741 -0.12868933 0.118506566
-0.039519645 0.23211533 -0.25681266 -0.29953593 -0.1223403 -0.15927005 -0.3054992 0.14312984
0.07417754 -0.11560413 -0.19698352 0.3435761 0.09488883 0.029330643 0.116731554 0.102050364
-0.35607806 0.2083535 -0.24655576 -0.03382107 -0.19297755 0.25080934 -0.3123098 0.039090965
-0.33615923 0.35133728 0.36608452 -0.24073987 -0.06888214 0.21303174 -0.013646236 0.26477116
0.04425873 0.1481162 0.04443092 -0.11343206 0.11334754 -0.29196668 -0.12548003 -0.16907796
0.08212151 -0.1703498 0.16110623 0.26448548 -0.17668739 -0.103273116 -0.049604077 -0.07853731
-0.28725657 0.03367359 -0.15277132 -0.28641844 -0.20954852 -0.0076012607 -0.16483963 -0.13967967
0.19967484 -0.21400115 0.060604863 -0.3327107 -0.0488899 0.12458381 -0.1946786 0.057174068
0.1758155 -0.12259255 0.19667764 0.3035308 -0.1509436 -0.18720184 0.14357203 -0.2135833
0.18238147 -0.3168576 -0.38897142 0.22603513 -0.009131704 0.057443794 -0.10280743 -0.26861078
0.32149413 0.14968063 -0.13619433 0.4536813 -0.09857389 0.098348476 -0.31965992 -0.3303519
0.25758177 0.07488701 -0.12527029 0.05592298 0.08889939 -0.21724345 -0.003915112 -0.31638253
0.012386106 -0.2391767 0.13579987 0.29698855 -0.06390905 -0.09175151 0.08912289 -0.25218034
00000000: be27 833e c02b 2b3e dae8 4fbd 1cda 2c3e
00000010: 9b34 973d f45f 1abe 11f7 153e e3f5 9abe
00000020: 8d7c 5e3e aa31 b73d 51f5 babe 311b d63e
00000030: 0fa0 5fbe e042 13bd 51a2 92bd 7b6c 9dbd
00000040: a380 92be b200 f7bc 6f58 4abe 5373 8d3e
00000050: de51 ffbb d763 29be 9a6b 92bd 867f 223e
00000060: 61a8 71be cd1a d13d c1a0 0fbe bf87 753e
00000070: 35db ea3c 8d6d 853e 2409 60be 4e14 0a3e
00000080: 128a 2d3e 07ac 14be a7d0 3dbe e9e0 683e
00000090: 9545 8e3d 4335 a83d 6ab8 0dbe 7756 89bd
000000a0: 4489 9ebe 75fc 51be 4eb6 a3be 88f6 d3bd
000000b0: 27af 003e e642 303c 9323 3bbe 6e32 8a3e
000000c0: 9cf4 85be e7d3 9b3e b42f 083e 3f34 263e
000000d0: b7ed 9bbe 46f7 e43d 9f51 1a3e 644e f9bd
000000e0: 6aee 8bbd f41a 793e 103c 3bbe 1759 1b3d
000000f0: 8128 e23d 1cca 90be d3e2 55bd 88fc 753e
00000100: a095 f9bd 527a 9f3d 5c64 7dbd 0be3 94bc
00000110: 3244 21be 315e 83be 1818 23be 856e 8e3c
00000120: 1307 d63d 505e 003e 074c 28be 6870 8e3e
00000130: 5d60 90be a892 423e 48e7 95be abc6 9ebd
00000140: e150 03be 6669 2e3e c926 e23e 0470 c53d
00000150: a5b8 64bd c63b 8d3e 8784 04be 3f5d ba3c
00000160: 9cfd 8f3e afde 5e3e 3e8e b43d 9422 d3bd
00000170: 810e 92be 5bb6 45bd f078 0d3e d932 55be
00000180: 0af8 943e 1caa 8c3e 14da 30be 9ac3 81be
00000190: a4f5 82be 5ee5 4ebe 8b82 b0be 4884 44bc
000001a0: 0945 a2be 230c 373e da10 1fbe ea7b b53e
000001b0: 17d8 28be c7cd 113e ca2a 07be 9ca8 273e
000001c0: e850 8abd 537e 833e ffef fcbd 07eb 4e3e
000001d0: 4f61 943d e5e5 873e beba 93bd 54b5 fe3d
000001e0: a503 a8bd 8ee8 b8bd aa5c d53d 6a17 68bd
000001f0: fc87 f13d a88d 9cbe 58b3 313e 1689 e43d
00000200: 4843 03be b820 75be 9bae 843d 5f3f 293e
00000210: 6b75 6ebd f328 01bd 306e 40be 63d6 863d
00000220: 089d 5dbc 89b3 d23d 97c1 ff3d e146 c7bb
00000230: cb4b 73be 552b b73d c3a4 62bc 13f6 10be
00000240: 82d5 60be df1a 483a feaf 6ebe 7128 54be
00000250: c8b1 c4be 68fa 2b3e 23c7 03be 92b3 f23d
00000260: 5adf 21bd a4af 6d3e f37c 83be c65c 99be
00000270: 8d8d fabd b017 23be 646a 9cbe a190 123e
00000280: 65ea 973d dcc1 ecbd 0cb6 49be 35e9 af3e
00000290: 1355 c23d d146 f03c f410 ef3d c8ff d03d
000002a0: dd4f b6be 9f5a 553e 1d79 7cbe f687 0abd
000002b0: e89b 45be 156a 803e 12e7 9fbe d91d 203d
000002c0: 101d acbe 7be2 b33e 6e6f bb3e 8384 76be
000002d0: 1412 8dbd fe24 5a3e 7694 5fbc 1690 873e
000002e0: a448 353d c6ab 173e 32fd 353d 114f e8bd
000002f0: c122 e83d a87c 95be d67d 00be c622 2dbe
00000300: 522f a83d 2e70 2ebe 08f9 243e a46a 873e
00000310: 8aed 34be db80 d3bd a52d 4bbd 2bd8 a0bd
00000320: 4b13 93be 51ed 093d 1670 1cbe 70a5 92be
00000330: e393 56be ff13 f9bb b8cb 28be 3008 0fbe
00000340: 9077 4c3e 1e23 5bbe ce3c 783d 0f59 aabe
00000350: c740 48bd cc25 ff3d d459 47be 5b2f 6a3d
00000360: fa08 343e ce11 fbbd dd65 493e 6468 9b3e
00000370: f690 1abe d7b1 3fbe 8c04 133e 95b5 5abe
00000380: 35c2 3a3e 293b a2be 4327 c7be c175 673e
00000390: 259d 15bc 2f4a 6b3d b48c d2bd 5a87 89be
000003a0: e19a a43e e145 193e 8776 0bbe ea48 e83e
000003b0: 1ce1 c9bd ed6a c93d 77aa a3be e223 a9be
000003c0: c2e1 833e 5c5e 993d db46 00be 7f0f 653d
000003d0: e210 b63d 1175 5ebe 574a 80bb e4fc a1be
000003e0: 18ef 4a3c bdea 74be 1f0f 0b3e e20e 983e
000003f0: bfe2 82bd 37e8 bbbd 1086 b63d c81d 81be
