ShadowWeave/Long-Tail Optimization/ShadowWeave(No Weighting).pth (torch, 63619 bytes, 12 tensors)

node_type_embedding.weight f4 [11, 128]
0	0x400831eb	2.1280468
1	0xbdb9db5c	-0.090750426
2	0x3fdb4d15	1.7132899
3	0x3c2d9491	0.010594503
4	0xb8375b1c	-4.3715452e-05
5	0xbe9fbf2a	-0.31200534
6	0xbf6265eb	-0.88436764
7	0xb9d59b91	-0.00040742432
8	0x3d56c994	0.052438334
9	0x3c1c17fa	0.009527201
10	0x3f832202	1.0244753
11	0x3f042060	0.516119
12	0x3e394eb2	0.18096426
13	0xbd981af8	-0.07427019
14	0xbed40014	-0.4140631
15	0xbf2ddef0	-0.679183
16	0x3c0b0982	0.008486154
17	0x3cb69a3d	0.022290343
18	0x3f819d94	1.0126214
19	0x3b7c5d97	0.0038507932
20	0x210d4fa3	4.7878057e-19
21	0x363e6f0c	2.8376844e-06
22	0xbdfe33a6	-0.12412195
23	0x3f921c34	1.1414857
24	0x9b56c44f	-1.7765096e-22
25	0x3db94be1	0.09047676
26	0x22b835dc	4.9930326e-18
27	0xbb6be6dc	-0.0035995757
28	0x3f35c655	0.71005756
29	0x3ec6fcdf	0.388648
30	0xbe98e8cb	-0.29865107
31	0xbe8f4ca5	-0.27988163
32	0x3e0bba1d	0.13645215
33	0xbc9815bf	-0.018565057
34	0x3e45efa3	0.19329695
35	0x3e435bd9	0.19078006
36	0x3f439404	0.7639773
37	0x3e423ed8	0.18969285
38	0x3cc8cebf	0.024512647
39	0xbe8894d4	-0.26676047
40	0x3e47a93b	0.1949815
41	0x3e9121e6	0.28346175
42	0xbf8ef2d5	-1.1167856
43	0x3ecde39c	0.40212715
44	0xbf04a980	-0.51821136
45	0xbe41f4db	-0.18941061
46	0x3f70d82e	0.94079864
47	0xbeaa6c44	-0.33285725
48	0x3f970618	1.1798735
49	0x3d0c2280	0.03421259
50	0x3f75397c	0.9579084
51	0x9d0af225	-1.8389334e-21
52	0xbef98ec5	-0.48741737
53	0x3fe8d61a	1.8190339
54	0xbf3a62b0	-0.72806835
55	0x9cedd8a4	-1.5739345e-21
56	0x3f010d9b	0.50411385
57	0xbdd81b04	-0.10552028
58	0x3f3086d5	0.6895574
59	0x3b1f5a94	0.0024315463
60	0xbdf2611d	-0.11834929
61	0xbe0de7d1	-0.13857962
62	0xbedfd2e5	-0.43715587
63	0x3a8fbb87	0.0010965922
64	0x3ef3d9f8	0.47627234
65	0x3fc9a641	1.5753862
66	0xbd95687d	-0.0729532
67	0x3e1e3216	0.15448794
68	0x9eac2e90	-1.8230466e-20
69	0x3f4cb540	0.79964066
70	0xbd6bebe8	-0.057598025
71	0x9d061a15	-1.7748236e-21
72	0xc01091fd	-2.2589104
73	0xbdfd8261	-0.123783834
74	0xbd8f1413	-0.06986251
75	0xbf46b223	-0.77615565
76	0x3f99e354	1.20225
77	0x3f182d05	0.59443694
78	0x3f0e24da	0.5552498
79	0x3f472620	0.7779255
80	0xbd3cbdaf	-0.046079334
81	0x3d3aaabd	0.045572985
82	0xb52fcb2d	-6.548824e-07
83	0x3f062cc1	0.5241204
84	0x9d98d232	-4.04514e-21
85	0xbeccd70f	-0.40007827
86	0xbe749d98	-0.23888242
87	0xbef6b688	-0.48186135
88	0xbf982d55	-1.1888834
89	0x3b2a4cb1	0.0025985653
90	0x35374f5b	6.828829e-07
91	0xbecec61c	-0.4038552
92	0x3fbb5062	1.4633906
93	0x3e2ebd57	0.17064415
94	0xbe91ebdd	-0.28500262
95	0x3f015439	0.5051914
96	0xbfcff23c	-1.6245799
97	0x3ce01857	0.027355356
98	0x3ee83a05	0.45356765
99	0x3fd21d5d	1.6415211
100	0xbe5af661	-0.21383049
101	0x1ca47a3b	1.0884205e-21
102	0x3eea8337	0.45803234
103	0xbf39cedf	-0.72581285
104	0xbc023e38	-0.007949404
105	0x3f1fa0ed	0.6235493
106	0x3f13071b	0.5743272
107	0x3c3151fb	0.010822768
108	0x3677605d	3.686196e-06
109	0x3e62fa51	0.221658
110	0x2c21e340	2.3005625e-12
111	0xbe8b4d80	-0.27207565
112	0x3fda8504	1.7071843
113	0xbf2e4073	-0.6806709
114	0xbf455fe9	-0.7709947
115	0xbf730095	-0.94922763
116	0xa744b134	-2.7296526e-15
117	0x9dabda17	-4.5488823e-21
118	0x3fc1fc00	1.5155029
119	0x3cb7ddbf	0.022444604
120	0x39c892ae	0.00038256258
121	0xbec03430	-0.37539816
122	0x21f2339b	1.6412218e-18
123	0xbc18fd24	-0.009337697
124	0x3ffa6d14	1.9564538
125	0xbf3c84ce	-0.73640144
126	0x3f953610	1.1657124
127	0x3ba48f25	0.005021947
128	0x3f2fd724	0.68687654
129	0x3fe93415	1.8219019
130	0x3f0e10c9	0.5549436
131	0xbfb89d84	-1.442307
132	0x3fe21878	1.7663717
133	0xbea703cf	-0.32620093
134	0x3fd55e1e	1.6669347
135	0x3f2227d7	0.6334204
136	0xc0041474	-2.0637484
137	0xbf5bb6ad	-0.85825616
138	0x3f19b327	0.6003899
139	0xbe86fc24	-0.26364243
140	0x3fe69e42	1.8017046
141	0xbf3fe33c	-0.7495611
142	0xbe10a37e	-0.14124867
143	0x3ce0b234	0.027428724
144	0x3fcf9731	1.6218015
145	0xbf3e82a9	-0.7441812
146	0x3e316ffc	0.17327875
147	0x3f4b6483	0.79450244
148	0xbfb406be	-1.4064558
149	0x40243cc9	2.56621
150	0xbf635db4	-0.88814855
151	0x3f10757f	0.56429285
152	0xbedf4ae1	-0.43611816
153	0xbe990352	-0.29885346
154	0xbf3ecd11	-0.74531657
155	0xbf200fb5	-0.6252397
156	0xbf1ff9ce	-0.62490547
157	0x3f409945	0.7523387
158	0x3fa5da43	1.2957233
159	0xbf29f236	-0.6638521
160	0x3f0ce815	0.5504163
161	0x3f1d8a36	0.6153902
162	0xbdc08bff	-0.09401702
163	0x3fbe6031	1.4873105
164	0xbe00bfe5	-0.12573202
165	0xbf150ef5	-0.5822595
166	0x3cf984ae	0.030458774
167	0x3fedc271	1.8574964
168	0x3f9dd013	1.2329124
169	0x3e8258e3	0.2545844
170	0x3f469fc4	0.77587533
171	0x3f16bb4c	0.5887954
172	0xbfe1d7cb	-1.764398
173	0xbfe00383	-1.7501072
174	0x3f27d110	0.6555338
175	0xbda98e6c	-0.08279118
176	0xbedac6d9	-0.42729834
177	0xbe652e0e	-0.2238085
178	0x3fc7732f	1.5582026
179	0x3fa76106	1.3076484
180	0xbde7a935	-0.113115706
181	0x3e5a23b9	0.2130269
182	0xbf154fa9	-0.58324677
183	0xbedeff4b	-0.43554148
184	0x3f883bb7	1.0643224
185	0xbf81e68c	-1.0148482
186	0xbf185848	-0.59509706
187	0xc0135a73	-2.3023956
188	0x3c9b14fe	0.018930908
189	0xbe9ff350	-0.3124032
190	0x3e85e22a	0.26149112
191	0xbf80ac36	-1.0052555
192	0xbe099311	-0.13435008
193	0xbfb7a7fe	-1.4348142
194	0x3fa688fe	1.3010557
195	0x400ab7ab	2.1674602
196	0xc003f090	-2.0615578
197	0xbf5de9dc	-0.86684966
198	0xbef89ab0	-0.48555517
199	0xbeb81a0e	-0.35957378
200	0x3fbc5f5a	1.4716599
201	0x3ef9d728	0.48796964
202	0xbfb36e57	-1.4018048
203	0xbf7cf505	-0.9881137
204	0x3e854a5a	0.26033288
205	0x3f338efc	0.7014005
206	0x3f5b1777	0.8558268
207	0xbfbe80c2	-1.4883044
208	0xbf1cbe9f	-0.61228365
209	0xbfe519a9	-1.7898456
210	0x3eaec192	0.34132057
211	0x3ea7099b	0.32624516
212	0xbeeb7834	-0.45990145
213	0xbf07cf83	-0.5305101
214	0xbf47069d	-0.77744466
215	0xbf7bdc29	-0.9838281
216	0x3c82cd9b	0.015967181
217	0x3ffd3e17	1.9784573
218	0x3e64ff92	0.22363117
219	0x3f3f3468	0.7468934
220	0xbf64cdc7	-0.8937649
221	0x3eb4818b	0.35255083
222	0x3f437496	0.7634977
223	0x3f4063d3	0.7515232
224	0xbed27ad3	-0.41109332
225	0x3f249c25	0.6430076
226	0xbe8fadf9	-0.28062418
227	0x3d2781ff	0.04089546
228	0xbf3f791f	-0.7479419
229	0x3f2c5223	0.6731283
230	0xbf8a680b	-1.0813001
231	0xbf6446da	-0.8917061
232	0xbfa6c4d3	-1.3028816
233	0x3f490427	0.7852196
234	0x3fbd321f	1.4780921
235	0xbea027a6	-0.3128025
236	0xbfb27a65	-1.3943602
237	0xbf619f05	-0.8813327
238	0x3fe1e2c9	1.7647334
239	0x3f0a297f	0.5396957
240	0xbed3cba4	-0.41366303
241	0x3ff5e106	1.9209297
242	0xbf554307	-0.833054
243	0x3fed7037	1.854987
244	0x3f8bd3fc	1.0924067
245	0x3f29b420	0.66290474
246	0x3eea2f3e	0.45739168
247	0xbfbf22c7	-1.4932488
248	0xbfb05d24	-1.3778424
249	0x3e66d1fa	0.22541037
250	0xbf17c846	-0.5928997
251	0x3fbdcc48	1.4827967
252	0x3fa724b7	1.305808
253	0x3e27e7c4	0.16397005
254	0xbec15d7e	-0.3776664
255	0xbe9e592f	-0.30927417

conv1.convs.<node___to___node>.lin_l.weight f4 [16, 360]
0	0xbc94345b	-0.018091371
1	0xbd0f86c7	-0.035040643
2	0xbd67ac29	-0.05656067
3	0x3c9b02e7	0.018922282
4	0xbcd89fdb	-0.026443413
5	0x3d169e6f	0.036772188
6	0xbc134bef	-0.008990272
7	0x3d26ff11	0.040770594
8	0xbd80e2e6	-0.062932774
9	0x3d33b55b	0.043874126
10	0xbd31f969	-0.043450747
11	0xbc3e4489	-0.01161302
12	0x3cb81d35	0.022474864
13	0x3d507b07	0.050898578
14	0x3cb64cfe	0.02225351
15	0x3d04a4af	0.032383617
16	0x3be3a380	0.006946981
17	0x3c749da0	0.014930159
18	0xbc0e09ef	-0.008669361
19	0x3cdb7558	0.026789352
20	0xbcd7626c	-0.026292048
21	0xbad9bd1a	-0.0016612143
22	0xbd0dc043	-0.034607183
23	0x3d19bf33	0.037535857
24	0xbc9385bd	-0.018008107
25	0x3d55b4e4	0.052174464
26	0x3c8e1a98	0.017346665
27	0xbcdadcd2	-0.026716623
28	0xbbe58e21	-0.0070054685
29	0x3cfba8d5	0.030720154
30	0xbc473f17	-0.012161038
31	0xbc719cb0	-0.01474683
32	0x3b9be323	0.0047573014
33	0xbcec96b9	-0.028880464
34	0x3cf62cec	0.030050717
35	0xbd88e706	-0.06684689
36	0x3d8d28df	0.06892561
37	0x3dd48f5e	0.103789076
38	0xbd2cf798	-0.04222831
39	0x3dc3d06f	0.0956124
40	0xbce6cedb	-0.028174808
41	0xbc4cef61	-0.012508244
42	0x3d0db859	0.034599636
43	0xbb9ba3ad	-0.0047497363
44	0xbc53c6b2	-0.012925791
45	0xbdb40e49	-0.08791787
46	0xbd012e88	-0.031538516
47	0xbd08fbcf	-0.03344327
48	0xbc923006	-0.017845165
49	0x3d8cbd9a	0.06872101
50	0xbcd4a81b	-0.025959065
51	0xbc807d81	-0.015684845
52	0x3d1af397	0.03782996
53	0x3d1fc18c	0.03900294
54	0xbc1c4655	-0.009538253
55	0xbcda2395	-0.026628295
56	0x3d2b0553	0.041753124
57	0x3cbbcdfe	0.022925373
58	0xbd06e190	-0.032929957
59	0x3d163d01	0.03667927
60	0xbae12dcf	-0.001717979
61	0xbd528b21	-0.051402215
62	0x3c2bea74	0.01049291
63	0x3d43dd0c	0.04781823
64	0xbdd55c95	-0.10418049
65	0xbcbdfdda	-0.023192335
66	0x3ddd1c0f	0.107963674
67	0xbc05202f	-0.008125349
68	0xbda4afd9	-0.08041353
69	0xbcbb9732	-0.022899244
70	0x3cecb501	0.028894903
71	0xbd3963e7	-0.04526129
72	0x3ddda621	0.10822702
73	0xbd4539b7	-0.048150744
74	0xbc7a5172	-0.015278207
75	0x3d30f99b	0.043206792
76	0xbdcabece	-0.09899674
77	0xbd797021	-0.06089795
78	0xbb96794a	-0.0045920955
79	0xbe1687f3	-0.14700298
80	0x3c699317	0.01425626
81	0xbcb7c503	-0.02243281
82	0x3d97a563	0.07404592
83	0x3d83b483	0.06430914
84	0xbd63f82a	-0.05565659
85	0x3bb1d18c	0.0054265913
86	0x3d0fb6fc	0.035086617
87	0x3d313722	0.04326547
88	0xbd4370da	-0.047715046
89	0xbc9e5bff	-0.019330977
90	0xbcd3443e	-0.025789376
91	0x3d966ed2	0.07345356
92	0x3c8a0312	0.016847167
93	0x3caeb12d	0.021324718
94	0xbc906402	-0.017625812
95	0x3d9b782e	0.07591282
96	0x3c1d1893	0.0095883785
97	0xbd7aee35	-0.06126233
98	0xbcb9bd89	-0.022673385
99	0x3cb1dc7a	0.021711577
100	0xbce524fb	-0.027971735
101	0xbda38728	-0.079847634
102	0x3da01bb0	0.07817781
103	0x3d989abb	0.074513875
104	0xbcbb2d97	-0.022848887
105	0x384ee094	4.9323382e-05
106	0x3ba843c3	0.005135031
107	0x3d79af38	0.060958117
108	0x3d0dab4a	0.034587182
109	0x3c1075f5	0.008817186
110	0xbcdfeeed	-0.027335608
111	0xbda6cd1b	-0.081445895
112	0x3c87f9e2	0.016598646
113	0x3cbdace3	0.023153728
114	0xbc317f05	-0.0108335065
115	0x3d3e9b6d	0.046534944
116	0x3c25b60b	0.010114203
117	0x3de41823	0.11137416
118	0xbcc90fb1	-0.024543615
119	0x3d04690d	0.032326747
120	0xbc8540cf	-0.016266255
121	0xbd6567ae	-0.05600708
122	0x3d9a4664	0.07532957
123	0x3bfd5205	0.0077307248
124	0x3d94b07e	0.07260226
125	0xbc20dd09	-0.009818324
126	0xbc9f90f8	-0.019478306
127	0x3d4d8dc2	0.05018402
128	0x3b3fdf11	0.0029277245
129	0x3c8d1fc0	0.017227054
130	0xbbe56e46	-0.007001671
131	0xbdc300ee	-0.09521662
132	0x3da7c3a1	0.0819161
133	0x3cbc4fed	0.02298733
134	0xbde88fc2	-0.113555446
135	0x3ba1edc9	0.0049416763
136	0x3d4f799a	0.050653078
137	0x3be3eea4	0.0069559384
138	0xbdfe0698	-0.124036014
139	0xbc90dd28	-0.01768358
140	0xbd81da31	-0.06340445
141	0x3d001aef	0.031275686
142	0xbca099a4	-0.019604512
143	0xbafc1cc4	-0.0019234647
144	0xbd0af334	-0.033923343
145	0xbcd0b33e	-0.025476094
146	0x3ce0dd0b	0.027449152
147	0xbd951136	-0.07278673
148	0x3a3fc94f	0.0007316069
149	0x3dd3292c	0.10310587
150	0x3cbc3aa4	0.02297718
151	0x3cca7b3f	0.024716971
152	0x3da06737	0.07832187
153	0x3b78e67e	0.003797918
154	0x3d880aaa	0.06642659
155	0x3b2e1b50	0.0026566572
156	0xbcbe98a4	-0.023266144
157	0xbb98865c	-0.0046546888
158	0xb99cf0bb	-0.00029933997
159	0xbc22f4e7	-0.009946085
160	0x3d135b38	0.035975665
161	0x3c6a6851	0.0143070975
162	0xbd676411	-0.056491915
163	0x3d8c3c15	0.06847397
164	0x3c9ec30f	0.01938012
165	0xbd8b49e2	-0.068012014
166	0xbc3ca7fa	-0.011514658
167	0x3c7dea14	0.015497703
168	0xbd421c4d	-0.04739027
169	0xbc9581e1	-0.018250408
170	0xbbcda450	-0.006275691
171	0xbda0e3d5	-0.078559555
172	0x3dafc1ee	0.08581911
173	0x3db0b3aa	0.08628018
174	0x3d3eee63	0.046614062
175	0xbd2d5e67	-0.042326357
176	0xbc164ee9	-0.009174087
177	0x3cae65e5	0.021288821
178	0xbd70e2e6	-0.058810137
179	0x3c517caf	0.012786075
180	0x3c5d6c66	0.013514614
181	0x3de5fef3	0.11230268
182	0xbc9b193c	-0.018932931
183	0xbcf0b9e2	-0.02938551
184	0xbd70add7	-0.058759537
185	0xbd181be9	-0.037135992
186	0x3cddace3	0.027059978
187	0xbcd4ff96	-0.02600078
188	0x3c51da6d	0.012808424
189	0x3d5c29e6	0.053750895
190	0xbce0400d	-0.027374292
191	0xbd5d6293	-0.054049086
192	0x3d656416	0.056003653
193	0x3af50e21	0.0018696227
194	0xbb92cb15	-0.0044797757
195	0xbdf1a1c0	-0.117984295
196	0x3d4d8687	0.050177123
197	0x3d425ccd	0.047451783
198	0x3cb70242	0.022339944
199	0x3c68cf49	0.014209577
200	0x3c9b21d7	0.018937035
201	0x3d60d895	0.05489405
202	0xbb9bb47a	-0.004751739
203	0x3d9cdb9d	0.076590754
204	0xbcb24696	-0.021762174
205	0x3c244f70	0.010028705
206	0x3cb4a64a	0.022051949
207	0x3ccdbbdd	0.025113994
208	0xbcb4542f	-0.022012798
209	0xbd30ef66	-0.04319706
210	0xbda3392b	-0.07969888
211	0x3c32f0a2	0.010921629
212	0xbcb6ed24	-0.022329874
213	0x3cac8cd1	0.02106324
214	0xbb19e217	-0.0023480707
215	0x3cfca587	0.030840648
216	0x3d2dd349	0.042437825
217	0xbcd454d2	-0.025919352
218	0x3c256c93	0.010096687
219	0x3ceca038	0.028884992
220	0x3d850e2d	0.064968444
221	0x3d16d725	0.03682627
222	0xbda03603	-0.07822802
223	0xbd2eb81d	-0.042656053
224	0xbc87d11d	-0.016579205
225	0x3c6cea06	0.014460092
226	0x3ce2e9df	0.027699409
227	0x3d89e45d	0.0673301
228	0xbc883538	-0.01662694
229	0x3c1603d9	0.009156191
230	0x3d0b430a	0.03399948
231	0x3dbef360	0.09323764
232	0x3d3a7f62	0.045531638
233	0x3ceec51a	0.02914672
234	0xbcddf813	-0.02709583
235	0xbd3fb2ff	-0.046801563
236	0x3cbce1fa	0.023056973
237	0x3cfd2b8b	0.030904552
238	0xbd04bd20	-0.032406926
239	0x3cede6ca	0.029040713
240	0xbddbfcd1	-0.1074158
241	0xbd8725ca	-0.065990046
242	0xbafade02	-0.001913965
243	0x3d70121d	0.058611024
244	0xbb814582	-0.0039450536
245	0xbd31d56f	-0.043416437
246	0xbbd43765	-0.00647633
247	0x3d84439e	0.064582095
248	0x3dba17b7	0.090865545
249	0xbd0fa56f	-0.03506988
250	0x3d788a07	0.060678508
251	0x3ccc94e1	0.024973335
252	0xbd92a89a	-0.071610644
253	0x3d981467	0.074257664
254	0xbdb0c11d	-0.086305834
255	0x3d873d13	0.06603446

conv1.convs.<node___to___node>.lin_l.bias f4 [16]
0	0x3d92dffb	0.07171627
1	0x3bc8ffcb	0.0061340085
2	0x3d03fb76	0.032222234
3	0x3d812b35	0.06307069
4	0x3d942fde	0.072356924
5	0x3d36a54f	0.044591244
6	0x3d4a5423	0.049396645
7	0x3d63ed1e	0.055646054
8	0x3db9459c	0.0904648
9	0x3dd4c4db	0.1038911
10	0xbbe9a6f2	-0.007130497
11	0x3c99098a	0.018681306
12	0xbc4a12c2	-0.012333574
13	0x3c8a4b25	0.016881535
14	0x3d21e148	0.039521486
15	0x3bdf6d3b	0.006818441

conv1.convs.<node___to___node>.lin_r.weight f4 [16, 360]
0	0xb8c57c4a	-9.416843e-05
1	0xbcca758c	-0.024714254
2	0xbd3b00d7	-0.045655098
3	0xbcfe85d5	-0.031069675
4	0xbc2640a6	-0.010147249
5	0xbd2129d8	-0.039346546
6	0x3b0c2a5e	0.0021387557
7	0xbccbed07	-0.024893297
8	0xbccb3f51	-0.024810465
9	0xbb8c01cf	-0.0042726765
10	0x3cfcac97	0.030844016
11	0xbcf64c89	-0.030065792
12	0x3cee8525	0.029116223
13	0x3cb4b36e	0.022058215
14	0x3d99de12	0.0751306
15	0x3ca2877e	0.019839998
16	0xbd3166b8	-0.04331085
17	0xbd6f2671	-0.05838627
18	0xbcf06456	-0.029344719
19	0xbbda08d5	-0.006653885
20	0x3d163f9c	0.036681756
21	0xbd10f458	-0.035389274
22	0x3cd42f58	0.025901482
23	0xbb8aa4de	-0.0042310795
24	0x3d66a296	0.056307398
25	0xbd63885e	-0.05554997
26	0x3c50d697	0.012746475
27	0x3ca328a2	0.019916836
28	0xbbb69516	-0.0055719716
29	0xbadb9834	-0.0016753734
30	0xbd013c28	-0.03155151
31	0xbc3cca51	-0.011522845
32	0x3dd557d3	0.10417142
33	0x3dbdb327	0.09262686
34	0xbd3137a0	-0.04326594
35	0xbd8c24cd	-0.06842957
36	0x3e014e38	0.12627494
37	0x3dd46128	0.103700936
38	0xbe00512f	-0.12530969
39	0xbd8c77de	-0.068588
40	0xbd96d54d	-0.07364903
41	0x3dd6b7f7	0.10484307
42	0x3d4f1948	0.05056122
43	0x3ca7d354	0.020486511
44	0x3d92948b	0.071572386
45	0xbd561b07	-0.05227187
46	0x3d191e80	0.037382603
47	0xbd6302ad	-0.055422474
48	0xbe31e86e	-0.17373821
49	0x3dca92df	0.09891295
50	0x3e226f58	0.15862787
51	0xbe0af6df	-0.13570736
52	0xbcf8326d	-0.030297482
53	0x3d16a8ed	0.036782194
54	0xbe0f3dce	-0.1398842
55	0x3d5381b2	0.05163736
56	0x3c1e9ac2	0.009680452
57	0xbd278108	-0.04089454
58	0xbdba621e	-0.091007456
59	0x3d1c0688	0.038092166
60	0x3d38f448	0.04515484
61	0x3dc34157	0.09533947
62	0x3e0b6b78	0.13615215
63	0x3d80cb90	0.062888265
64	0x3d08e8ed	0.03342526
65	0x3dc4be3e	0.09606598
66	0x3d9ad88f	0.075608365
67	0xbd46f06e	-0.048569135
68	0xbd7b5b3c	-0.061366305
69	0xbde74a94	-0.112935215
70	0x3d89522c	0.06705126
71	0x3dcf3f9d	0.10119555
72	0x3e4864d5	0.19569714
73	0xbd71a1e3	-0.058992278
74	0x3e1c3861	0.15255882
75	0x3ddd6af0	0.10811412
76	0xbe0058e5	-0.1253391
77	0x3d8d556a	0.06901057
78	0x3dca8ab0	0.09889734
79	0xbdfa2672	-0.12214364
80	0x3d9541f0	0.07287967
81	0x3dc914e1	0.098184355
82	0xbc462679	-0.0120941335
83	0x3d7221bb	0.0591142
84	0xbd8cd6ef	-0.06876933
85	0x3d5f24b9	0.05447838
86	0x3e04765d	0.12935777
87	0xbd84b14e	-0.06479131
88	0x3c9dfd34	0.019285776
89	0x3e01527b	0.1262912
90	0x3da99f51	0.0828234
91	0x3de5518d	0.11197195
92	0x3d4d5e86	0.050138973
93	0x3d5f1c6c	0.054470465
94	0xbdc49b7e	-0.0959997
95	0xbd0a1a14	-0.033716276
96	0xbc2c48d6	-0.010515412
97	0xbd37fadd	-0.044916976
98	0xbda7898a	-0.0818053
99	0x3de81baa	0.113334015
100	0x3e244153	0.16040544
101	0x3d9c7847	0.076401286
102	0x3d58593e	0.052819483
103	0x3ca88fcb	0.020576378
104	0x3dd62b29	0.10457451
105	0x3db64e1a	0.089016154
106	0xbd16f8db	-0.03685842
107	0x3cffd2c6	0.031228434
108	0xbd8ff260	-0.07028651
109	0xbdcce876	-0.10005276
110	0xbdb71026	-0.08938627
111	0xbd4efcc5	-0.05053403
112	0x3e08ded8	0.13366258
113	0x3c50975e	0.012731401
114	0xbd5323af	-0.051547702
115	0x3d70c5cf	0.058782395
116	0x3d20f781	0.039298538
117	0x3e20ab72	0.15690401
118	0xbd7dd69e	-0.061972253
119	0xbd5c6e96	-0.0538164
120	0x3dc54ef4	0.096342
121	0xbd2e3280	-0.04252863
122	0x3e1a7a80	0.15085793
123	0x3d8fd62b	0.07023271
124	0x3dbd24c4	0.09235528
125	0x3db75580	0.08951855
126	0xbc7c3a7a	-0.015394801
127	0x3dc3352f	0.09531628
128	0xbe06d97e	-0.13168904
129	0xbdc035db	-0.09385272
130	0xbd92a1cf	-0.07159769
131	0xbd824879	-0.06361479
132	0xbd6ae3d5	-0.057346184
133	0xbd2f31cb	-0.042772096
134	0xbd5ca78e	-0.05387073
135	0x3d07e019	0.0331727
136	0x3e018f8f	0.1265242
137	0xbd9bd7e9	-0.07609541
138	0xbdde157f	-0.10843944
139	0x3d87deca	0.066342905
140	0xbdb63324	-0.08896473
141	0xbd9c1879	-0.07621855
142	0x3dc876cc	0.09788284
143	0xbc5f4a85	-0.013628607
144	0x3de21c13	0.11040511
145	0x3d8dec93	0.069298886
146	0x3d9a3392	0.075293675
147	0xbd953862	-0.07286145
148	0x3dc085fb	0.09400555
149	0x3d845adb	0.06462642
150	0xbd8d548e	-0.06900893
151	0xbd4be5cc	-0.0497797
152	0x3d8ee7dc	0.069778174
153	0x3cdf9913	0.027294671
154	0x3dd5eb13	0.104452275
155	0x3d5859ab	0.05281989
156	0x3d5f124c	0.05446081
157	0xbd14b981	-0.036309723
158	0x3d6bf996	0.05761107
159	0x3e02b20f	0.12763236
160	0x3e038684	0.12844282
161	0xbc328050	-0.01089485
162	0xbd3bdfb5	-0.04586764
163	0x3dda33d5	0.106544174
164	0x3d14801d	0.03625499
165	0xbd2cafe0	-0.042159915
166	0x3db5dedf	0.088804
167	0x3d562640	0.05228257
168	0x3c6d6988	0.014490493
169	0xbd8ebe06	-0.06969838
170	0xbd24c5e9	-0.040227804
171	0xbdf9af62	-0.12191655
172	0xbe010484	-0.12599379
173	0x3df1d4e6	0.11808185
174	0x3d1a2477	0.03763243
175	0xbdfd55e0	-0.12369895
176	0x3cd343c0	0.025789142
177	0x3cd32bc5	0.025777707
178	0xbe19d390	-0.15022111
179	0xbdabb849	-0.08384759
180	0x3d74f61b	0.059805017
181	0x3db99231	0.09061087
182	0x3e3ffef9	0.18749608
183	0x3d946a5c	0.07246849
184	0xbdf613ab	-0.1201547
185	0xbd5db661	-0.05412901
186	0xbb957cac	-0.004561981
187	0xbc320c6a	-0.010867218
188	0xbdbe8e3b	-0.09304472
189	0x3cf6a8c0	0.030109763
190	0xbd8b9970	-0.06816375
191	0xbd1c6541	-0.0381825
192	0x3b8f0ce6	0.0043655513
193	0xbdbe30c8	-0.09286648
194	0xbd7cccde	-0.061718814
195	0xbdc0c58c	-0.09412679
196	0x3db7debd	0.08978031
197	0x3d19b416	0.03752526
198	0x3bb3924a	0.0054800855
199	0x3e12ba3e	0.14328858
200	0xbd2f2980	-0.042764187
201	0x3c4e37d2	0.012586551
202	0x3d5308da	0.051522113
203	0xbc553f86	-0.013015633
204	0x3dad262a	0.08454545
205	0x3d2baab8	0.041910857
206	0x3df0aa75	0.11751262
207	0x3d5e57eb	0.054283064
208	0xbd84727c	-0.06467149
209	0xbd54f258	-0.05198893
210	0x3d0b1f51	0.033965413
211	0x3d3834f4	0.044972375
212	0x3ccc13bb	0.024911752
213	0xbdbf499f	-0.09340214
214	0xbdb89b3b	-0.09013983
215	0x3d929780	0.071578026
216	0x3e0ff2aa	0.14057413
217	0xbdd4fbd1	-0.10399593
218	0xbdc1308b	-0.09433087
219	0x3cf5940d	0.029977823
220	0x3d43e999	0.047830198
221	0x3d30efa3	0.043197285
222	0xbd763500	-0.06010914
223	0xbd13b54c	-0.03606157
224	0x3b67e311	0.0035383145
225	0x3d7d5819	0.061851595
226	0xbd5778cf	-0.052605446
227	0x3dad7f29	0.084715195
228	0x3c22a9da	0.009928191
229	0x3e28058c	0.16408366
230	0xbdabc1da	-0.083865836
231	0x3dea23f5	0.114326395
232	0x3d8a116c	0.06741604
233	0xbc8ebfc1	-0.01742542
234	0xbd89c091	-0.06726182
235	0x3c361cb5	0.011115243
236	0xbdd05200	-0.1017189
237	0x3dfb2e83	0.12264731
238	0xbdd098f5	-0.10185424
239	0x3e12fcca	0.14354244
240	0xbd3b5811	-0.045738284
241	0xbd43f7a0	-0.047843575
242	0xbe0d3044	-0.13787943
243	0x3e19ab88	0.1500684
244	0xbdde0c25	-0.1084216
245	0xbe17ef8d	-0.14837475
246	0x3df78b81	0.12087155
247	0x3da851e0	0.082187414
248	0xbdf506a3	-0.119641565
249	0xbd8331cc	-0.064059824
250	0x3dc869d2	0.097858086
251	0x3da2a841	0.07942248
252	0xbdbf0c91	-0.09328569
253	0xbd9e0c94	-0.07717243
254	0xbe2452b7	-0.16047178
255	0x3da26dd9	0.07931108

conv2.convs.<node___to___node>.lin_l.weight f4 [16, 16]
0	0xbe49ac2f	-0.19694589
1	0xbe849a22	-0.25898844
2	0xbd506a20	-0.05088246
3	0xbea2397b	-0.3168448
4	0xbe23e95f	-0.16006993
5	0xbe380aa1	-0.17972805
6	0x3e7a2b2d	0.24430533
7	0xbeb12e1e	-0.34605497
8	0xbe5b225f	-0.2139983
9	0x3dc67f4d	0.096922494
10	0xbeb1f613	-0.34758052
11	0xbe1277eb	-0.14303558
12	0x3e35a542	0.17738822
13	0xbca2913a	-0.01984464
14	0xbd7b0340	-0.061282396
15	0xbdf5c12c	-0.11999735
16	0xbe362da9	-0.17790855
17	0xbe5efb02	-0.2177544
18	0x3d5ff411	0.05467612
19	0xbe3081f7	-0.17237078
20	0x3ccc96b4	0.024974205
21	0x3dbe435e	0.09290193
22	0x3e55165c	0.2080931
23	0x3d417e7e	0.047239773
24	0xbe923826	-0.28558463
25	0xbe2df1d0	-0.16986775
26	0xbe529549	-0.2056476
27	0xbda64e0a	-0.081203535
28	0xbd92883d	-0.07154892
29	0x3dd3c0c1	0.10339499
30	0xbd86f5a7	-0.06589823
31	0x3bb84289	0.005623166
32	0x3e9a10a4	0.3009082
33	0xbd79cfc9	-0.060989175
34	0xbe619039	-0.22027673
35	0x3db2c0ec	0.08728203
36	0x3ebca29d	0.36842814
37	0xbd8d2900	-0.06892586
38	0xbd83bcf8	-0.06432527
39	0xbd2286e4	-0.039679423
40	0xbe33921e	-0.17536208
41	0xbd2ec1bc	-0.04266523
42	0x3b1c5267	0.0023852827
43	0xbd797b5a	-0.060908653
44	0xbe3edb96	-0.18638453
45	0x3dbddab3	0.09270229
46	0x3d7d1ba7	0.06179395
47	0x3e54e709	0.20791258
48	0xbe903794	-0.28167403
49	0xbe7bd69f	-0.2459359
50	0xbe5ed438	-0.21760643
51	0xbe3e31a2	-0.18573621
52	0x3d08fd1a	0.0334445
53	0xbdf5f161	-0.1200893
54	0xbe3f82d1	-0.18702246
55	0x3e40104a	0.18756214
56	0x3d86fd92	0.065913334
57	0x3d5310e1	0.05152977
58	0xbe5f706c	-0.2182023
59	0x3d81041f	0.06299614
60	0xbd95031f	-0.07275986
61	0xbe92808f	-0.28613707
62	0x3e2e036f	0.16993497
63	0xbd217661	-0.039419536
64	0x3d2e2faa	0.042525925
65	0xbe50cd75	-0.20390876
66	0x3e5f9a40	0.21836185
67	0xbcffb9d4	-0.03121654
68	0xbdd08b32	-0.101827994
69	0xbc6d7f4b	-0.014495681
70	0xbe1330b4	-0.14374048
71	0x3e082834	0.13296586
72	0xbe66c463	-0.22535853
73	0xbd8ba982	-0.068194404
74	0x3dc0c275	0.0941209
75	0x3daa9acf	0.08330309
76	0x3dc285c8	0.09498173
77	0x3d8ad9c5	0.067798175
78	0x3e1a44be	0.15065286
79	0xbe1741dc	-0.14771217
80	0xbd4a9eb2	-0.04946775
81	0xbdd6daf7	-0.10490983
82	0x3db5b5b9	0.088725515
83	0x3dc2ad09	0.0950566
84	0x3d0f40a6	0.034973763
85	0x3e8bdef9	0.27318552
86	0x3e1f0f9a	0.15533295
87	0xbcf0fa3b	-0.029416194
88	0x3e32de9e	0.17467734
89	0x3daff8b0	0.08592355
90	0xbd71685a	-0.058937408
91	0x3cdfdb4b	0.027326247
92	0xbd9984db	-0.07496043
93	0x3c68bdd7	0.014205418
94	0x3d87a6f3	0.0662364
95	0x3d25f89e	0.040520303
96	0xbbd273f2	-0.006422513
97	0xbbf5020c	-0.0074770506
98	0x3e1d1b7b	0.15342514
99	0xbe9ccb28	-0.30623746
100	0xbcd64e6b	-0.02616044
101	0xbea37f67	-0.31933138
102	0x3e9df76a	0.30852824
103	0xbe9051c4	-0.28187382
104	0xbb3262f1	-0.0027219618
105	0xbd948246	-0.0725141
106	0x3ded2940	0.115801334
107	0xbd8de3ef	-0.069282405
108	0xbe11c7bf	-0.14236353
109	0xbe88a1a4	-0.26685822
110	0x3e8d4b76	0.27596635
111	0x3e005221	0.1253133
112	0x3dbd0504	0.09229472
113	0xbde16b72	-0.11006822
114	0x3dcc0200	0.09961319
115	0xbe89a3c7	-0.26882765
116	0x3db9a011	0.09063733
117	0x3e1cde87	0.15319262
118	0xbe64b05e	-0.22332904
119	0xbe4c284d	-0.19937249
120	0xbd8d07c9	-0.068862505
121	0xbdfb616c	-0.12274441
122	0xbddfdc40	-0.10930681
123	0x3e00920e	0.12555715
124	0x3e00af14	0.12566787
125	0x3de07609	0.109600134
126	0x3e23bde9	0.15990414
127	0xbe2408da	-0.16019002
128	0xbeb9dc7d	-0.36301032
129	0xbe6e456f	-0.23268674
130	0x3e1dfe00	0.15428925
131	0x3e446493	0.19178991
132	0x3d4db364	0.05021991
133	0xbe6dcc28	-0.2322241
134	0x3ec53c0c	0.38522375
135	0x3babe497	0.005245756
136	0x3dcb7222	0.099338785
137	0xbe72b9a4	-0.23703629
138	0x3e7014cc	0.23445433
139	0xbd79b9f1	-0.060968343
140	0xbdd10da9	-0.102076836
141	0xbdec9837	-0.1155247
142	0xbc300153	-0.010742503
143	0x3e52ffe3	0.20605426
144	0x3ea5729f	0.3231401
145	0xbd10611c	-0.03524886
146	0x3e28c73c	0.16482252
147	0x3e37c9cd	0.17948075
148	0x3e814e18	0.25254893
149	0xbdb22c3f	-0.086998455
150	0xbdc3ed95	-0.095667996
151	0x3e27da70	0.16391921
152	0xbe512111	-0.2042277
153	0x3e1c923a	0.15290156
154	0x3dcd9203	0.10037615
155	0x3e4635ba	0.19356433
156	0x3e106d0a	0.14104095
157	0xbeadc55c	-0.33939636
158	0x3cef3aec	0.0292029
159	0xbd0784a0	-0.033085465
160	0xbe50d752	-0.20394638
161	0x3e207633	0.1567009
162	0xbe1cf3df	-0.15327404
163	0xbdf288dc	-0.1184251
164	0xbbef208f	-0.0072975825
165	0xbe7c1566	-0.24617538
166	0xbd8c4f3d	-0.06851051
167	0xbd605dcf	-0.054776963
168	0xbd8c9cc8	-0.06865841
169	0xbd249ae8	-0.040186793
170	0xbe3fa0ff	-0.18713759
171	0xbd0215fe	-0.031759255
172	0xbd86131e	-0.06546615
173	0xbdb73318	-0.08945292
174	0xbdb12cf0	-0.08651149
175	0x3e2b6644	0.1673823
176	0xbe0cc290	-0.13746095
177	0x3e5485d9	0.20754184
178	0x3e5a7278	0.21332729
179	0x3e8a9f46	0.2707464
180	0xbdba56c8	-0.090985835
181	0x3e0424d1	0.1290467
182	0xbcd2babc	-0.025723808
183	0x3e062847	0.13101302
184	0x3df0a127	0.11749487
185	0x3d79b45d	0.060963023
186	0x3e10db2d	0.14146109
187	0x3e162a88	0.14664662
188	0xbe4d3c9b	-0.2004265
189	0x3c94bbab	0.018155893
190	0xbcad37c2	-0.021144751
191	0x3e199f58	0.15002191
192	0xbd7f3922	-0.062310345
193	0x3e124614	0.14284545
194	0x3d583b0a	0.05279068
195	0xbeb1c431	-0.34719995
196	0xbdaba29c	-0.08380625
197	0x3dcc6b81	0.09981442
198	0x3d902869	0.070389576
199	0xbdd94560	-0.10608935
200	0x3e506287	0.20350085
201	0x3e363731	0.17794491
202	0xbe70a9fa	-0.23502341
203	0x3d26ea38	0.040750712
204	0x3df1e854	0.11811891
205	0xbe12d06c	-0.14337319
206	0x3cb6a4ce	0.022295382
207	0x3bbfb6f3	0.0058506667
208	0xbcf521f7	-0.029923422
209	0x3e2dce05	0.16973121
210	0x3d94b59d	0.072612025
211	0x3d83aa20	0.06428933
212	0x3e6fcddb	0.23418371
213	0xbe1f40c4	-0.1555205
214	0xbe6d27fb	-0.23159783
215	0xbc42249c	-0.011849549
216	0x3e728281	0.23682596
217	0x3e88f2eb	0.26747832
218	0x3abd68a2	0.0014450739
219	0x3e0b55f8	0.13607013
220	0xbe5de746	-0.21670255
221	0x3d143803	0.03618623
222	0xbd0bccd3	-0.034130882
223	0xbe0ab915	-0.13547166
224	0xbd4044da	-0.046940662
225	0xbdc694d6	-0.09696357
226	0x3d8006c7	0.06251293
227	0x3e4b6ad6	0.19864973
228	0x3e3ffd25	0.1874891
229	0xbdd84329	-0.10559685
230	0xbe51fa9d	-0.20505758
231	0x3ccd2e53	0.025046503
232	0xbdb7f928	-0.0898307
233	0x3e86e009	0.263428
234	0xbdc801f1	-0.09765995
235	0x3e3b0657	0.18264137
236	0x3e26fe75	0.16308005
237	0xbdf4f21a	-0.1196024
238	0x3d609b1c	0.054835424
239	0x3d59ddbd	0.05318998
240	0xbec3ba05	-0.3822786
241	0x3d8f08d2	0.06984104
242	0xbe6ea01c	-0.23303264
243	0x3e47b8a9	0.19504036
244	0x3c7e1a43	0.015509191
245	0xbd91e22c	-0.07123217
246	0x3ebff370	0.37490416
247	0xbe2f9368	-0.17146075
248	0xbd1a19a7	-0.03762212
249	0xbe1b7098	-0.1517967
250	0x3d3147e6	0.04328146
251	0x3c87582e	0.01652154
252	0x3e6cd3c3	0.23127656
253	0xbdfb9e1d	-0.12286017
254	0xbe36decd	-0.17858429
255	0x3e93a8db	0.28839764

conv2.convs.<node___to___node>.lin_l.bias f4 [16]
0	0xbcb74de8	-0.022376016
1	0x3c894210	0.016755134
2	0x3e479a14	0.1949237
3	0xbe1de052	-0.15417603
4	0xbd8d208f	-0.06890976
5	0x3d94702b	0.07247957
6	0xbd95e1d2	-0.073184624
7	0x3e8875b3	0.26652297
8	0xbe824761	-0.25445083
9	0x3d90c7f4	0.07069388
10	0xbd681f4b	-0.05667047
11	0x3e7ce80a	0.24697891
12	0x3e9a762e	0.3016829
13	0x3c6a1b1b	0.014288689
14	0xbd90e25d	-0.07074425
15	0x3dc77f00	0.0974102

conv2.convs.<node___to___node>.lin_r.weight f4 [16, 16]
0	0x3e04a0a8	0.1295191
1	0x3c370196	0.011169812
2	0xbdc1bfd5	-0.09460417
3	0x3e4d5f62	0.20055917
4	0x3e180250	0.14844632
5	0x3e9675d3	0.29386768
6	0xbd8dd45f	-0.06925272
7	0x3e28efc1	0.16497709
8	0xbea6cc94	-0.32577956
9	0xbc22fe27	-0.00994829
10	0x3cd8804a	0.02642836
11	0x3e5bfeb7	0.21483885
12	0xbe0f6940	-0.14004993
13	0x3ede09be	0.43366808
14	0xbcc186ac	-0.023623787
15	0x3e1ee081	0.15515329
16	0x3e6874a9	0.22700752
17	0xbd5515da	-0.052022792
18	0xbdee895a	-0.116472915
19	0x3e44469e	0.19167563
20	0x3e3b0391	0.18263079
21	0x3ea352c8	0.31899095
22	0xbc18c8cf	-0.00932522
23	0x3d814ad3	0.063131
24	0xbe011da8	-0.12608969
25	0xbdd82e08	-0.10555655
26	0x3eca617c	0.395275
27	0x3db5f74b	0.08885058
28	0x3e42be6e	0.19017956
29	0x3eb4b3fb	0.35293564
30	0x3dbfae0d	0.093593694
31	0x3cb4fd84	0.022093542
32	0xbe50b6e9	-0.20382275
33	0x3db9562b	0.09049638
34	0x3d8e4e02	0.069484726
35	0x3dfea6f8	0.124341905
36	0xbe7b891b	-0.2456402
37	0x3de06010	0.109558225
38	0xbe3784ac	-0.17921704
39	0x3db9daaf	0.09074914
40	0x3c90f11b	0.017693093
41	0x3e27ec3f	0.16398714
42	0xbb9506d2	-0.004547932
43	0x3d0f289f	0.03495085
44	0x3e6ad99d	0.22934575
45	0x3af6c3a3	0.0018826615
46	0x3e8bbcbb	0.27292427
47	0xbd985dfa	-0.074397996
48	0x3dcf4b20	0.10121751
49	0x3d0e3e03	0.034727108
50	0x3e9050ce	0.2818665
51	0xbe824191	-0.25440648
52	0x3d8deaa3	0.06929519
53	0xbd6698de	-0.05629813
54	0x3e02f16a	0.12787405
55	0xbe1562f3	-0.14588527
56	0xbbafa3b4	-0.005360091
57	0x3e8ce51e	0.27518553
58	0xbe7a0584	-0.24416167
59	0xbe635618	-0.22200811
60	0xbd6d67b9	-0.057960246
61	0xbc21ae94	-0.009868283
62	0x3e858f0d	0.26085702
63	0x3d9088ab	0.07057317
64	0x3d938d98	0.07204741
65	0x3e51ac21	0.20475818
66	0x3e7fa003	0.24963383
67	0x3e64452a	0.22292009
68	0xbe793554	-0.2433675
69	0x3ccc0bea	0.024908025
70	0xbe326754	-0.17422229
71	0xbe655f62	-0.22399667
72	0x3ec994f5	0.39371458
73	0x3d25a2e7	0.04043856
74	0xbe672e05	-0.22576149
75	0xbe098f9b	-0.13433687
76	0x3e84bea7	0.25926706
77	0xbe1a6249	-0.15076555
78	0x3e376bbb	0.1791219
79	0xbc9485fb	-0.018130293
80	0xbef7ec47	-0.48422453
81	0xbe083798	-0.13302457
82	0xbe1b2f3f	-0.15154742
83	0xbc1ade24	-0.0094523765
84	0x3e1d178f	0.15341018
85	0xbe8442ff	-0.25832364
86	0x3ec6b450	0.38809443
87	0x3dbe7967	0.093004994
88	0x3e1a916e	0.1509454
89	0x3e626118	0.22107351
90	0x3e6b9871	0.2300737
91	0xbe7c0cdf	-0.24614285
92	0xbe00d10f	-0.1257975
93	0xbea53d65	-0.32273403
94	0xbdcb251c	-0.099191874
95	0x3eb99ff2	0.3625484
96	0xbe2e091d	-0.16995664
97	0xbc7f9bb9	-0.015601092
98	0xbe80a59b	-0.25126347
99	0x3e02a1fe	0.12757108
100	0x3cff1a6a	0.031140525
101	0x3df39a1d	0.11894629
102	0xbd0dca24	-0.034616604
103	0x3f03d108	0.5149083
104	0xbe3d5d2b	-0.18492572
105	0x3e09f60c	0.13472766
106	0xbd0d2e62	-0.034468062
107	0x3e53bc23	0.20677237
108	0x3e8a3f51	0.27001432
109	0x3d3fc1a6	0.046815537
110	0xbd42c138	-0.04754755
111	0x3ddf5a3e	0.10905884
112	0x3ec154c0	0.37759972
113	0x3e650f4c	0.22369117
114	0xbe2f186b	-0.17099158
115	0x3e42798a	0.18991676
116	0x3e1f18a4	0.15536743
117	0x3e989580	0.2980156
118	0xbe329cf9	-0.17442693
119	0xbcdfdfdb	-0.027328422
120	0x3ae0deca	0.001715624
121	0xbe88e076	-0.2673375
122	0x3debbea6	0.11510973
123	0x3e98d4b6	0.29849786
124	0xbe306d19	-0.17229117
125	0xbe278873	-0.16360645
126	0x3d0335cf	0.032033738
127	0xbe71d92d	-0.23618002
128	0xbe65b71a	-0.22433129
129	0xbe3c56fe	-0.1839256
130	0xbd8557bb	-0.06510874
131	0x3e02198b	0.12705056
132	0x3e835107	0.25647756
133	0xbe6c5bc4	-0.23081881
134	0x3edf7348	0.4364264
135	0xbe083294	-0.13300544
136	0x3e8e096c	0.27741563
137	0x3e5095b0	0.20369601
138	0x3e91dae0	0.284873
139	0x3e3c3289	0.18378653
140	0x3c15667e	0.009118674
141	0x3d80678e	0.062697515
142	0xbec42eb0	-0.3831687
143	0x3e578bd4	0.21049434
144	0x3e6dba1f	0.23215531
145	0x3e0c8ba8	0.1372515
146	0xbe32bcc9	-0.17454828
147	0xbd96c69a	-0.07362099
148	0xbe22dc93	-0.15904455
149	0x3db9f7b1	0.090804465
150	0xbe7ccf24	-0.24688393
151	0x3ddd43fc	0.108039826
152	0x3df06d0e	0.117395505
153	0xbd7509a5	-0.05982365
154	0x3d36ff5d	0.044677127
155	0x3d6c0d93	0.057630133
156	0x3e8cf4ab	0.27530417
157	0xbde48451	-0.1115805
158	0x3e1aa1a6	0.15100726
159	0xbeab792c	-0.33490884
160	0xbe08d3f1	-0.13362099
161	0x3e2938f0	0.16525626
162	0xbe70caa1	-0.23514797
163	0x3e537162	0.20648721
164	0xbc0c4169	-0.008560517
165	0x3eab8375	0.3349873
166	0x3ceefcb8	0.02917324
167	0xbd02953d	-0.031880606
168	0xbe3f0c06	-0.1865693
169	0xbd7ec808	-0.062202483
170	0xbe3d02a4	-0.18458039
171	0x3e9e7cae	0.30954498
172	0x3e37b7d6	0.17941222
173	0x3ee316ff	0.44353482
174	0xbdb504eb	-0.08838829
175	0x3e1b84af	0.15187334
176	0x3b42541e	0.0029652189
177	0xbe6b883e	-0.23001191
178	0xbd3f3947	-0.046685483
179	0xbe0f72da	-0.14008656
180	0xbbff4e4f	-0.0077913175
181	0xbe56e17d	-0.20984454
182	0xbe2967eb	-0.16543548
183	0xbd6b6878	-0.057472676
184	0xbdb330c4	-0.08749536
185	0xbd24beae	-0.04022091
186	0x3e607446	0.21919355
187	0xbe5b5846	-0.21420392
188	0x3d787583	0.060658943
189	0xbec3a46d	-0.38211384
190	0x3dc660f9	0.09686465
191	0xbd88b485	-0.06675056
192	0x3e9f1ae4	0.31075203
193	0xbe484233	-0.19556503
194	0xbd969f44	-0.07354596
195	0x3e1210b3	0.14264183
196	0x3ecaba3d	0.39595214
197	0x3e3296be	0.17440316
198	0xbe535dcc	-0.2064125
199	0xbd896552	-0.067087784
200	0x3e13976d	0.14413233
201	0xbe23752a	-0.15962663
202	0x3e1e4d87	0.15459262
203	0xbd8b3113	-0.067964695
204	0xbe25de31	-0.1619804
205	0x3e196783	0.14980893
206	0xbe737e95	-0.23778756
207	0x3ddd9e1d	0.10821173
208	0x3e169360	0.14704657
209	0x3e85c955	0.26130167
210	0x3d929e91	0.071591504
211	0x3aa15cd7	0.0012310994
212	0xbeb626ea	-0.35576564
213	0x3e258037	0.16162191
214	0xbddb965d	-0.10722039
215	0x3e900b73	0.28133735
216	0x3df86300	0.12128258
217	0x3e82def3	0.25560722
218	0xbedf4698	-0.43608546
219	0x3e5372a2	0.20649198
220	0x3d072826	0.032997273
221	0xbe83c154	-0.25733435
222	0x3daac1b5	0.08337728
223	0xbe982fa8	-0.2972386
224	0xbd6d6dca	-0.05796603
225	0x3e95018a	0.29102737
226	0x3e7bbdb7	0.24584089
227	0x3e130561	0.1435752
228	0xbebd1f93	-0.36938152
229	0xbc8e061b	-0.017336896
230	0x3d8b3fb3	0.06799259
231	0xbdd9852e	-0.10621105
232	0x3d5361a3	0.051606786
233	0xbd27dbcc	-0.0409811
234	0xbda02007	-0.07818609
235	0xbdfd63cd	-0.12372551
236	0xbdc8ffc4	-0.098144084
237	0xbe6f17bc	-0.23348898
238	0x3bcf12b2	0.0063193673
239	0xbe4ea814	-0.20181304
240	0xbe2d17da	-0.1690363
241	0x3e19455d	0.14967866
242	0xbdcac98c	-0.09901723
243	0xbdb22ac0	-0.0869956
244	0x3d6dbab5	0.058039386
245	0x3d336d0d	0.04380517
246	0x3e836791	0.25664952
247	0x3dd38195	0.1032745
248	0x3e381ab2	0.17978933
249	0xbd955ebb	-0.07293459
250	0xbda3693f	-0.079790585
251	0x3dbdf7b7	0.092757635
252	0x3e43b216	0.19110903
253	0xbe219e61	-0.15783073
254	0x3dbb7bc8	0.09154469
255	0x3edc217b	0.42994294

conv3.convs.<node___to___node>.lin_l.weight f4 [16, 16]
0	0x3e8cf202	0.27528387
1	0x3e3d0cf5	0.18461974
2	0x3e63adf7	0.22234331
3	0xbc343b51	-0.01100047
4	0x3e14cccb	0.14531247
5	0xbea80525	-0.32816425
6	0xbe64f93e	-0.22360703
7	0xbe52f288	-0.20600331
8	0xbdce144b	-0.10062464
9	0xbe593d3d	-0.21214767
10	0xbd9f4b6b	-0.07778057
11	0xbe7f943f	-0.24958895
12	0xbd65be9a	-0.056089975
13	0x3d901237	0.07034724
14	0x3c4af7c8	0.012388177
15	0xbe6526fa	-0.2237815
16	0xbe664ba9	-0.224898
17	0x3e237b69	0.15965046
18	0x3d632284	0.05545284
19	0x3e1512c8	0.14557946
20	0x3e2527eb	0.16128509
21	0xbabe74de	-0.0014530679
22	0xbe270e16	-0.16313967
23	0xbe616d40	-0.22014332
24	0xbe622c8d	-0.22087307
25	0xbe975162	-0.29554278
26	0xbe4dbf50	-0.20092511
27	0xbe1c7343	-0.15278344
28	0x3b8f415a	0.004371804
29	0x3d2000ff	0.03906345
30	0x3dc2f2b2	0.09518947
31	0xbe3ad5fc	-0.18245691
32	0x3e3178ca	0.17331234
33	0x3cf49def	0.029860465
34	0x3ea0ef8a	0.31432754
35	0x3e0756ce	0.13216707
36	0xbd79fefd	-0.06103419
37	0xbe5ad3e3	-0.21369891
38	0xbc708bfb	-0.014681811
39	0xbdd61c2b	-0.10454591
40	0x3d16daa2	0.0368296
41	0x3e823551	0.25431302
42	0xbd898caf	-0.067162864
43	0xbe303018	-0.17205846
44	0x3eb348b1	0.35016397
45	0x3ccdce9a	0.02512293
46	0xbdbeaeda	-0.09310694
47	0x3e907e27	0.28221247
48	0xbd1de0ba	-0.038544394
49	0x3e0e8299	0.13917007
50	0x3ce4f4f3	0.027948832
51	0x3e8d0aac	0.27547204
52	0x3d190935	0.037362296
53	0x3e044b7e	0.12919423
54	0xbd203e9f	-0.03912222
55	0xbe22f388	-0.15913212
56	0xbe605370	-0.21906829
57	0x3e8992ae	0.2686972
58	0x3e3d593e	0.18491074
59	0x3ea7147b	0.32632813
60	0xbce565c3	-0.028002625
61	0xbda8e9f2	-0.082477465
62	0xbd377d83	-0.04479743
63	0x3bc7c537	0.006096508
64	0xbdf27e88	-0.1184054
65	0xbc05ac5e	-0.008158771
66	0xbe237d03	-0.15965657
67	0xbe6ca706	-0.2311059
68	0x3e262478	0.16224849
69	0x3dbf2a37	0.09334224
70	0xbc11da07	-0.008902079
71	0x3e303378	0.17207134
72	0x3c9ed33d	0.019387836
73	0xbe647f31	-0.22314145
74	0xbddcb596	-0.10776822
75	0xbde747b5	-0.11292974
76	0xbe5fc6ea	-0.21853223
77	0xbe16a6e2	-0.14712098
78	0x3dd14185	0.10217575
79	0x3e58b7f7	0.21163927
80	0x3e1f4694	0.15554267
81	0x3cf8e34b	0.03038182
82	0x3da7e9d7	0.08198898
83	0x3da2ac67	0.079430394
84	0xbd76c0ee	-0.060242586
85	0xbd9d7349	-0.076880045
86	0xbd777d13	-0.060422014
87	0xbda5d583	-0.08097365
88	0xbe15e66b	-0.14638679
89	0x3dce019c	0.10058901
90	0xbd8f098e	-0.06984244
91	0x3e69a682	0.22817424
92	0xbdd6cc55	-0.10488192
93	0xbe226f30	-0.15862727
94	0xbdd25b10	-0.10271275
95	0x3dcb8498	0.099373996
96	0x3d9fdba7	0.07805567
97	0xbd901ba7	-0.07036524
98	0x3e303533	0.17207794
99	0xbe983c03	-0.29733285
100	0x3e8596f0	0.2609172
101	0x3d56f02d	0.052475143
102	0x3e86c8ba	0.26325017
103	0xbdc8e3b8	-0.09809059
104	0x3e7196d3	0.23592691
105	0x3e6d1872	0.23153856
106	0x3e39b7de	0.18136546
107	0xbe265312	-0.16242626
108	0xbe7c6cc5	-0.24650867
109	0x3e828e20	0.25499058
110	0xbe53c43a	-0.20680323
111	0x3e64e5c8	0.2235328
112	0x3b5c720c	0.0033637313
113	0x3caba1ad	0.020951116
114	0x3d4f9523	0.050679337
115	0xbe1d1445	-0.15339763
116	0x3dec2a16	0.11531465
117	0x3ea3d085	0.31995025
118	0xbe0d2cf3	-0.13786678
119	0xbd314632	-0.043279834
120	0xbc4d15ab	-0.012517373
121	0x3dc93ac5	0.098256625
122	0xbe0b90c3	-0.13629441
123	0x3e04f8d3	0.12985544
124	0xbe42de67	-0.19030152
125	0xbbf57fb7	-0.0074920314
126	0xbdb2de55	-0.08733813
127	0xbd84f61b	-0.064922534
128	0x3ea0de6d	0.31419697
129	0xbdfdfbf6	-0.12401573
130	0x3e375a4a	0.17905536
131	0xbe91d0e9	-0.28479698
132	0xbe315a6f	-0.17319654
133	0xbe8538f3	-0.2602001
134	0x3e845ce7	0.2585213
135	0x3e098fd6	0.13433775
136	0xbe53458c	-0.20631999
137	0xbe84292e	-0.25812668
138	0x3e77639b	0.2415909
139	0x3da878aa	0.0822614
140	0xbd03d17d	-0.032182205
141	0x3e05decd	0.13073273
142	0xbe16b53f	-0.14717577
143	0x3dce2e3a	0.10067411
144	0x3e930009	0.28710964
145	0xbb96adb0	-0.004598342
146	0x3e319d84	0.17345244
147	0x3d008e61	0.031385783
148	0x3e2d19ab	0.16904323
149	0x3dab0908	0.08351332
150	0x3d623081	0.05522204
151	0xbc77d6be	-0.015126882
152	0xbdedaa98	-0.11604804
153	0x3d6a4444	0.05719401
154	0x3dd59474	0.10428706
155	0x3e069def	0.13146184
156	0x3e5a248a	0.21303001
157	0x3e28d849	0.16488756
158	0xbd2fd8c3	-0.04293133
159	0x3e407fb8	0.18798721
160	0x3de8275d	0.11335633
161	0xbe613e35	-0.21996386
162	0x3dd78822	0.10524012
163	0x3d7d642f	0.06186312
164	0xbd91c441	-0.071175106
165	0xbec34aca	-0.38142997
166	0xbca7e84c	-0.02049651
167	0xbe3ebe96	-0.1862739
168	0xbee0856a	-0.43851787
169	0xbe0ee8f8	-0.13956058
170	0x3d9c472a	0.07630761
171	0xbe850aae	-0.2598471
172	0x3cfc2c1b	0.03078275
173	0xbe2be76a	-0.16787496
174	0x3ddd1340	0.10794687
175	0xbe942a6a	-0.2893861
176	0x3e706045	0.23474224
177	0x3d83de45	0.06438879
178	0xbcce8710	-0.025210887
179	0xbe15ebcb	-0.14640729
180	0xbe84f2b9	-0.25966433
181	0xbe9ab0e6	-0.30213088
182	0x3db991a4	0.09060982
183	0xbdc70cc8	-0.09719235
184	0xbe22fb39	-0.15916146
185	0x3e5dc910	0.2165873
186	0x3e422bcb	0.18962018
187	0xbd019398	-0.031634897
188	0xbea38990	-0.3194089
189	0x3e6f13de	0.23347422
190	0x3d92eae5	0.07173709
191	0xbdb7a9d3	-0.08967938
192	0x3c2ec3e4	0.010666821
193	0x3e11af85	0.14227112
194	0xbe87d036	-0.2652604
195	0x3e8c9764	0.27459252
196	0x3da3c065	0.07995681
197	0xbe05d33a	-0.13068858
198	0x3c778a44	0.015108649
199	0xbdbf990a	-0.09355362
200	0xbd4c934e	-0.04994517
201	0xba0de08e	-0.00054121844
202	0xbe25ae9b	-0.16179888
203	0x3e0e64d8	0.13905656
204	0x3ccd7251	0.025078924
205	0x3d9ca5aa	0.076487854
206	0x3e2d8575	0.16945441
207	0x3b2feebc	0.0026845178
208	0xbe2271f8	-0.15863788
209	0xbe37aa82	-0.17936137
210	0x3e2d297c	0.16910356
211	0xbe25fa91	-0.16208865
212	0x3de85dcb	0.113460146
213	0x3e2d3752	0.16915634
214	0x3d8e4905	0.06947521
215	0x3d0a9c43	0.03384043
216	0x3d99535a	0.07486601
217	0xbc372e14	-0.0111804195
218	0x3c9d9ee2	0.0192408
219	0xbd7b8e2a	-0.061414875
220	0xbba463b5	-0.005016769
221	0x3e1e36f6	0.15450653
222	0xbe5153ba	-0.20442095
223	0xbdcb251a	-0.09919186
224	0xbe8b23ce	-0.27175754
225	0x3db5d1de	0.088779196
226	0xbe8bb0f9	-0.27283457
227	0x3e339a3e	0.17539307
228	0x3e2642ae	0.16236374
229	0x3eb28ead	0.34874478
230	0x3da5dc23	0.08098628
231	0xbcfdc961	-0.030979814
232	0xbcb4a0b0	-0.022049278
233	0x3d8e8700	0.06959343
234	0x3d91f799	0.07127304
235	0x3dcb2409	0.099189825
236	0xbdcc622f	-0.099796645
237	0x3e27d45d	0.16389604
238	0x3e875f77	0.2644002
239	0xbd24cc5b	-0.04023395
240	0x3d55e7b6	0.05222293
241	0x3de1ecd3	0.11031499
242	0xbe8b097b	-0.2715567
243	0xbdfe6395	-0.124213375
244	0xbe6b5cf7	-0.22984682
245	0x3c8084aa	0.01568826
246	0x3e216b5b	0.15763609
247	0x3d868482	0.065682426
248	0xbb9b8c32	-0.004746937
249	0xbc4807df	-0.012208908
250	0x3c87c44f	0.0165731
251	0x3dd5f05e	0.10446237
252	0xbd0ff0ec	-0.03514187
253	0xbe83ad3c	-0.25718105
254	0xbe3bbbaf	-0.18333314
255	0xbe7fa94e	-0.24966928

conv3.convs.<node___to___node>.lin_l.bias f4 [16]
0	0x3e48f755	0.196256
1	0x3d8683ee	0.06568132
2	0xbe7cd6c7	-0.24691306
3	0xbd9d4fcf	-0.07681238
4	0xbe75cc12	-0.24003628
5	0xbd63e202	-0.05563546
6	0xbb70a2c6	-0.0036718114
7	0xbe61e566	-0.22060165
8	0xbe3db4a2	-0.18525937
9	0x3d6dc089	0.058044944
10	0x3e565476	0.20930657
11	0x3e05102c	0.1299445
12	0xbe291fa5	-0.16515978
13	0xbe88e406	-0.26736468
14	0x3d65da3d	0.05611633
15	0xbe6f7465	-0.23384245

conv3.convs.<node___to___node>.lin_r.weight f4 [16, 16]
0	0xbe281d19	-0.1641735
1	0xbe029a34	-0.12754136
2	0x3da01b90	0.07817757
3	0x3d69a181	0.057038788
4	0x3e2e94f8	0.17049015
5	0x3d711533	0.058858108
6	0x3d1d2daf	0.038373645
7	0x3dce510f	0.100740544
8	0xbe6ad39b	-0.22932284
9	0x3e5a6bf9	0.21330251
10	0xbd28acd4	-0.041180447
11	0xbe16467c	-0.14675325
12	0xbead4500	-0.33841705
13	0x3e106681	0.14101602
14	0x3db97dd6	0.090572044
15	0x3c6ebaa9	0.01457087
16	0x3e384f3b	0.17998974
17	0x3e47fc10	0.19529748
18	0x3e34abd2	0.17643669
19	0xbe5705bf	-0.20998286
20	0x3d661b40	0.05617833
21	0xbd9b790d	-0.07591448
22	0xbe097e4e	-0.13427088
23	0x3e2a7a73	0.16648273
24	0xbd749653	-0.059713673
25	0xbd06047d	-0.032719124
26	0x3e1cdc07	0.15318309
27	0x3d791786	0.06081345
28	0x3dbb6204	0.09149554
29	0x3d8f4e1a	0.069973186
30	0x3e057dec	0.13036317
31	0xbe831bc0	-0.2560711
32	0xbd06b666	-0.032888792
33	0xbe9d153f	-0.30680272
34	0x3d48ce08	0.04902461
35	0x3da6a96b	0.08137783
36	0x3e310b48	0.1728946
37	0xbe19f357	-0.15034233
38	0xbe295ee8	-0.1654011
39	0xbdf9e1b0	-0.122012496
40	0xbeb98b0a	-0.3623889
41	0xbcd27fc4	-0.025695689
42	0xbd028344	-0.031863466
43	0xbe357279	-0.17719449
44	0xbc638ba3	-0.013888272
45	0x3e7a4b8f	0.24442886
46	0x3de84b1d	0.11342452
47	0xbdf3c2c5	-0.11902384
48	0xbe9d095d	-0.30671206
49	0xbd5e1c98	-0.054226488
50	0x3e497ee1	0.19677307
51	0x3c8a3575	0.016871193
52	0x3e28211b	0.16418879
53	0x3d92e63c	0.0717282
54	0xbf04e9fb	-0.51919526
55	0x3dc17a0b	0.09447106
56	0xbdf229ae	-0.11824356
57	0xbdf19d20	-0.11797547
58	0xbe8946e0	-0.26811886
59	0xbe574008	-0.2102052
60	0xbe4c4ec0	-0.19951916
61	0x3d9d1f17	0.076719455
62	0x3cfd8b18	0.030950114
63	0xbe870106	-0.26367968
64	0x3d0e54dc	0.034748897
65	0x3dd2e10d	0.10296831
66	0xbe5fdb11	-0.21860911
67	0x3d137335	0.03599854
68	0xbc563f19	-0.013076567
69	0xbe1054b5	-0.14094813
70	0x3df3cf81	0.119048126
71	0xbdf5bb92	-0.11998667
72	0x3e56726f	0.2094209
73	0xbde63c0e	-0.11241923
74	0xbd7c154a	-0.06154374
75	0x3d2a71b7	0.041612353
76	0xbcd71626	-0.026255678
77	0xbd8bca34	-0.068256766
78	0xbca400cf	-0.020019917
79	0xbd0abcf5	-0.03387161
80	0x3e957668	0.291919
81	0x3e86faaf	0.2636313
82	0x3e209227	0.15680753
83	0xbe03c4fc	-0.12868112
84	0xbe9bb877	-0.30414173
85	0x3cd8e3c3	0.026475793
86	0x3ebc266b	0.3674806
87	0xbe89cbb0	-0.26913214
88	0x3db9f1e4	0.0907934
89	0x3d99c8ba	0.07508989
90	0x3d8004c7	0.06250911
91	0xbe4c46a3	-0.19948821
92	0xbe393752	-0.1808751
93	0xbe11e696	-0.14248118
94	0xbe800381	-0.25002673
95	0x3e75a2d4	0.23987895
96	0xbd8cb0f2	-0.06869687
97	0xbe90a722	-0.28252512
98	0xbb480c7f	-0.0030525026
99	0x3eb074db	0.34464154
100	0x3e339d1d	0.17540403
101	0x3d980394	0.074225575
102	0xbe9d64e8	-0.30741048
103	0xbe95b7fd	-0.29241934
104	0x3e0b9158	0.13629663
105	0x3df75f15	0.12078682
106	0xbeae6654	-0.34062445
107	0x3e576d39	0.21037759
108	0x3dcacfd9	0.09902925
109	0xbe26cb1d	-0.16288419
110	0x3e975853	0.29559574
111	0x3dd7ef28	0.10543662
112	0xbe8227d8	-0.25421023
113	0xbe65c648	-0.2243892
114	0x3dd6b55f	0.104838125
115	0x3e713e4c	0.2355892
116	0x3e007f16	0.1254848
117	0x3eb0fee3	0.34569463
118	0x3e59257f	0.2120571
119	0xbe43a6bc	-0.19106573
120	0x3e8e53be	0.27798265
121	0xbe8c128e	-0.27357906
122	0x3e09865a	0.13430157
123	0x3cf0759c	0.029352956
124	0xbe0316eb	-0.12801711
125	0x3e2d70a2	0.16937497
126	0xbe062dc5	-0.13103397
127	0x3e01604e	0.12634394
128	0xbea0629b	-0.3132523
129	0xbdcc21fe	-0.09967421
130	0x3e0d630a	0.13807312
131	0x3e5d53fb	0.21614067
132	0xbd87aa24	-0.066242486
133	0x3e7a4027	0.24438535
134	0xbbd0c81a	-0.00637151
135	0xbe885df9	-0.26634195
136	0xb97afacb	-0.00023935286
137	0xbc4648d3	-0.012102324
138	0xbea5298a	-0.32258254
139	0x3dd2d14d	0.10293827
140	0xbe33f018	-0.17572057
141	0xbdb519fb	-0.08842846
142	0xbe01a84f	-0.12661861
143	0xbd83634b	-0.06415423
144	0xbe7fd159	-0.24982204
145	0x3dd378ff	0.103258125
146	0x3e2b212c	0.16711873
147	0x3e739957	0.23788963
148	0x3deda972	0.11604585
149	0xbe0ff0a9	-0.14056648
150	0xbd3d9b6e	-0.046290807
151	0xbe4de750	-0.2010777
152	0xbcb73370	-0.022363394
153	0x3e49186f	0.19638227
154	0xbd86cc5a	-0.06581946
155	0x3e6e65c2	0.23281005
156	0xbe998089	-0.29980877
157	0xbda4c533	-0.08045425
158	0x3e72f479	0.23726071
159	0x3ddc2495	0.10749165
160	0x3e812826	0.25225943
161	0x3e347676	0.17623314
162	0xbe12d707	-0.14339839
163	0xbbe70e6c	-0.00705128
164	0x3c42788a	0.011869559
165	0xbeac2e6c	-0.33629167
166	0x3ea77814	0.327088
167	0x3e8b37da	0.2719105
168	0xbeabfa98	-0.33589625
169	0x3dea8ee8	0.114530385
170	0x3e8a49f0	0.27009535
171	0x3e0875da	0.13326207
172	0x3e36e6f6	0.17861542
173	0x3e850f10	0.25988054
174	0xbbdbd60d	-0.0067088665
175	0xbea8cdf1	-0.3296962
176	0xbe00200d	-0.12512226
177	0xbe02916c	-0.12750787
178	0x3e4dfd53	0.20116167
179	0x3da3ccfe	0.079980835
180	0x3c2426e7	0.010019041
181	0x3e828814	0.25494444
182	0x3d98fbf5	0.07469932
183	0xbe8f29ff	-0.27961728
184	0x3c222b6f	0.009898051
185	0xbe0d9bd3	-0.13828973
186	0x3e89a628	0.2688458
187	0x3e47e58f	0.19521163
188	0xbdcedf43	-0.101011775
189	0xbda902ab	-0.08252462
190	0x3c8455b1	0.016154142
191	0x3dbfc758	0.09364194
192	0x3d0b927e	0.034075253
193	0x3e145979	0.14487256
194	0x3e67ada9	0.2262484
195	0xbd8781b7	-0.06616538
196	0x3e98c4e2	0.2983771
197	0xbebb6fd2	-0.3660875
198	0xba8cdd1d	-0.0010747049
199	0x3ea0d6dc	0.31413925
200	0xbe668494	-0.22511512
201	0x3e876dd0	0.26450968
202	0xbe0b8abb	-0.1362714
203	0xbca7c693	-0.02048043
204	0xbdd6ae66	-0.104824826
205	0x3ea5ed5b	0.3240765
206	0x3e772dbd	0.24138542
207	0xbe9da5ec	-0.3079065
208	0x3e1669e7	0.14688836
209	0xbe550f6f	-0.20806669
210	0xbde0656e	-0.10956846
211	0xbc0c04ac	-0.008546036
212	0xbe4feb7e	-0.20304677
213	0x3d07c8aa	0.033150353
214	0x3e42cfc5	0.1902457
215	0xbe5f4239	-0.21802606
216	0x3e0760cd	0.1322052
217	0xbdd78af7	-0.10524552
218	0xbe258666	-0.1616455
219	0xbdafb6b6	-0.08579771
220	0x3e22fedb	0.15917532
221	0xbe9b6959	-0.3035381
222	0xbcd042d5	-0.025422493
223	0xbe57aa16	-0.21060976
224	0xbd48e268	-0.049044043
225	0xbe86cb87	-0.26327154
226	0x3db9ad43	0.0906625
227	0x3da10baa	0.07863553
228	0xbe57b161	-0.21063758
229	0xbc8a289f	-0.016865073
230	0x3e95213c	0.29126918
231	0xbe0055a5	-0.12532671
232	0x3cafdf50	0.021468788
233	0xbe7cefd7	-0.24700867
234	0x3dc04447	0.09388023
235	0xbccf7e64	-0.025328822
236	0xbd6fb382	-0.0585208
237	0x3e62d422	0.22151235
238	0x3c6eed33	0.01458292
239	0x3cdea7d7	0.027179642
240	0x3e9ccb30	0.3062377
241	0x3e910d51	0.28330472
242	0xbe385a87	-0.18003283
243	0xbda86d82	-0.08224012
244	0xbdb683e1	-0.08911873
245	0x3e808598	0.25101924
246	0x3e1ab2b8	0.15107238
247	0x3e6b31b3	0.22968177
248	0x3eb74375	0.35793653
249	0x3e19846b	0.1499192
250	0x3e0d6b6a	0.13810506
251	0x3d96e774	0.07368365
252	0x3d582a74	0.05277486
253	0xbd6da644	-0.05801989
254	0xbe21d7e2	-0.15805009
255	0x3da1f484	0.07907966
