ShadowWeave/Long-Tail Optimization/ShadowWeave(1.5).pth (torch, 63329 bytes, 12 tensors)

node_type_embedding.weight f4 [11, 128]
000000 23 0f 8e 95 d8 51 c3 3e b8 76 77 3e ce 4b 9e 3d
       -5.7377225e-26 0.3814838 0.24166381 0.07729302
000010 5f 38 1b 3f de e4 af be 47 72 75 bf f4 50 b2 be
       0.6063289 -0.343543 -0.958775 -0.34827387
000020 80 87 28 bf ae 17 05 bd b9 8c 91 b8 63 90 d8 3f
       -0.65831757 -0.032493286 -6.9403504e-05 1.6919063
000030 46 7b 90 3f dd 2c 83 3f b0 60 49 3f b6 ff 1d 3d
       1.128762 1.0248066 0.7866316 0.038573943
000040 5d e9 e9 3d 79 85 02 bf 9a f2 85 3f 11 7c 5e 3f
       0.11421464 -0.50984913 1.0464661 0.8690806
000050 68 31 93 3e 32 8a 0e be 8e 47 a1 1f 4e 9a 8b 9b
       0.2874863 -0.13919905 6.830453e-20 -2.3095338e-22
000060 c5 66 3f c0 e8 76 e7 3d 39 c7 02 bf 6c f8 1a 40
       -2.9906476 0.113019764 -0.5108524 2.4214125
000070 77 cf 0b bf ac 88 de 3e 1b 03 29 3f ff a3 84 be
       -0.5461344 0.43463647 0.66020364 -0.2590637
000080 70 91 31 c0 44 20 c5 3e 28 cf 1e bf 64 a9 69 b4
       -2.7745018 0.3850118 -0.62034845 -2.176144e-07
000090 d6 7f 5c bf 8c 5e ca 3e 4b 07 71 3b 95 83 c0 bd
       -0.8613256 0.3952526 0.0036778029 -0.09400097
0000a0 ff e5 71 bf b0 a4 cc bd 4c a9 19 be 34 25 15 b1
       -0.9449157 -0.09992349 -0.15005988 -2.1703501e-09
0000b0 ca 1d 23 b0 96 9c d8 3e 4f 32 e3 3e e6 c2 7e 3f
       -5.934139e-10 0.42306966 0.4437432 0.9951614
0000c0 88 13 f9 be bf de 83 3e 7a 03 aa be 77 d5 8a 3e
       -0.48647714 0.2575588 -0.33205777 0.27115986
0000d0 d4 90 82 1d 5e c2 4c ba 39 68 16 3f 47 68 51 35
       3.4560462e-21 -0.00078109454 0.5875278 7.801031e-07
0000e0 4a b0 f2 bd 2e 2b c4 3f 9c 66 9a 3b 12 99 43 bf
       -0.11850031 1.5325677 0.004711939 -0.7640544
0000f0 6d b8 ad bd 9d 5a 94 3e a8 b5 ee be ee 1a 7e 3d
       -0.08482442 0.28975382 -0.46622968 0.0620374
000100 79 d6 2f bf a5 c7 f3 3e 95 a9 26 be 2c 56 d7 39
       -0.68686634 0.47613254 -0.16275628 0.000410722
000110 f4 93 a3 bf c1 19 00 3f 9b 14 68 bf 2f db 94 be
       -1.2779527 0.500393 -0.9065644 -0.29073474
000120 4e de 40 3d 65 10 02 97 65 6c 7e 3f b7 b8 f5 be
       0.047087006 -4.202596e-25 0.99384147 -0.4799249
000130 40 cb 63 3f b6 81 2a be 41 f7 64 3f b9 50 ec bc
       0.8898201 -0.16651043 0.8943978 -0.028847085
000140 b9 bc 83 bd 49 b8 96 3c d0 f4 5a bf b2 aa 12 99
       -0.0643248 0.01839842 -0.85529804 -7.582495e-24
000150 75 02 8b 3f f1 87 18 3f 15 23 91 3f 01 63 32 3d
       1.0860125 0.5958243 1.1338831 0.04355145
000160 3a f4 52 3f 9a b8 19 3f 54 24 da be 49 d0 68 3f
       0.8240391 0.60047305 -0.4260584 0.9094282
000170 5a b8 42 3f 46 d1 36 bd 25 31 9a ba 0d 14 d4 99
       0.7606255 -0.044633172 -0.0011763914 -2.1928385e-23
000180 4c ff 4d 3e dd 58 82 bf 8a f7 f9 bf 32 1c d8 bf
       0.2011692 -1.0183369 -1.9528668 -1.6883605
000190 e7 d2 48 38 ab bb 99 3f 1e 5b 01 40 94 26 85 bf
       4.7880134e-05 1.2010397 2.0211864 -1.0402398
0001a0 fc 0c 36 b8 49 9d 1c 3f a1 f0 3c bf ae 4c ba 38
       -4.3404274e-05 0.611775 -0.7380467 8.883454e-05
0001b0 1c 4e c7 20 4a c5 31 bf 79 1f 00 a7 0c 3e 0c 40
       3.37636e-19 -0.69441664 -1.778063e-15 2.191287
0001c0 74 07 aa 3c b8 04 43 3e 3b 6f c2 3a d0 94 59 3e
       0.020755507 0.19044769 0.0014834175 0.21248174
0001d0 af 9a a7 be 47 22 10 3e b3 a6 f8 bd 4a 75 80 bf
       -0.32735202 0.14075576 -0.1214117 -1.0035794
0001e0 89 e5 b1 bf 56 99 05 3f a8 17 58 3f a9 3f 1b 3f
       -1.3898174 0.521871 0.84411097 0.6064401
0001f0 83 40 38 be cb 88 49 bf 9f 78 f8 3e e7 b2 26 39
       -0.1799336 -0.78724355 0.48529527 0.0001589764
000200 a0 47 8a 3f 7a 2e a7 bd 47 6c 3b 3e 11 18 91 3f
       1.0803108 -0.081631616 0.18303023 1.133547
000210 36 ab 4e bf de 93 b3 bd 05 fe 32 bf cb 8d 29 3f
       -0.8073 -0.08768438 -0.69918853 0.66231984
000220 9f 3a b1 3f 90 5f 06 bf 82 3b b9 be 99 ee 79 3f
       1.3846015 -0.52489567 -0.36178213 0.97629696
000230 ab b0 11 3f bd 41 5c bf e9 75 29 3f 2b e3 26 bf
       0.569102 -0.8603781 0.6619554 -0.6519038
000240 e7 aa ac bf c9 78 0d 40 bd 48 4f 3f 24 90 a6 3f
       -1.3489655 2.2104971 0.80970365 1.3012738
000250 7a 0b 01 3f 43 0a 86 bf cd aa 6b bf 03 2f 88 3f
       0.50408137 -1.0471882 -0.92057496 1.0639347
000260 91 7f 4d bf 90 99 80 3e 08 41 f4 3e ec b3 f2 bf
       -0.80272776 0.2511716 0.47705865 -1.8961158
000270 66 1d b8 be 3b a3 d9 3e 72 e2 5c bf 10 32 b5 be
       -0.3595993 0.42507347 -0.8628303 -0.35389757
000280 6b f4 35 ba 1e 28 78 3c 65 ca a7 3d f9 08 4a bf
       -0.0006941023 0.015146283 0.081929006 -0.7891994
000290 7e 4c 9d bf d1 37 a5 3e be f9 95 3f ed 80 02 3f
       -1.2288969 0.32269147 1.171684 0.50977975
0002a0 1c 41 74 3d 01 2a 1f be 6b 58 25 3f f9 aa 53 bf
       0.059632406 -0.15543367 0.6458804 -0.8268276
0002b0 9b b3 88 bf 4c f1 1b ba cf 32 4d bf 29 52 cc 3f
       -1.0679811 -0.0005948737 -0.8015565 1.5962573
0002c0 1d bb a5 3e 18 44 6f 3f eb 36 f5 be 83 98 55 3d
       0.3236932 0.9346328 -0.47893462 0.0521474
0002d0 02 5a 44 3f f0 1e 87 bf 66 e8 23 3f 26 49 13 3f
       0.7669984 -1.0556316 0.64026487 0.5753349
0002e0 c0 f0 0a 40 3e a3 64 bf 99 f0 3e bf f1 8e ba 3f
       2.1709442 -0.8931159 -0.7458587 1.4574872
0002f0 f4 42 e2 be 7e 30 11 3f 0d bb a2 3e f6 86 e7 bd
       -0.44191706 0.5671462 0.31783333 -0.11305039
000300 c9 25 77 bd 47 fc 8b 3f 0b b3 fb 3e d6 be d0 bd
       -0.06033877 1.0936364 0.49160036 -0.10192649
000310 28 cf 3e 3f ef c5 6d 3f 65 91 c8 be f5 9f 7a bf
       0.74534845 0.9288015 -0.39173427 -0.97900325
000320 5c 07 68 3f 3c 10 44 bf 85 81 f4 3f e9 c1 18 bf
       0.9063623 -0.7658727 1.9102026 -0.59670883
000330 f2 9d 64 3d 8f ab 33 bf aa 63 82 3e bb c1 91 bf
       0.05581469 -0.7018365 0.25466663 -1.1387247
000340 a0 43 50 bf 0c c2 28 be 5f 4d 21 3f c0 bf d1 3f
       -0.8135319 -0.16480273 0.63008684 1.6386642
000350 64 14 78 be 58 24 8f 3f e4 76 b7 be f1 64 82 bf
       -0.24226528 1.1182966 -0.35832894 -1.0187055
000360 c7 d7 1c 40 9f 5d 47 c0 1a 7a 3e bf b5 a9 89 3f
       2.45067 -3.1150892 -0.7440506 1.0754915
000370 18 48 81 bd 84 88 97 3f a0 0b 9a bf d9 65 5c 3f
       -0.06312579 1.1838536 -1.2034798 0.8609291
000380 44 bb 9a bf 77 e4 a9 bd f4 ca 6e 3f ea 68 bd bf
       -1.2088399 -0.08295529 0.9327843 -1.4797642
000390 9e 1a 0d 3b 48 92 04 bf 51 fa c3 3f 34 dc 85 3f
       0.0021530758 -0.5178571 1.5310766 1.0457826
0003a0 52 15 27 bf fe f8 70 bf 6a bc 1c 3f 9c 71 61 bf
       -0.6526691 -0.9412993 0.61225 -0.8806398
0003b0 40 9d e8 be bb 13 9c 3f 24 19 4d 3f 0d 74 71 3f
       -0.45432472 1.2193521 0.80116487 0.94317704
0003c0 53 93 50 3e 23 3e 24 3f a5 42 90 be 5b ef 14 be
       0.203687 0.64157313 -0.28175846 -0.14544432
0003d0 a9 99 ed 3e 56 96 a2 bf 60 c0 e9 3f b3 24 68 3f
       0.46406296 -1.2702129 1.8261833 0.90681
0003e0 c2 8e 80 be 76 b6 69 3f da cd 85 3f b5 8a b6 3f
       -0.25108916 0.9129404 1.0453446 1.426108
0003f0 18 25 2d 3f 60 da 77 3e 5a 9b 70 3d 7d 5e 84 3f
       0.67634726 0.24204397 0.058741905 1.0341336

conv1.convs.<node___to___node>.lin_l.weight f4 [16, 360]
000000 98 fc fb 3c 9b df 82 3c 64 7a 9f bd e6 45 40 bd
       0.030760095 0.015975764 -0.07787016 -0.04694166
000010 39 15 3f 3e 07 17 2e 3d af 8d fa 3c eb 4d 6c bd
       0.1866044 0.04250243 0.030585138 -0.057691496
000020 99 69 6f bd 50 b5 59 3e 24 45 d2 ba e6 73 a4 3a
       -0.058450315 0.21260571 -0.0016042334 0.0012546747
000030 66 2d ab bd 70 fb 60 bc 5a 4d 4f 3e ad 6f ed 3c
       -0.083582684 -0.013731822 0.20244351 0.028983915
000040 e8 5e 16 bd 30 dc bb bd bf 3c b0 bd ba 95 06 3e
       -0.036711603 -0.09172857 -0.086053364 0.13143054
000050 9a ab 11 39 33 a6 37 3d 2e 9a a4 bd da ce d3 bd
       0.00013892204 0.044836234 -0.0803722 -0.10342188
000060 18 99 3d 3e 9a 35 be 3c a2 b0 a2 bd d8 2b b9 bd
       0.18515432 0.023218919 -0.07943846 -0.09041566
000070 80 78 cd bd 98 21 42 3e b7 9c de 3c a8 ed c9 3c
       -0.10032749 0.18958127 0.027174337 0.024649456
000080 c1 c9 3a 3e 83 9a 2d 3d 2d c7 bb bb c9 c6 a1 3c
       0.18241026 0.042383682 -0.0057305307 0.019748108
000090 ba f8 31 3d 8f 3e 53 bd 70 09 0d be fa 9e 00 3e
       0.043450095 -0.051573332 -0.13773131 0.12560645
0000a0 79 f2 f7 bd 34 a1 f8 3d 16 ce ac ba ab f5 73 3d
       -0.12106795 0.12140122 -0.0013183977 0.05956046
0000b0 80 55 12 3e c9 48 a3 bc 29 b8 c2 3c 1e 92 2c bd
       0.14290428 -0.019932168 0.023769455 -0.042131536
0000c0 59 6c 86 bc 35 0c 6e 3d 89 00 de 3d 82 3f c9 bc
       -0.016409086 0.05811711 0.10839946 -0.024566416
0000d0 b7 f0 ed bc b1 df 58 3c c0 20 9c bc 5f a6 3e bd
       -0.029045446 0.013236926 -0.019058585 -0.046545383
0000e0 49 bf b7 bc 13 c0 51 3b 5f a6 da ba b7 2c 4b 3d
       -0.022430079 0.0032005354 -0.0016681663 0.04960319
0000f0 9b 6f 8f 3d ad 4d 6d 3b 4c 67 86 bd 27 32 73 3d
       0.07003709 0.0036209628 -0.06562671 0.059374
000100 89 32 d1 bd d3 41 54 bd b0 bb 9d bd 4f 7d 81 bd
       -0.10214717 -0.051820587 -0.07701814 -0.06322729
000110 82 4e 5d bc 76 56 06 be fa 3f 82 bc f7 47 2e 3c
       -0.013507487 -0.1311892 -0.015899647 0.010637275
000120 45 93 15 3d 55 89 89 bd 87 aa 07 be 6b 2e 44 3d
       0.0365174 -0.06715647 -0.13248645 0.04789583
000130 2d 2b c5 bd 35 2e 29 bd 49 e3 a1 3c 84 76 cc bd
       -0.09627376 -0.041303832 0.019761698 -0.099835426
000140 a5 e1 27 3d 06 09 ce 3d 3b 03 95 bc 6c 2c 15 3e
       0.040986676 0.10060315 -0.018190017 0.14567727
000150 d0 32 48 3c af ea 80 3c 32 27 1a bd 22 f9 22 3c
       0.012219146 0.015736906 -0.037635036 0.009947093
000160 34 e4 0a be 02 0e 63 3d 8b b0 15 3d f4 86 1d 3d
       -0.13563615 0.05543328 0.036545318 0.03845878
000170 ec a8 26 3d 57 d7 32 bc 7d a0 8e bd e5 97 ad 3d
       0.04068844 -0.010915599 -0.069642045 0.08476237
000180 90 5f c3 bc 89 e6 b3 3d 4f 25 aa 3d 42 ab 7b 3d
       -0.023849279 0.087842055 0.08307897 0.06144262
000190 dd 7f 8c 3c b2 66 99 bd 9f f1 d9 3d 97 60 1a 3d
       0.017150814 -0.07490291 0.10641789 0.03768977
0001a0 ef 9e a7 3a 20 32 69 bd 65 cf 95 bd b6 5b 5a 3d
       0.0012788455 -0.05693257 -0.07314948 0.05331012
0001b0 a8 1b 39 bd 5d 7a 9a bd 2e 76 77 bc 66 d9 a5 bc
       -0.04519239 -0.0754287 -0.01510386 -0.020245265
0001c0 ee bf 1b be b6 9a b3 bd 12 1f db 3d ca 74 13 bd
       -0.15209934 -0.08769743 0.106992856 -0.03600005
0001d0 5a b9 8f bc 8f a9 8b 3d cc 8e 5f bd 53 09 a9 bc
       -0.017544437 0.0681945 -0.05457954 -0.020634329
0001e0 40 42 2c 3c 72 3a 81 bd b5 54 90 3e 7a 3c 1f bd
       0.010513842 -0.06309976 0.28189626 -0.038876034
0001f0 25 d7 4a 3d b4 a4 00 3e 44 a7 16 bc 6f 78 6e 3d
       0.049521584 0.1256283 -0.009195153 0.058220323
000200 a3 f2 fd 3c e6 1a 2b be e2 a4 be bd f2 7f 83 3d
       0.030999487 -0.1670948 -0.09308793 0.06420888
000210 a3 f7 f0 3d 06 9d 18 3d cf 00 e8 bd 63 71 b3 3d
       0.11765983 0.037259124 -0.11328279 0.08761861
000220 2c 18 a0 3b de 4f d2 3a db 46 f9 3d e7 59 e8 3b
       0.004885694 0.0016045531 0.12171718 0.0070907953
000230 de af 3c bd 19 74 8f 3d df 48 fc bd c5 52 14 bd
       -0.046066158 0.07004566 -0.123185866 -0.036211748
000240 d0 13 11 be cb 6d 47 3d 6b da 77 3d 8c 88 21 be
       -0.14167714 0.04868869 0.060511034 -0.15774745
000250 1c e5 97 3d 60 0c 92 3d 2f 0d 91 bd 02 08 6e bc
       0.07416746 0.071312666 -0.07082593 -0.014528276
000260 18 08 00 3e fe 92 b8 bc e9 6b e5 3c 9d 8d 6b bd
       0.12503088 -0.022531029 0.028005557 -0.0575081
000270 c4 fc cf 3d 66 15 7d bc 0f 3a d7 bd a9 c4 e1 bd
       0.10155633 -0.015446996 -0.10509121 -0.11023838
000280 94 61 12 bb 86 f6 49 bd 3f 13 a3 bd 43 6a 6f 3d
       -0.0022335993 -0.04930737 -0.07962655 0.05845095
000290 3d 5c 93 3d e6 3c 33 bb 30 3f 07 3b bb 0d 3f 3d
       0.071953274 -0.002734953 0.0020637028 0.046643954
0002a0 3e 77 0c 3d 5f 9b d6 bc 35 61 af 3c 06 e0 ab bd
       0.034293406 -0.026197134 0.021408657 -0.083923385
0002b0 35 53 23 bd d4 94 f4 3c 45 01 2a 3e c3 64 b7 bd
       -0.039874274 0.029856123 0.16602047 -0.08954766
0002c0 31 0c 9a bb 3d e1 99 bc e1 25 b5 bd f8 ec a2 bc
       -0.0047011604 -0.01878416 -0.088451155 -0.019888386
0002d0 6a 66 13 3d e4 62 00 3e 5b a0 ff bc 66 6d 93 bc
       0.03598634 0.12537724 -0.031204393 -0.017996501
0002e0 26 41 87 3c b5 a5 00 be 92 ea 57 3d 2e a6 a8 bd
       0.016510557 -0.12563212 0.052713938 -0.08234821
0002f0 87 c0 cc 3a 6a 55 92 3d 81 3a 3b 3d 0d ed af 3c
       0.0015621342 0.07145198 0.04571009 0.02147534
000300 ca 10 cf 3d a2 ec 5c 3d be b8 eb bb 0b fb 20 3e
       0.10110624 0.053936608 -0.007193654 0.15720765
000310 e8 9e 69 3d 7a 01 d8 3c 49 4f d7 3c 5b c4 fb 3d
       0.05703631 0.026367892 0.026282923 0.12293311
000320 4f a7 45 3d 50 8f 79 3d 7a 01 88 3d 6b f3 30 3e
       0.04825526 0.06092769 0.06640907 0.17280357
000330 e6 af 0b 3d 83 a3 44 3e bb c9 a3 3d fb 38 80 3e
       0.034103297 0.19203 0.079974614 0.25043473
000340 72 5b b0 bd c1 a8 1a bd 69 80 8f 3d 5e fc 5e 3e
       -0.08611192 -0.037758593 0.07006914 0.21775958
000350 58 0f b7 3c c6 26 df bc c0 7e 6f bd cc 8a 48 3d
       0.022346184 -0.027240168 -0.058470488 0.048960492
000360 2e 2d 5d 3c cc e3 3c 3d 45 be 97 bd a0 fc 98 bd
       0.013499541 0.04611568 -0.07409338 -0.074700594
000370 ea 6a 41 3c 66 13 12 3d 21 58 00 be b1 6f 3c 3d
       0.011805275 0.03566303 -0.12533619 0.046004955
000380 2b 10 a2 3c a9 fe f6 3b dc b9 08 3d 42 6f 1c bd
       0.0197831 0.007537682 0.033380374 -0.03819204
000390 46 4d 09 bd 20 be c5 3c 3a 5c 2e 3e c6 eb 34 3d
       -0.03352096 0.02413851 0.17027369 0.044170164
0003a0 f9 d2 38 3c 32 36 9c bd f9 80 14 bc 3b f1 8d 3a
       0.011280769 -0.076275244 -0.009063953 0.0010829339
0003b0 1b 1a 43 bd 5d 5f f0 bc 4f 5c 52 bc b7 b0 27 bb
       -0.047632318 -0.029342348 -0.012839391 -0.0025587508
0003c0 9e 91 09 3d d4 fc 00 bd 88 4e ac bc 4d c0 2f bd
       0.033586137 -0.031491116 -0.02103354 -0.042908
0003d0 a7 89 85 bb 78 f8 ea 3c 1a ad 07 3d 06 f1 fa bc
       -0.0040752473 0.028682932 0.033124067 -0.030632507
0003e0 39 18 a5 3c f0 bf 90 3d db ee 1a bc 11 50 29 3c
       0.020153152 0.07067859 -0.009456362 0.010334031
0003f0 c9 64 59 bd 34 29 8e 3d 39 32 b3 bd de 82 95 3d
       -0.05307463 0.069414526 -0.087498136 0.073003516

conv1.convs.<node___to___node>.lin_l.bias f4 [16]
000000 69 1f 4d 3d 7b 43 07 bc 9f a4 9d 3c 1a af 1b 3c
       0.050078783 -0.008255835 0.019243537 0.009502197
000010 3e f7 26 3d be 74 0e 3d a6 0b 8e 3c 0b 89 a5 3d
       0.040763132 0.034779303 0.017339539 0.080827795
000020 3c b4 35 bc 1c 09 8d 3d 3c 9b 00 3e cc 14 b5 3d
       -0.0110903345 0.06886503 0.12559217 0.08841857
000030 53 d7 be 3c 92 0d ca 3b d2 aa 26 3d 22 cc 6a 3c
       0.023296034 0.0061661685 0.04069025 0.014330896

conv1.convs.<node___to___node>.lin_r.weight f4 [16, 360]
000000 82 b2 01 3d 5d 38 ed 3a 98 c6 1d 3d b3 c1 d4 bd
       0.03166438 0.0018098463 0.038519472 -0.10388508
000010 77 dd db bd bb de d8 bc f1 4d c0 3b 10 fc 30 3c
       -0.107356004 -0.026473394 0.0058686663 0.010802284
000020 9d 5b 41 3d f7 71 da bd 4b 24 1d bd 9a bf 3f bc
       0.04720651 -0.10666268 -0.03836469 -0.011703396
000030 9b a0 80 3d b9 ee e9 bc bc 58 b8 bd 1a d6 9c bd
       0.06280633 -0.028556215 -0.090013 -0.07658024
000040 37 4a 28 3d b3 f0 8f bc ab 70 7e 3c 4c 6f ac bd
       0.0410864 -0.017570829 0.015529792 -0.08419666
000050 d9 6e a6 3d 06 bb 76 bd 61 2a 05 bd e1 a5 ee bb
       0.08126611 -0.060236953 -0.03251112 -0.007282958
000060 15 b9 03 be 30 41 85 bc b8 1b 11 3d e1 65 47 bd
       -0.12863572 -0.016266435 0.035426825 -0.048681144
000070 50 36 cc 3b c7 6d 91 bd ca 7a 91 bb 76 32 29 bc
       0.0062320605 -0.071010165 -0.0044396864 -0.010326972
000080 d0 cb 80 3d ee c8 5c 3d 52 5e 89 3d 94 75 d5 bb
       0.06288874 0.05390256 0.06707443 -0.0065142605
000090 22 15 88 3c 8b 5f e2 3b 2a 63 1d be 30 a8 c3 3c
       0.01661164 0.0069083623 -0.1536986 0.023883909
0000a0 30 32 f7 bc 8e bf 21 3d 78 ca 86 3d 82 c4 91 3d
       -0.030175298 0.03948932 0.065815866 0.07117559
0000b0 98 01 89 bd d7 f4 0e 3d 15 02 bb 3c 9a 8f a3 bd
       -0.06689757 0.034901466 0.022828141 -0.07986374
0000c0 20 71 08 3c 30 9e b8 3d b0 ad 55 be 46 60 10 bb
       0.008327752 0.09014547 -0.20867038 -0.002203004
0000d0 19 d6 c5 3c 7c b0 a2 3d 1d f4 1d 3c 34 9a 14 bd
       0.024149941 0.07943818 0.009640721 -0.036279872
0000e0 8b 6c 14 3d 0b 9a ea 3c 8e 7f 31 3d 8b e2 da bd
       0.036236327 0.028637907 0.043334536 -0.10687741
0000f0 93 21 08 3c 58 29 59 3c 1f ca 03 be 50 7d ab bd
       0.008308786 0.013254486 -0.12870072 -0.08373511
000100 11 65 69 3e 03 dc e3 bd 9a c6 65 bd 38 0e 49 bd
       0.2279246 -0.11125948 -0.056097604 -0.049085826
000110 cf 2c ad bd 11 96 cd bc c4 81 35 3d 0a fc c1 3c
       -0.08455812 -0.025095971 0.044313207 0.023679752
000120 be a3 61 3b dc ec b1 bd 02 28 c3 3d 76 e8 e3 3c
       0.0034429873 -0.086877555 0.09529115 0.027820807
000130 c5 5c 2c be 6d a5 20 3e 2b 8a e7 3c d4 fe a4 3c
       -0.16832264 0.15688105 0.028264126 0.020141043
000140 70 a1 08 be 60 45 8d bc 07 45 26 3d b7 d9 ac bd
       -0.13342834 -0.017244995 0.040593173 -0.08439963
000150 9c 71 e3 bc 45 3b 96 3d f4 a5 92 bd 22 3e 15 bd
       -0.027764134 0.073355235 -0.07160559 -0.036436208
000160 fc d5 06 bc cf 9e d4 3c 6b 1f 5b 3c 03 25 47 3e
       -0.008229729 0.025954632 0.01337419 0.19447713
000170 05 cb a4 bb b7 90 ed 3c c5 10 57 bd 62 57 55 3d
       -0.0050290846 0.02899967 -0.052506227 0.052085288
000180 cb f6 04 bd 0e 93 13 3d 56 d7 a4 bb 86 82 a1 bc
       -0.032461923 0.036028914 -0.005030553 -0.019715559
000190 35 46 3c be 2b 83 69 3c 51 a5 1c 3d 19 ea 56 3c
       -0.18386157 0.014252464 0.038243596 0.013117337
0001a0 5d 85 96 bb 4a ad ec 3c 33 85 46 bd 07 64 3a 3b
       -0.004593535 0.028891224 -0.048466872 0.0028440969
0001b0 c7 21 73 bd ee cf 9e bd 31 1e a9 3d aa 44 e0 bc
       -0.059358384 -0.07754503 0.08257712 -0.027376492
0001c0 5c 57 6c 3d 43 b0 7e 3b fa 26 ef bd 80 c4 a7 bc
       0.0577005 0.0038862384 -0.11677356 -0.02047944
0001d0 c9 b1 39 3d d7 19 3e bc 15 ab 66 bd 06 01 2b bd
       0.045335565 -0.01160284 -0.0563155 -0.041749023
0001e0 c2 35 16 3d 03 c2 b0 bd 71 b1 06 3e 5d df e2 3c
       0.03667236 -0.08630755 0.13153626 0.027694399
0001f0 09 33 e6 3d 55 fb 9f 3c f5 33 86 bd 0e 42 7a 3d
       0.11240203 0.019529024 -0.06552879 0.06109815
000200 bf 51 c7 bd cc 51 bd bd fb f2 93 bc d3 c5 6e bd
       -0.09732389 -0.09244117 -0.018060198 -0.05829413
000210 38 39 6a 3d a5 79 0f bd 20 c4 0e 3e 1a 1c 2b 3c
       0.057183474 -0.03502812 0.13942003 0.010443712
000220 60 b5 0f 3d 51 3e 51 3e 06 c6 a7 bd 84 96 1d 3d
       0.035085082 0.20433928 -0.08192067 0.03847362
000230 f7 35 33 3c f1 36 69 bd 45 27 ea bd 6b 5e 02 3d
       0.010938159 -0.05693716 -0.11433271 0.031828325
000240 7f 85 0d 3e 7c f4 38 3e 35 79 1c 3d b8 aa 29 be
       0.13820456 0.18062013 0.03820153 -0.1656903
000250 48 79 41 3d f0 d7 1f bd 1d ff 98 bd e4 2f 5c bd
       0.047234803 -0.039024293 -0.07470534 -0.05375661
000260 a1 1f 36 3e 00 a3 e8 bb c9 31 f5 3b f7 b9 07 3d
       0.17785503 -0.0070995092 0.0074827415 0.033136334
000270 b5 cf 77 bd c5 ba 9a bd 9e 00 c9 3d 54 db 10 3d
       -0.06050082 -0.07555155 0.09814571 0.035365418
000280 37 5e 30 3d 1b a5 4c bc 34 04 57 3c b1 db 31 3e
       0.0430586 -0.012490536 0.013123561 0.17368962
000290 36 88 d5 3b 26 28 e1 bd 1d 99 b8 bb ee de 34 3c
       0.0065164817 -0.10993986 -0.005633487 0.011039479
0002a0 88 2b 68 b9 fc e5 be ba 5b 23 99 bc bf 9c 2e bd
       -0.00022141461 -0.001456439 -0.018693617 -0.042629953
0002b0 6a f9 d0 bd c5 88 d7 3c e0 47 09 3e 69 79 6a 3c
       -0.10203822 0.026310334 0.13406324 0.014311173
0002c0 db 08 c0 3d 16 b2 14 bd e9 09 f6 bd bf f1 c9 bd
       0.09376689 -0.03630265 -0.12013609 -0.098605625
0002d0 96 84 a4 bd ab 91 9f bd 8a ed 99 3c db e4 f7 3d
       -0.08033101 -0.07791456 0.018790025 0.121041976
0002e0 75 b4 0c bd 45 08 f1 3c 72 49 63 3d 41 6c fb bc
       -0.034351785 0.029422889 0.055489965 -0.030691268
0002f0 3a fd f1 bd 2b 78 8f 3d 9f 7a 08 bd 00 35 99 bd
       -0.11815877 0.07005342 -0.033320066 -0.07480812
000300 4d e7 ae bd 88 55 e5 3d 67 64 c2 3b cf ec 4e b9
       -0.08540211 0.111979544 0.005932379 -0.00019733909
000310 e9 47 2b bd 3e da 8c 3d 45 e7 05 bc 26 be 24 be
       -0.041816626 0.06877564 -0.008172815 -0.16088161
000320 7d aa 9a bd 67 fc a4 3d 51 d9 d3 3d 9f db a6 3c
       -0.07552049 0.080559544 0.10344184 0.020368395
000330 62 e6 94 3b 1c 1c 07 be 4a c6 ef 3d 91 26 0a 3d
       0.0045440653 -0.13194317 0.117077425 0.033728186
000340 22 39 81 bd 78 0d 11 be c1 89 42 bd b7 b5 e4 3c
       -0.06309725 -0.14165294 -0.047494654 0.02791868
000350 cc bf 6a 3c e8 7d 6f bd f2 20 95 3d e6 57 e3 bc
       0.0143279545 -0.058469683 0.072816744 -0.027751874
000360 6e 16 69 bd e9 ad 47 bc d4 d4 5f 3d 97 08 da 3b
       -0.056906156 -0.0121874595 0.054646328 0.006653856
000370 8f a8 07 bd 39 b8 81 3e 85 41 1c bb 8b 16 cd 3c
       -0.033119734 0.25335863 -0.0023842764 0.025035163
000380 49 dc b6 bd 14 f0 07 3d a4 21 2c 3d 38 9c aa 3d
       -0.08928735 0.03318794 0.04202427 0.083305776
000390 e1 a9 94 3d e2 ba ae 3d 3e 44 43 be 6d 48 0b 3e
       0.07258964 0.08531739 -0.19069001 0.13601847
0003a0 3d e3 53 3e 33 27 3c be 2c 97 14 bd d6 9b 44 be
       0.20692153 -0.18374328 -0.03627698 -0.19200072
0003b0 af df ca bd e8 a0 79 bd 40 1c 1b 3d 53 de 32 3e
       -0.099059455 -0.060944468 0.03786874 0.17467622
0003c0 20 3a a1 3d 97 a9 18 3b 5f 4c 96 bc 45 33 0e be
       0.078724146 0.0023294443 -0.018346963 -0.13886745
0003d0 59 e8 59 3d 6f 30 2c bc 44 f9 b9 3d 19 ae b9 bc
       0.0532001 -0.010509594 0.09080747 -0.022666024
0003e0 91 f6 59 3d 5a 5e 1d be ca f3 0b bd 3b 47 3f be
       0.05321366 -0.15368024 -0.034168042 -0.18679516
0003f0 49 62 57 3d ca be 2a 3e 73 60 97 3d cf 52 81 bd
       0.052583966 0.16674343 0.07391443 -0.063146226

conv2.convs.<node___to___node>.lin_l.weight f4 [16, 16]
000000 81 94 8d bd d3 1f ef 3d 01 f2 9c 3c 74 df 10 bc
       -0.069130905 0.11675992 0.019158365 -0.008842338
000010 95 8e 70 3d 47 34 c8 be 4c 69 52 3e f7 9e 0a 3e
       0.058729727 -0.39102384 0.2054798 0.13537203
000020 cc 4e 0f 3e 60 6a 95 3d a9 eb c0 3c 2b e1 03 bd
       0.13994902 0.0729568 0.023549872 -0.03219716
000030 1e 80 4f 3e 4a 78 c3 bd 9e cd f2 3d c2 6f 02 3e
       0.20263717 -0.09544428 0.118556246 0.12737945
000040 5f 82 ff bc 96 b5 ce bd 21 aa 37 3e f8 52 4a 3c
       -0.031190095 -0.100932285 0.17935993 0.012348883
000050 06 ae 82 3e da 70 88 be b0 19 dd bd f4 d8 0b 3e
       0.25523394 -0.266486 -0.10795915 0.1365698
000060 b4 d7 ef bd 10 87 1d 3c df b6 57 3e 66 f2 a6 3c
       -0.11711064 0.009614721 0.21065854 0.020379256
000070 93 39 2a be 2c 9d 36 3d d6 b2 dc bc 63 32 ee 3d
       -0.16623525 0.044583485 -0.026940744 0.11630704
000080 88 ab 17 3e 54 20 89 bd 3a fa 39 3e a7 fa 1c bd
       0.14811528 -0.06695619 0.1816186 -0.03832498
000090 2c 0c 89 bd 89 74 91 be 68 a7 34 3d 73 7a 0b 3e
       -0.06691775 -0.28409222 0.044104964 0.1362093
0000a0 45 ef 5c be c8 50 db 3d 30 79 0e be bb 65 22 3d
       -0.21575649 0.10708767 -0.13913417 0.0396478
0000b0 c7 69 17 be be 3f 34 be b0 88 ef 3d fb bd 8e bc
       -0.14786445 -0.1760244 0.11695993 -0.017424574
0000c0 ad de 9b bd 23 ac 90 3d 30 a7 32 be 53 6a 15 bd
       -0.076108314 0.070640825 -0.1744659 -0.03647835
0000d0 7f 60 d9 bd a8 29 9c bd 50 16 12 be 24 3a 2a be
       -0.10614108 -0.07625133 -0.14266324 -0.16623741
0000e0 e8 c6 f9 bd 95 cb 33 3d 41 a3 64 3e d0 be 44 be
       -0.121961415 0.043895323 0.22327901 -0.19213414
0000f0 06 86 8d 3e bf 56 d6 bc 70 8b 27 bd d9 0e c3 3d
       0.27641314 -0.02616441 -0.040904462 0.09524316
000100 16 69 12 bc 30 bd 38 be 45 d6 4b 3d f5 44 51 bd
       -0.008936187 -0.1804092 0.04976489 -0.051091153
000110 e3 9d 33 be 61 39 fb b9 36 c1 33 3d 69 79 50 bd
       -0.17540698 -0.000479172 0.043885432 -0.050897036
000120 31 44 34 be 3c 1e 14 3e 6a c0 ee bc d9 08 22 be
       -0.17604138 0.14464658 -0.029144485 -0.15823688
000130 ff b7 9d 3e d6 9e 3c be 6a 0f 8b be fd d5 58 bd
       0.3080444 -0.18419966 -0.27160197 -0.05293845
000140 22 04 ef 3d f9 4a 14 3e eb 02 95 3d b0 6d 42 3d
       0.1167071 0.14481725 0.07275947 0.047467887
000150 23 d9 c9 3d 30 7b 04 be bf 69 31 be 96 cc 62 3e
       0.09855869 -0.12937617 -0.17325495 0.22148356
000160 fc 7d 68 3e 8b e4 6a bd b2 e1 87 bd d9 29 14 be
       0.22704309 -0.05734686 -0.06634845 -0.14469089
000170 b1 b7 f0 bd e6 36 48 3e e3 03 20 3d 29 8e 20 3d
       -0.11753786 0.19552192 0.039066207 0.039198074
000180 9d 4d 49 3d 74 40 41 be d0 5a 43 be f8 d5 54 3e
       0.049146283 -0.18872243 -0.19077611 0.20784748
000190 8d ea db 3d 85 a3 43 be e8 0b 45 be f8 76 83 3e
       0.107380964 -0.19105347 -0.19242823 0.25676703
0001a0 32 23 11 3e cb 6b 6d 3d 30 f0 74 3e 9a 47 81 bc
       0.14173582 0.057964128 0.2391975 -0.015781213
0001b0 6d 78 ad be 47 fa be 3e 81 1b bd 3d ba 90 24 3e
       -0.3388094 0.3730032 0.092337616 0.16070834
0001c0 02 8f 11 3e 2f a4 b3 3c 54 55 e1 3d 40 4e 63 3d
       0.1421471 0.021928875 0.11002603 0.055494547
0001d0 43 fe 4d be 37 b0 9e bc f0 cf b2 3c 1b 14 15 3e
       -0.20116524 -0.019371135 0.021827668 0.14558451
0001e0 0d d9 c9 3d 98 69 0f be 8c 2a 47 bd d2 4c a5 bd
       0.09855852 -0.14005125 -0.04862456 -0.08071293
0001f0 57 ae 82 be f6 cb 9e 3d 8c e5 d7 3d 9f 1b e3 3d
       -0.25523636 0.07753746 0.105418295 0.11089253
000200 6a 3f ee bd 1a d9 bc bb 13 57 1d 3e eb 4a cc bd
       -0.11633189 -0.005763185 0.15365247 -0.09975227
000210 db 61 f6 bd 11 85 67 be 26 54 91 3e ac 1f 2b be
       -0.12030383 -0.22609355 0.28384513 -0.167113
000220 9c a4 96 be 2a d0 03 be 82 61 da 3d a0 98 3e 3e
       -0.29422462 -0.12872377 0.106631294 0.1861291
000230 0e 37 58 be 8e 13 64 3e 54 a1 18 3d 9c 1f 29 3d
       -0.21114752 0.22273085 0.03726323 0.04128991
000240 37 b9 ca bd f5 62 57 3e 76 23 30 bd 69 e8 26 3b
       -0.09898608 0.21033843 -0.04300257 0.0025468117
000250 e7 ca 37 3e 73 2a 90 ba 09 75 a2 3d 37 f0 9f 3d
       0.17948495 -0.0010998979 0.07932479 0.07809489
000260 87 3f 3e be 90 3c 8a bd f2 4c b6 bc cb b6 34 3e
       -0.18578921 -0.06749833 -0.022253487 0.17647855
000270 36 25 4c be 63 42 27 be c6 4e 4d bc 84 6c 4b be
       -0.1993607 -0.16333918 -0.012530988 -0.19865614
000280 71 59 2d 3e 08 20 54 3d fe b1 9c bd 29 55 17 3e
       0.1692865 0.05178836 -0.07651137 0.1477858
000290 24 bf 29 bd 78 f7 36 be 47 bf 68 3e e8 96 71 3c
       -0.04144205 -0.1786784 0.22729217 0.0147454515
0002a0 93 10 b0 3b b5 28 56 bd 61 c7 ff bd ac 4f 25 3c
       0.0053730696 -0.052284915 -0.124892004 0.010089796
0002b0 1f b3 97 be 52 fe 7c 3e 0f f9 66 bc 46 cf bb bd
       -0.29628846 0.2470639 -0.014097466 -0.09170394
0002c0 a6 7e 18 3e bc 51 8c 3e 27 21 74 bd a3 32 83 bd
       0.14892063 0.27406108 -0.05960193 -0.064061426
0002d0 e5 cb 54 be 3b ea 8d 3c 54 b6 5a 3e 22 01 2c 3e
       -0.20780905 0.017323604 0.21358615 0.16797307
0002e0 8c be 87 be 3e 38 e1 bc a7 6c 8a 3e e1 84 7c 3e
       -0.26512563 -0.027492639 0.2703602 0.24660064
0002f0 d8 14 0f 3e aa 33 d7 bd be f8 3d 3e 44 da ab 3d
       0.13972795 -0.10507901 0.18551919 0.0839124
000300 1f 4f b9 3d dc 84 6d bd 1f f9 03 be 80 43 60 bd
       0.09048294 -0.057988033 -0.12888001 -0.054751873
000310 fc b3 45 bd e4 b4 55 3c 2a f3 ff 3d ab bb ca bd
       -0.04826735 0.013043616 0.12497552 -0.09899076
000320 57 53 bc bd cc b3 04 3e 0e b5 4d be 5b ec 42 3e
       -0.09195583 0.12959212 -0.20088598 0.19035475
000330 6e e2 ad bd c4 3d 37 be 69 0a 03 3e 88 96 65 3e
       -0.08490454 -0.17894655 0.1279694 0.22420704
000340 e2 be f2 bd 4c ec 0d be d5 e1 3e 3e f8 21 41 3e
       -0.11852814 -0.13859671 0.18640836 0.18860614
000350 8d f0 aa 3d 3c b1 44 be 5b 72 b9 bd 9a 31 f9 3d
       0.08346663 -0.19208235 -0.09055015 0.12167664
000360 7b 55 47 bd 6a b6 2e 3b 48 66 7b 3e 72 1a 8a bd
       -0.048665505 0.002665902 0.24550736 -0.06743325
000370 3c cb ae be 66 c0 a3 bc e7 cd bd 3c e2 e7 18 3e
       -0.3413943 -0.019989204 0.023169471 0.14932206
000380 85 c1 81 3d c7 70 57 be 07 b5 59 bc c4 f2 59 3e
       0.06335739 -0.21039115 -0.013287789 0.21284014
000390 ae ea 31 3e 81 77 d1 bd d4 10 01 be ef 48 48 bd
       0.1737468 -0.10227872 -0.12604076 -0.04889768
0003a0 a2 5f 9a 3e 55 da 91 3e 5e b7 9a be 1b 91 06 be
       0.30151087 0.28486887 -0.30218023 -0.13141291
0003b0 bd 1a d9 bc 65 65 89 3e 00 fa 7f be 9d 07 25 3d
       -0.026502008 0.2683517 -0.24997711 0.040290464
0003c0 2c bc 56 be 15 aa 38 be c7 96 ae bd b8 b6 22 3e
       -0.2097022 -0.18033631 -0.08524852 0.15890014
0003d0 b5 a3 94 bd 99 44 d4 bd 2d 23 2b 3e 73 55 19 be
       -0.07257787 -0.103646465 0.16712637 -0.14974003
0003e0 0e 69 74 3e 90 36 c1 bc 92 7b 10 bd 65 52 30 3e
       0.238682 -0.023585588 -0.035274096 0.17218931
0003f0 f4 9c 3f be a6 5b 17 3e 3e a6 0b 3d d8 9b 17 3e
       -0.18712217 0.14781055 0.034094088 0.14805543

conv2.convs.<node___to___node>.lin_l.bias f4 [16]
000000 ec fe 44 bd 21 f0 70 3d 75 cd 04 be 1a 08 07 3e
       -0.048094675 0.058822755 -0.12969 0.13186684
000010 04 73 94 3e b5 65 e0 3d a7 59 d8 3d 39 c1 aa bd
       0.28994 0.10956899 0.10563975 -0.083376355
000020 fd 6a ed 3d 71 a9 66 3d cc 5a 94 3e 34 94 a8 3d
       0.11592672 0.056313936 0.28975523 0.082313925
000030 0f 40 b8 bd 9d 4f 97 3d bd 6a 1b 3e a9 7f ae bd
       -0.08996593 0.07388232 0.15177436 -0.08520443

conv2.convs.<node___to___node>.lin_r.weight f4 [16, 16]
000000 e2 19 d5 3d 16 cb a8 3e 82 6c b0 3d a0 83 02 be
       0.104053274 0.32967442 0.08614446 -0.12745523
000010 45 dd da 3d 98 3e dd bd 2d 7f 6e be 85 23 57 be
       0.10686735 -0.108029544 -0.23290701 -0.21009643
000020 2b b2 3b 3e d9 60 d6 be 5e 88 ea 3d d9 a6 5e 3e
       0.18329684 -0.41870764 0.11451791 0.21743335
000030 c3 a3 3e be 0a 27 36 be 8d 5d 69 be e0 37 88 bd
       -0.18617158 -0.1778833 -0.22789593 -0.06651282
000040 ad b7 66 3e 45 ad 84 3d 73 26 3e 3d 01 12 17 be
       0.22531004 0.06478361 0.046423387 -0.14752962
000050 a6 90 39 bd b1 be 32 bc 56 01 9f 3e e5 1e 89 bb
       -0.045303963 -0.010909722 0.31055707 -0.004184591
000060 d4 04 b7 be ed 7b e7 3e 59 c4 97 3e 0b 30 ed bd
       -0.3574587 0.45211735 0.2964199 -0.11581429
000070 78 9b 3e be 23 cc 90 bd fb 69 97 bb ab c5 c8 bc
       -0.18613994 -0.07070186 -0.004620788 -0.024508318
000080 7f 5c c8 3e e9 2d 87 3e bf 43 91 bd ef 69 c3 3c
       0.3913307 0.26402214 -0.07093 0.023854224
000090 27 c7 cd 3e 41 60 4c bd 7c fd de be 65 77 78 bb
       0.40191004 -0.049896482 -0.43552768 -0.0037912962
0000a0 00 5c 0d bc 4a ab 16 3e 8c 4c c1 3e 29 4f 39 be
       -0.008627892 0.14713779 0.37753713 -0.18096603
0000b0 33 4f 12 be f4 12 08 3e ab 8c 58 be 69 65 a2 3d
       -0.14288025 0.1328848 -0.2114741 0.07929499
0000c0 24 b0 b6 3e 2b 97 60 be 53 7f f1 bb 46 15 9a be
       0.3568126 -0.21932666 -0.0073699146 -0.30094355
0000d0 c4 7f ab 3e f9 52 d4 3e d1 0a e1 bb 89 9c 00 be
       0.33495915 0.41469553 -0.0068677445 -0.12559713
0000e0 5e 6e a8 3d ec 89 eb 3d bc 3c 77 3a fe 14 c4 bd
       0.08224176 0.11500916 0.00094313524 -0.095743164
0000f0 e5 03 8d 3e 12 27 99 3d 0d 38 8b 3e c1 e9 03 be
       0.27542034 0.07478155 0.271912 -0.12882139
000100 ed 63 6b 3e 15 3e 40 be 35 85 b0 bd f0 04 62 be
       0.22987337 -0.18773682 -0.08619157 -0.22072196
000110 ed 77 c3 3e 42 d4 86 3e 98 b8 ae 3d 1a ae 11 be
       0.38177434 0.26333815 0.08531302 -0.1422657
000120 23 1b 12 be bd 5b db 3d 56 13 b3 3e 8e 21 1c 3e
       -0.14268164 0.10710857 0.3497569 0.15247175
000130 b4 d0 01 3e 37 62 5b 3e 1a 40 82 3e 24 e3 80 3e
       0.1267727 0.21424185 0.2543953 0.25173295
000140 b0 d5 03 be 96 1c 8a be 67 41 30 be 5b 41 1b be
       -0.12874484 -0.26974934 -0.17212449 -0.1516165
000150 3c 62 91 be 51 bd 48 3d 8b 3c ca 3e 32 3d 32 3e
       -0.2839526 0.04900867 0.39499316 0.17406157
000160 9a 86 4e 3e 98 1c 43 3e 27 66 9d be 33 c1 f6 3d
       0.20168534 0.19053876 -0.30742 0.120485686
000170 c8 34 b4 3e 2c 1d 0f be 3b a6 91 3e c7 c5 09 bd
       0.3519652 -0.13975972 0.28447136 -0.03363588
000180 6c a3 d0 bd 85 d0 40 3e 15 01 2e 3e 59 69 58 3e
       -0.1018742 0.18829544 0.169926 0.21133937
000190 97 0a 84 be e8 b5 8b bd 29 9e 97 bd 7b 9d bc bd
       -0.2578933 -0.06821805 -0.074032135 -0.092097245
0001a0 d6 55 b4 3e 49 d8 bd bd e9 5a c6 3d a4 14 05 3e
       0.35221738 -0.09269769 0.096853085 0.12996155
0001b0 23 09 d3 3d ff 84 44 3e dc bb 8e be b1 1b 02 bd
       0.10304477 0.19191359 -0.278777 -0.03176469
0001c0 df a7 67 3e 82 49 d6 3e 20 03 4b be 95 a2 a8 3d
       0.22622631 0.41852957 -0.19825411 0.08234135
0001d0 63 c4 66 be bd 65 9f be 51 07 30 3e 01 2d 4b be
       -0.22535853 -0.31132308 0.17190291 -0.19841386
0001e0 ab 8a 62 3d f9 06 0e be 75 7c c5 3e 21 2c 54 3d
       0.055308025 -0.13869847 0.38571516 0.051799897
0001f0 af 94 9a 3d 16 5f e4 3c 7c ec 83 be ec df 9c 3d
       0.075478904 0.027877372 -0.2576636 0.07659897
000200 0d de 06 3e 23 61 e8 3c 09 1e 86 3e a1 35 5b 3e
       0.13170643 0.02836663 0.2619479 0.21407177
000210 1c af 57 3e 4f 53 8d be a9 71 49 be 9b 4f c6 bd
       0.21062893 -0.27602622 -0.19672264 -0.09683152
000220 74 9c ba 3d bb 23 8c 3d d7 72 e2 bd 67 7e da be
       0.09111872 0.068427525 -0.1105706 -0.42674562
000230 5e e8 45 3e 4b ea c7 3d fa 61 7b be 83 24 a9 3e
       0.19326922 0.09761485 -0.24549094 0.3303567
000240 fc b9 76 3e 23 b2 79 3e 7d bc 43 3e 10 d8 8e 3e
       0.24094385 0.2438436 0.19114871 0.27899218
000250 aa bc 2e 3e b4 89 8a bd 15 82 63 be 89 59 29 3d
       0.17064157 -0.06764546 -0.22217591 0.041345153
000260 59 08 11 be 10 d3 8a 3d 28 76 02 be 46 51 67 be
       -0.1416334 0.06778538 -0.12740386 -0.22589597
000270 02 a3 57 3e a3 5e d1 3d 3a ea b7 bd d7 d6 54 3d
       0.21058276 0.10223129 -0.08980222 0.0519627
000280 0d 03 86 be 7d c3 83 be 99 4a d9 bd c9 da 66 be
       -0.26174203 -0.25735083 -0.106099315 -0.22544397
000290 be 84 f4 3c f7 9f 81 be d4 b6 a7 3d 0f d8 2f 3e
       0.029848453 -0.25317356 0.081891686 0.17172264
0002a0 b3 ca 02 3e 1c 9f a2 3e d0 c4 06 3e d4 dd 1a bc
       0.12772636 0.31762016 0.13161016 -0.009452302
0002b0 fa eb 5b be 94 09 c3 be e6 89 67 3e 2e 30 11 be
       -0.21476737 -0.38093245 0.22611198 -0.14178535
0002c0 8f 71 dd bc 6e 5e 89 bd fa c8 7f 3e b5 a6 94 3e
       -0.027031688 -0.06707464 0.2497901 0.29033437
0002d0 55 dd 60 bd 30 a3 28 3d c3 f5 0a be 58 20 fa 3d
       -0.05489858 0.041171253 -0.13570313 0.122132
0002e0 16 95 1b 3e a9 c2 09 be 2d 1e 55 bd 2a 16 f0 be
       0.1519359 -0.13453163 -0.05203073 -0.4689191
0002f0 ae a5 b1 bd 3d 5b de 3c bc 50 ce 3b 5a fe 50 3e
       -0.08674179 0.027143115 0.0062962454 0.20409527
000300 40 5b fb bd b3 d7 8c 3e 6b cb 4a 3e f4 35 23 bd
       -0.12273264 0.27508315 0.1980416 -0.039846376
000310 35 e1 11 bd 52 ab 93 be 96 8e 29 bd 0c f8 d0 3d
       -0.035615165 -0.28841645 -0.041395746 0.10203561
000320 2b e5 99 3d ae 78 af bd e4 09 a3 be 3c c6 6a be
       0.075144134 -0.0856794 -0.31843483 -0.22927183
000330 80 32 ba 3e e7 be fc bd 79 16 56 bd d9 a9 88 3e
       0.36366653 -0.12341099 -0.052267525 0.26692083
000340 a5 a1 81 be 99 67 b3 bc 51 b7 d7 bd 9f 0c 32 be
       -0.25318637 -0.021899985 -0.10533012 -0.17387627
000350 d9 dd ac be 0d cc 82 be 79 da 1c 3e 1a 4d ae 3e
       -0.33763006 -0.25546303 0.15317716 0.340432
000360 c4 b0 4b 3e 0a 2f 1e 3e 34 e8 8e bc 55 4b 2f be
       0.1989165 0.15447631 -0.017444707 -0.1711858
000370 80 0f f5 3c a0 d7 6f be 5b f7 6e 3e 33 a0 34 be
       0.029914618 -0.23422098 0.23336546 -0.17639236
000380 be e1 4d be eb 91 4e b9 56 68 22 be 6b e9 34 3e
       -0.20105645 -0.0001970005 -0.15860114 0.17667167
000390 71 d5 78 3e 2b 21 c0 3e db d4 16 3e c6 3e 3c bd
       0.24300171 0.37525305 0.14729635 -0.045958303
0003a0 5c 6f c3 3c 97 d2 29 bd e1 05 35 3d dc 7b fe 3e
       0.023856811 -0.0414606 0.04419506 0.49703872
0003b0 7a 3f 03 3e c5 cb b4 be 32 b0 79 be 90 16 f1 be
       0.12817183 -0.35311714 -0.2438362 -0.47087526
0003c0 7c e2 c5 3d 64 98 b2 3d 79 b5 5a 3e 48 bf b4 3e
       0.09662339 0.087204725 0.21358289 0.35302186
0003d0 a7 90 3f be 42 0f 9c be 0c 87 41 be 7b 6c 24 3e
       -0.18707524 -0.3048039 -0.18899173 0.16057007
0003e0 93 cf 16 bc c2 bc 43 bc 2d a2 85 be d1 53 bf bd
       -0.009204763 -0.011946859 -0.26100293 -0.093421586
0003f0 de 15 81 3e b5 00 37 be 79 43 58 3d a9 bc 8d 3e
       0.25211996 -0.17871363 0.052798722 0.27683

conv3.convs.<node___to___node>.lin_l.weight f4 [16, 16]
000000 dc 68 89 3e 3d db 8f 3d 77 eb a1 bd 5e 45 39 3c
       0.26837814 0.07024238 -0.079062395 0.011308042
000010 b8 1a e2 bd e3 6c c8 bd 35 42 86 3c 3e f6 25 be
       -0.110402524 -0.097863935 0.016388992 -0.16207215
000020 e1 82 48 3e 36 7d 69 bd 94 96 fc bd a6 d3 52 3e
       0.19581176 -0.057004176 -0.12333408 0.2058855
000030 05 ab cb 3d 00 f4 80 3e 9e 30 07 3e 46 3e 20 3e
       0.09944729 0.25186157 0.1320214 0.15648755
000040 30 16 df bd aa 50 21 be 02 65 07 be 30 39 9f bd
       -0.10892904 -0.15753427 -0.13222125 -0.077745795
000050 8b cf 7b 3d 97 d3 1a 3e e0 5b d1 bd 83 c7 4f bc
       0.061477225 0.15119778 -0.10222602 -0.012681845
000060 c0 e5 fb 3d 51 06 81 3d bf 7f 2a 3e eb 1a fe bd
       0.12299681 0.06300033 0.16650294 -0.12407478
000070 04 75 8f bd 51 53 1d 3d 72 d3 66 3e 91 3f 29 bb
       -0.07004741 0.038409535 0.22541597 -0.0025825242
000080 6e 26 e4 bd 5b 1a 0a 3e 1a f6 bd bb b7 c5 74 3d
       -0.111401424 0.13486616 -0.00579716 0.059758868
000090 2d 59 13 3e 10 b4 22 be 40 32 54 3e 87 ab b3 bc
       0.14389487 -0.15889001 0.20722294 -0.021932377
0000a0 b7 ee 01 3e 80 a9 d5 ba 9f 6d 1f 3e d9 22 95 3e
       0.12688719 -0.0016301125 0.15569161 0.2912815
0000b0 99 11 e1 3d f7 19 0c 3e 6c ce 23 3b 4a 67 3f 3e
       0.109896846 0.1368178 0.0024994863 0.18691745
0000c0 1d 04 e2 bd 6c 97 9a bd 8b ca f7 bd 3d 14 87 3e
       -0.11035941 -0.07548413 -0.12099179 0.26382628
0000d0 2a 0f 9b be 4b 1e 9f 3d 27 99 bb 3c 44 92 50 be
       -0.30285007 0.0776945 0.022900177 -0.20368296
0000e0 6d 6d b1 3e 15 c2 54 bd 25 e4 42 3e a9 79 5a 3e
       0.34653798 -0.051942904 0.19032343 0.21335472
0000f0 4d 57 21 3e 6f 38 12 3e 60 c4 99 3e 04 a5 a8 3e
       0.15755959 0.1427934 0.30032635 0.32938397
000100 c6 ed 84 bc 64 00 2a 3e 04 f8 67 3d b1 0a c0 be
       -0.01622666 0.16601712 0.05663301 -0.37508157
000110 32 86 8a be ac 6a 64 be b2 08 2a be 38 55 7f be
       -0.27055508 -0.22306317 -0.1660488 -0.24934852
000120 43 7f 43 bd 26 8d 87 3d ba 9b 1d be 67 ca 52 bd
       -0.047728788 0.06618719 -0.15391436 -0.051462557
000130 3c f3 d8 bd 87 23 19 be 74 03 4b be ce c3 ef bd
       -0.10593268 -0.14954959 -0.19825536 -0.11707269
000140 14 a8 34 3e 8e 4d 14 3e 08 cf 3c be 44 8e 35 bd
       0.17642242 0.1448271 -0.18438351 -0.04432513
000150 04 ec b4 3e 91 a0 8a bd 7d 87 67 be 02 e5 f5 3c
       0.35336316 -0.06768907 -0.22610278 0.030016426
000160 40 5f 5e be 0f 24 91 be 29 9b a5 3e 8e 16 2a 3d
       -0.21716022 -0.28347823 0.3234494 0.041525416
000170 c1 2e 6c be d2 b7 20 be 8d 99 84 3d 48 bc d9 3d
       -0.2306471 -0.15695122 0.064746 0.10631615
000180 c2 d9 14 be 63 02 88 3e b2 57 aa 3d b4 fd 04 be
       -0.14536193 0.2656432 0.08317508 -0.12987405
000190 3b c3 14 be 71 eb e9 bd 1c d7 f4 3d 0a 45 e5 bc
       -0.145276 -0.1142186 0.11955091 -0.027987022
0001a0 19 0f 5c 3b 2a dc af 3d bf d6 a0 3d f5 12 e3 bd
       0.0033578335 0.08586915 0.078534596 -0.110876
0001b0 00 9f 29 3e e1 78 0c 3e b0 87 23 3e f7 d7 85 bd
       0.1656456 0.13717987 0.1596973 -0.06535333
0001c0 4d 1d 4d 3e 63 5e 34 be 6a 58 f2 bd f4 3d fa bd
       0.20030709 -0.1761413 -0.1183327 -0.12218848
0001d0 42 01 03 3d b3 2e ad be 27 89 f3 3c 19 80 24 3e
       0.03198362 -0.3382469 0.029728485 0.1606449
0001e0 f3 1d 55 3e 19 20 9c 3c 70 98 95 3d bb 2b 2f be
       0.20812206 0.019058274 0.07304466 -0.17106526
0001f0 6d 5d a5 3c c8 6a 0e be 3d fc 00 3e 02 ec 20 3e
       0.02018615 -0.13907921 0.12596221 0.1571503
000200 fe 05 99 3e a2 13 7a bc 2a 47 e7 3d 84 d7 16 bd
       0.29887384 -0.01526347 0.1129287 -0.036826625
000210 02 5a f8 bc d1 df eb bd e6 88 b8 bd 0a 79 86 bc
       -0.030316357 -0.11517299 -0.09010486 -0.016415138
000220 ef 05 1d be 54 b8 9b 3d 91 fa ea bd ea f0 a2 ba
       -0.15334295 0.07603517 -0.11473573 -0.0012431417
000230 e8 e4 03 be b2 0e 82 3d cd 20 09 be 42 e2 b7 3d
       -0.1288029 0.06350459 -0.13391419 0.08978702
000240 08 68 e3 bd 76 fe 81 be 80 db 90 bd 55 86 c4 bd
       -0.11103827 -0.2538945 -0.07073116 -0.09595934
000250 10 2c c6 bb ae 6c d4 bd df 8d f8 bd b3 97 de bd
       -0.006047733 -0.103722915 -0.12136435 -0.10868778
000260 0b 7b fa bd cd 7e aa bd 11 b8 c9 3e fa 12 37 be
       -0.122305 -0.083249666 0.39398244 -0.17878333
000270 d2 d8 ae bd 1f 2e 8c 3e 15 32 1c be 01 d1 16 bc
       -0.08537449 0.27378938 -0.1525348 -0.009205104
000280 9b 49 bf bb 93 11 fc 3c aa ae f2 3d bb 8b ac 3e
       -0.005837632 0.030770099 0.11849721 0.33700356
000290 ad 37 6f 3e 68 d2 83 3e 6f 9e 86 bd 56 4c 03 bc
       0.23361082 0.25746465 -0.065731876 -0.008013805
0002a0 a4 67 87 bd ae 46 cc bd 46 83 9a 3c fa 41 50 3e
       -0.06611565 -0.099744186 0.018861424 0.20337668
0002b0 78 34 f5 3d 2e 7f a0 bc c4 14 a7 3b 4b 65 b7 bc
       0.11972898 -0.019591894 0.005098911 -0.022387167
0002c0 15 3b b1 bd c5 7b 97 3b db 1a 6b bd fb da 0c bd
       -0.08653847 0.004622909 -0.05739866 -0.034388524
0002d0 c1 cf 8a be 11 2c 82 3e cb e8 35 3e 92 b7 9c be
       -0.2711163 0.25424245 0.17764585 -0.30608803
0002e0 9f 97 37 3e 16 11 bd bd 52 7a 24 3e 66 86 84 3e
       0.17928933 -0.092317745 0.16062286 0.25883788
0002f0 93 ac 60 3d 87 2b 1f 3d e0 34 d4 3d 79 59 2f 3a
       0.05485208 0.03885987 0.103616476 0.00066890527
000300 5a 64 f0 bd 96 44 0f be 75 7f 05 3d b7 a2 87 3e
       -0.117378905 -0.13991007 0.032592256 0.2649133
000310 d1 1d 0d 3e 05 3b 12 3d 29 c8 09 be 0a e5 89 3a
       0.13780905 0.035700817 -0.13455261 0.001052053
000320 b7 16 12 3e ab e1 4f be ca 3e a2 bd 35 6f 48 be
       0.14266478 -0.20300929 -0.07922132 -0.19573672
000330 47 45 99 3d c2 b3 57 3e 8f 88 87 be 9e 84 ba bd
       0.07483917 0.21064666 -0.26471373 -0.09107326
000340 db d3 48 3c dd 00 0c 3d 8a 75 bf bd ab 98 79 bd
       0.0122575415 0.03418051 -0.09348591 -0.06093661
000350 bd 9d 30 3e b3 f2 9d bc 68 64 27 bd 0f 6e 98 3e
       0.17247672 -0.019280767 -0.04086724 0.29771468
000360 9e 2a 46 be ed f5 81 3d fe fb aa 3e f9 7d 1d 3e
       -0.19352195 0.06345735 0.3339538 0.15380086
000370 9b f6 00 be b8 d5 0e 3e 3d c2 14 be 66 89 c3 3d
       -0.12594073 0.13948715 -0.14527221 0.09547691
000380 69 be 97 3e f5 64 76 be 1f 93 10 3e e1 f9 4a 3e
       0.2963746 -0.2406195 0.14118622 0.19821884
000390 76 a6 8c be 36 96 c7 3d f5 4f 5e 3e 72 d5 7a 3c
       -0.2747075 0.09745447 0.21710189 0.015309678
0003a0 44 ac d7 3c 5b 15 ac bd 3a 17 fe 3d 88 fc 9c 3d
       0.02632726 -0.08402511 0.12406774 0.07665354
0003b0 f4 de e0 3d 20 45 56 be 84 68 02 bd bf 55 d7 3c
       0.10980025 -0.20924807 -0.031837955 0.026286004
0003c0 5c bc c9 bd 7e f3 73 be 63 c5 c3 be 70 10 f3 bd
       -0.0985038 -0.23823354 -0.38236532 -0.118683696
0003d0 fc c9 d2 bd c0 89 9b be e5 f8 06 3e 8d 26 8d be
       -0.10292432 -0.30378532 0.13180883 -0.27568474
0003e0 89 ea 26 3e 9f 3e 35 bd 82 9b 75 be 57 be 35 bc
       0.16300406 -0.044249173 -0.23985103 -0.011092744
0003f0 10 1a f8 bc cd bd db 3d 9f 30 6c bd 20 b1 cb bc
       -0.030285865 0.10729561 -0.057663556 -0.024864733

conv3.convs.<node___to___node>.lin_l.bias f4 [16]
000000 b0 2f 34 3e 53 07 4b 3e 60 bf 55 be c3 30 8a bb
       0.17596316 0.19827013 -0.20873785 -0.0042172386
000010 c7 e9 f9 bd d3 e1 66 3c 26 06 dd bc f1 0e e1 bd
       -0.122027926 0.014091927 -0.02698047 -0.10989178
000020 6d a2 0f bd 5a fa 3c 3e 71 a0 bf 3d 4d 8e 81 3c
       -0.03506701 0.18454877 0.09356774 0.015814925
000030 eb f0 9a 3d be 13 61 be 65 fc 03 3d c6 05 7a 3e
       0.07565483 -0.21980187 0.032223124 0.24416265
